trained_models/relational.pth (torch, 918946 bytes, 39 tensors)

block1.0.block.0.weight f4 [64, 1, 3, 3]
0	0xbf1aa1a7	-0.6040291
1	0x3f65afc5	0.8972133
2	0x3e25d905	0.16196068
3	0x3f674207	0.90335125
4	0xbeb78978	-0.35847068
5	0xbf59e6eb	-0.8511798
6	0xbefbc840	-0.49176216
7	0xbfa409bc	-1.2815471
8	0x3fac7c1d	1.3475376
9	0xbf7d7791	-0.9901057
10	0x3e38a588	0.18031895
11	0x3e9b86d0	0.3037629
12	0x3f990cc6	1.1957023
13	0xbf244f0b	-0.6418311
14	0xbf05e395	-0.5230039
15	0xbf8f5009	-1.11963
16	0xbdcb1fc7	-0.099181704
17	0x3bdef541	0.006804139
18	0xbf3f2390	-0.7466364
19	0xbf2eadd3	-0.68233985
20	0x3fb1b4bb	1.388328
21	0xbfb2856d	-1.3946968
22	0xbfc03b11	-1.5018026
23	0x3b0a4c41	0.002110258
24	0x3f11fcbe	0.5702628
25	0x3f38108b	0.7190024
26	0x3f39585b	0.72400445
27	0xbe5dca5d	-0.21659227
28	0x3f9ab6aa	1.2086995
29	0xbf9d2b78	-1.2278891
30	0x3df09715	0.117475666
31	0x3f4b723f	0.794712
32	0xbf8c564b	-1.0963835
33	0x3f1b196e	0.6058568
34	0x3f1dbc72	0.6161567
35	0xbfa7a3f8	-1.3096914
36	0xbfa5eedb	-1.2963518
37	0xbfc9ed4d	-1.5775543
38	0xbfb97b6a	-1.4490788
39	0x3eb6d41f	0.3570871
40	0x3f16fc71	0.58978945
41	0xbf8ee8f3	-1.116484
42	0x3eb6a727	0.35674402
43	0xbee1fba9	-0.44137314
44	0xbf091248	-0.5354352
45	0xbea8fbce	-0.33004612
46	0xbf219b97	-0.63128036
47	0xbe7dde8c	-0.24791926
48	0x3ea54d2f	0.3228545
49	0xbea89adf	-0.32930657
50	0x3eae68bf	0.3406429
51	0xbf520906	-0.8204502
52	0xbfd1a87c	-1.6379542
53	0xbd800cb9	-0.06252427
54	0xbf5e0c1c	-0.8673723
55	0xbed1145b	-0.40835842
56	0x3f0575df	0.5213298
57	0xbebfa482	-0.37430197
58	0x3da58092	0.080811635
59	0xbf1b216c	-0.6059787
60	0x3fab8aee	1.3401773
61	0xbfa60c56	-1.2972515
62	0x3da1488b	0.078751646
63	0x3eb9ad21	0.362649
64	0x3fbb0c8d	1.4613205
65	0xbfac9a80	-1.348465
66	0x3dbd938f	0.0925666
67	0x3f6a33bb	0.91485184
68	0x3fa3317c	1.2749476
69	0xbf97e19b	-1.1865724
70	0x3fa236c8	1.2672968
71	0xbf03ed48	-0.5153394
72	0xbda2e66b	-0.07954105
73	0x3ebce8ce	0.36896366
74	0xbf2b4dc9	-0.66915566
75	0x3f1cbf68	0.6122956
76	0xbfe83baf	-1.8143214
77	0xbf122746	-0.57091177
78	0xbf7de1be	-0.9917258
79	0xbf93af37	-1.1537846
80	0x3f9a6e03	1.2064823
81	0x3ca5b961	0.020229997
82	0x3e70df2b	0.23522632
83	0xbf39e260	-0.72611046
84	0xbdf1f2a6	-0.1181386
85	0xc007b912	-2.1206708
86	0x3fa67fd2	1.3007758
87	0x3ea7673c	0.3269595
88	0x3e09089f	0.13382195
89	0xbf38304e	-0.7194871
90	0xbf571b27	-0.84025806
91	0xbef6fb4e	-0.48238605
92	0xbf768362	-0.96294224
93	0x3cb9ad70	0.02266571
94	0x3fd32b23	1.6497539
95	0xbcf9f9e0	-0.030514657
96	0xbe4e7e30	-0.20165324
97	0xbeb1b661	-0.34709457
98	0xbf8ca1d9	-1.0986892
99	0x3ff10bbe	1.8831708
100	0xbeb52906	-0.3538286
101	0x3e263210	0.16230035
102	0xbf7cf920	-0.98817635
103	0xbedf3006	-0.43591326
104	0xbf9f8003	-1.2460941
105	0xbf29743c	-0.66192985
106	0x3f5d7276	0.8650278
107	0x3f943dee	1.15814
108	0x3dcfc6cb	0.101453386
109	0xbf84b36c	-1.0367255
110	0x3e89af08	0.2689135
111	0x3f89a19d	1.0752445
112	0xbf77821d	-0.9668291
113	0xbf939287	-1.1529092
114	0xbfe3b13e	-1.7788465
115	0x3e0ac298	0.13550794
116	0x3ee73127	0.45154688
117	0xbeea58ef	-0.45770976
118	0xbf58ba46	-0.8465923
119	0x3fe9126e	1.8208749
120	0x3ef95604	0.48698437
121	0xbf5462cc	-0.8296325
122	0x3f100d86	0.56270635
123	0x3fa73b8a	1.3065045
124	0xbef64fa3	-0.48107633
125	0xbf72fcce	-0.94917
126	0xbf3b7184	-0.73220086
127	0xbfe281d0	-1.7695866
128	0x3d684fa9	0.056716595
129	0xbf83008b	-1.0234541
130	0xbf4fd36a	-0.8118197
131	0xbf923b2e	-1.142431
132	0xbe999d4d	-0.30002823
133	0xbf5dfc36	-0.8671297
134	0xbe4e7656	-0.20162329
135	0x3eafc332	0.3432861
136	0x3f89c2aa	1.0762532
137	0xc01d617f	-2.4590757
138	0xbf7568b8	-0.95862913
139	0xc012ee29	-2.2957861
140	0xbf39c2b2	-0.72562706
141	0x3c1a5939	0.009420686
142	0xbe1bb000	-0.15203857
143	0x3f1adffc	0.60498023
144	0xbf2ee6f2	-0.68321145
145	0xbf1a9540	-0.6038399
146	0x3e49f580	0.19722557
147	0xbf2dd1af	-0.67898077
148	0xbf9c66a4	-1.2218823
149	0x3f60d23f	0.8782081
150	0xbd779f37	-0.060454573
151	0x3f6fe93f	0.9371528
152	0xc00e0cba	-2.2195268
153	0x3ed9be0d	0.4252781
154	0xbf604ef2	-0.8762046
155	0xbe5b6510	-0.21425271
156	0xbea0e75a	-0.31426507
157	0xc003cb1c	-2.0592718
158	0x3f97c80f	1.1857928
159	0x3f52994f	0.8226518
160	0xbf118b27	-0.56852955
161	0xbff78831	-1.9338437
162	0xbede93ba	-0.4347208
163	0x3e089ed9	0.13341846
164	0x3dce5c1c	0.10076162
165	0xbe047c4f	-0.12938045
166	0xbff2fe75	-1.8983904
167	0x3f8594ee	1.0436075
168	0x3f320d8d	0.69551927
169	0xbe554bae	-0.20829651
170	0xbfe61e5a	-1.7978013
171	0xbe3159a4	-0.17319351
172	0x3ea65bdd	0.3249196
173	0x3ed8b47c	0.423252
174	0xbfb4f80b	-1.4138197
175	0x3f9a339d	1.2047001
176	0xbc86da1d	-0.016461426
177	0xbef0ab5d	-0.4700574
178	0x3fd8d1bd	1.6939007
179	0xbf50fd95	-0.81636935
180	0xbf8d6400	-1.1046143
181	0x3f646421	0.89215285
182	0xbea532d4	-0.3226534
183	0x3f585241	0.8450051
184	0x3f0e7686	0.556496
185	0x3fa8cb2f	1.3187007
186	0xbf0ee4a0	-0.55817604
187	0xbf5f8480	-0.87311554
188	0xbf90adcd	-1.130304
189	0x3f1e8c12	0.6193248
190	0xbfa27d4d	-1.2694489
191	0xbdeccc15	-0.11562363
192	0xbf9c2530	-1.2198849
193	0x3fa7b7b0	1.3102932
194	0x3e2252e4	0.15851933
195	0xbe84219c	-0.25806892
196	0xbec467ce	-0.38360447
197	0xbedff363	-0.43740377
198	0x3fc1aea4	1.5131421
199	0x3f0a3742	0.53990567
200	0x3ff7ca4d	1.9358612
201	0x3dc7cedb	0.097562514
202	0xbf729239	-0.9475437
203	0x3f14d690	0.58139896
204	0xbe3c9d4c	-0.18419379
205	0xbfba79fc	-1.4568477
206	0x3f240899	0.6407562
207	0xbff34969	-1.9006778
208	0xbf4d55fd	-0.8020933
209	0xbf6350e5	-0.8879531
210	0x3eb26fdb	0.34850964
211	0x3f3d8dd8	0.7404456
212	0x3e28e529	0.16493668
213	0x3eb8ef53	0.3612009
214	0x3fcbd66b	1.592481
215	0x3f856820	1.0422401
216	0xbe00526a	-0.12531438
217	0xbf64ab9a	-0.89324343
218	0x3eed2fb7	0.46325466
219	0x3de6810e	0.11255084
220	0xbfe8d472	-1.8189833
221	0x3f9aecb3	1.2103485
222	0x3f9c0a86	1.2190711
223	0xbf9a289e	-1.2043645
224	0xbfb0ab39	-1.3802253
225	0x3ee91c60	0.4552946
226	0x3f640217	0.8906569
227	0xbfcfd8b5	-1.6238009
228	0x3ec79608	0.38981652
229	0x3faf6a83	1.370438
230	0x3fb52a95	1.415362
231	0xbf684a61	-0.90738493
232	0x3fe2c47e	1.7716215
233	0xbe7776dd	-0.24166436
234	0x3d749f33	0.059722137
235	0x40820ff2	4.0644464
236	0xbeb5ebdb	-0.35531506
237	0x3dd2b0c1	0.102876194
238	0x3e5be49a	0.21473923
239	0xbf0f8187	-0.5605702
240	0xbe5b1dc1	-0.21398069
241	0x3e941431	0.28921655
242	0xbf880890	-1.0627613
243	0xbf82f772	-1.0231764
244	0xbf3556fc	-0.7083585
245	0xbf6742f7	-0.90336555
246	0x3ed833cb	0.42227015
247	0x3fbc2f9d	1.470203
248	0x3f68eca7	0.909861
249	0xbef84310	-0.48488665
250	0x3eb778c0	0.35834312
251	0x3ed6d787	0.4196131
252	0xbfa3ee0f	-1.2807025
253	0xbee7901e	-0.4522714
254	0xbd1e4c70	-0.038647115
255	0x3fa1c3e9	1.2637912

block1.0.block.0.bias f4 [64]
0	0xbe2b8044	-0.16748148
1	0x3dd28e98	0.10281104
2	0x3e2c0750	0.16799664
3	0x3e8e1185	0.2774774
4	0x3e9ee2c2	0.31032377
5	0x3e923fd8	0.28564334
6	0xbf27d782	-0.65563214
7	0xbef01090	-0.46887636
8	0x3dec1581	0.11527539
9	0xbdb457de	-0.08805822
10	0xbe9d2b09	-0.30696896
11	0xbe6ae6ed	-0.22939654
12	0x3fa83d34	1.3143678
13	0xbdeab77f	-0.1146078
14	0xbe2c1988	-0.16806614
15	0x3df7bdb8	0.12096733
16	0xbeed2f6c	-0.46325243
17	0x3ec5b1d4	0.38612235
18	0x3f270e18	0.6525588
19	0xbec553d1	-0.3854051
20	0x3eb3036a	0.34963542
21	0xbe9ffee9	-0.3124917
22	0x3f24ed8f	0.64424986
23	0x3d95cf97	0.07314985
24	0xbe3bd449	-0.18342699
25	0xbf92daf4	-1.1473069
26	0x3e9c2fc8	0.30505204
27	0x3e590a5e	0.21195361
28	0xbec28384	-0.37990963
29	0x3e9b09b5	0.30280843
30	0xbf054fc9	-0.5207487
31	0xbe59e853	-0.21280031
32	0xbdd03944	-0.101671726
33	0x3e087371	0.13325287
34	0xbdbe4e00	-0.09292221
35	0x3dcee222	0.10101725
36	0xbecf846f	-0.40530726
37	0xbe3173aa	-0.17329279
38	0xbe5816bc	-0.21102422
39	0xbea0c0c0	-0.31397057
40	0xbe33d98d	-0.17563458
41	0x3d63684e	0.055519395
42	0x3ea88490	0.32913637
43	0xbe972de1	-0.2952719
44	0xbd9a4e4d	-0.07534466
45	0x3d1dafaf	0.038497623
46	0xbf8e1378	-1.1099691
47	0xbedd8cc9	-0.43271473
48	0x3e039c6a	0.12852636
49	0xbe1368ef	-0.14395498
50	0xbf013c98	-0.50483084
51	0xbe86a2cf	-0.26296088
52	0xbdbdb767	-0.09263497
53	0x3e033e66	0.12816772
54	0x3e128563	0.14308695
55	0xbed3796c	-0.41303575
56	0x3f47d50f	0.78059477
57	0xbe9c83b2	-0.30569226
58	0xbb5b9184	-0.0033503482
59	0xbe160436	-0.14650044
60	0x3ea38280	0.319355
61	0x3c9e0a31	0.019291969
62	0x3e48d8ca	0.19613948
63	0xbf119862	-0.5687314

block1.0.block.1.weight f4 [64]
0	0x3f897acb	1.0740598
1	0x3f97fb9e	1.1873662
2	0x3f80d09f	1.0063666
3	0x3f3ba768	0.73302317
4	0x3db8e523	0.09028079
5	0x3bd9622e	0.0066340184
6	0x3fd447f1	1.6584455
7	0x3f2aa611	0.6665965
8	0x3fd0cf2f	1.6313227
9	0x3ff3eb1a	1.9056122
10	0x3fa26b37	1.2688969
11	0x4016da14	2.3570604
12	0x3fdf27f6	1.743407
13	0x400f0f4d	2.235309
14	0x3f1e2248	0.6177106
15	0x3f77df79	0.9682537
16	0x3ffa9e0a	1.957948
17	0x3fc8c2be	1.5684431
18	0x3fbd0307	1.4766549
19	0x400c29d0	2.190052
20	0x3efd7305	0.49501815
21	0x3fd65aa9	1.6746417
22	0x3fa55511	1.2916585
23	0x3faee8a7	1.366475
24	0x3fcb9c80	1.5907135
25	0x3f6111d7	0.87917846
26	0x3f7391fd	0.95144635
27	0x3f3f5956	0.7474569
28	0x3f652ef5	0.89524776
29	0x3fd2f320	1.6480446
30	0x3fcd7354	1.605082
31	0x3c9a0930	0.018803209
32	0x3f603117	0.87574905
33	0x3e21ea0c	0.15811938
34	0x3f984919	1.1897308
35	0x4007fa24	2.1246424
36	0x3fbec02f	1.49024
37	0x3f579f62	0.84227574
38	0x40006e4d	2.0067322
39	0x3f359f21	0.70945936
40	0x3f826819	1.0188018
41	0x3f96d1ed	1.1782814
42	0x3f8b3ac9	1.0877315
43	0x3f834ceb	1.0257849
44	0x3de75413	0.11295333
45	0x3f57898d	0.8419426
46	0x404051dd	3.0049965
47	0x3f1d2c84	0.6139605
48	0x3f8721b1	1.0557157
49	0x3f436614	0.76327634
50	0x3f8211f8	1.0161734
51	0x3fb73817	1.4313992
52	0x3f2e1810	0.68005466
53	0x3f8ad61a	1.0846589
54	0x3fff8ff5	1.9965807
55	0x3f1d3c2e	0.6141995
56	0x3fe67b10	1.8006306
57	0x3f7c9d3f	0.9867744
58	0x3fd297dc	1.6452594
59	0x3f858b0d	1.043306
60	0x3fe1dbec	1.764524
61	0x3fb42538	1.4073858
62	0x3e00d274	0.12580281
63	0x3f88da9d	1.0691715

block1.0.block.1.bias f4 [64]
0	0xbf264dba	-0.6496235
1	0xbf68d523	-0.9095022
2	0xbfabaf34	-1.3412843
3	0xbf323ab8	-0.6962085
4	0xbe93926a	-0.28822643
5	0xbdf5e63c	-0.12006804
6	0xbfa97318	-1.3238249
7	0xbfcfa1a7	-1.6221207
8	0xbf0c1807	-0.5472416
9	0xbf80b8c8	-1.0056391
10	0xbe7b888e	-0.2456381
11	0xbfa996b7	-1.324912
12	0xbf26f1bd	-0.65212613
13	0xbfec13e9	-1.8443576
14	0xbef20262	-0.47267443
15	0x3e26a62a	0.16274324
16	0x3e7f8436	0.24952778
17	0xbf021306	-0.5081028
18	0xbe8b99c2	-0.27265745
19	0xbf718397	-0.94341415
20	0x3f415354	0.75517774
21	0xbf0d33aa	-0.5515696
22	0xbffe54e5	-1.9869658
23	0xbfd526ac	-1.6652427
24	0xbf791627	-0.97299427
25	0xbfc028cb	-1.5012449
26	0xbfca0525	-1.578282
27	0xbf01eeb2	-0.50754845
28	0xbf318546	-0.69343984
29	0xbf9562cb	-1.1670774
30	0xbf4ce2f1	-0.80033785
31	0xbe31ed70	-0.17375731
32	0xbe0cce74	-0.1375063
33	0xbf10ce9a	-0.5656525
34	0xbfa3229c	-1.2744937
35	0xc03eb4c8	-2.979784
36	0xbfbd6a9f	-1.4798163
37	0xbf7332b1	-0.94999224
38	0xbf185f8b	-0.59520787
39	0xbfcf17a0	-1.6179085
40	0xc011410e	-2.2695956
41	0xbf65f425	-0.8982566
42	0xc00d1b54	-2.204793
43	0xbf2d159b	-0.6761109
44	0xbeed865f	-0.4639158
45	0xbef32e39	-0.47496203
46	0xc0218eea	-2.5243478
47	0xbfc04882	-1.5022128
48	0xbfcf2c61	-1.6185418
49	0xbf920ca9	-1.1410114
50	0xbda2613a	-0.07928701
51	0xbffaca97	-1.9593076
52	0xbf43db6e	-0.765067
53	0xbf8fca7f	-1.1233672
54	0xc020f46f	-2.514919
55	0x3e2921cd	0.165168
56	0xbe5252a9	-0.20539345
57	0xbffbaf22	-1.9662821
58	0x3e6335bc	0.22188467
59	0xc006dd02	-2.1072392
60	0xbff66097	-1.9248227
61	0xbfea4197	-1.8301266
62	0xbf8d544d	-1.1041352
63	0xbe2a5570	-0.16634154

block1.0.block.1.running_mean f4 [64]
0	0x3dd8b952	0.10582222
1	0x3fc6cca4	1.5531201
2	0x3f8abca7	1.0838822
3	0x3f2549cc	0.6456573
4	0x409657d6	4.698222
5	0x404f304e	3.2373233
6	0x3f3a09c7	0.7267117
7	0xc0279e53	-2.6190383
8	0x4037e926	2.8736053
9	0x3fb443b8	1.4083166
10	0x3fc761ab	1.5576681
11	0xbef3469c	-0.47514808
12	0x4077beb2	3.871014
13	0xbf1358bb	-0.57557267
14	0x40b95d08	5.7926064
15	0x4084e8e3	4.1534286
16	0x4021eba4	2.5300074
17	0x4061e168	3.5293827
18	0x40372baf	2.8620412
19	0xbf8fd482	-1.1236727
20	0x3f115250	0.56766224
21	0x3f8470b1	1.0346891
22	0xbfcca056	-1.5986431
23	0xbf11f67e	-0.5701674
24	0x40005e18	2.005743
25	0xc08b45d0	-4.352272
26	0xbffdcba8	-1.9827776
27	0xbe98fe8f	-0.29881713
28	0x3f930ab7	1.1487645
29	0x3dbce77b	0.09223839
30	0x3ed306c2	0.41216093
31	0x4059e68b	3.4046962
32	0x3fc41f4f	1.5322055
33	0x4088d92c	4.2765102
34	0xbe80dbd5	-0.2516772
35	0xc01de750	-2.4672432
36	0xbf9b5ba8	-1.2137346
37	0x3f9f05e0	1.2423668
38	0x3ff94dca	1.9476864
39	0xc018eac5	-2.3893292
40	0xbebe7a4f	-0.3720269
41	0x3fd425b0	1.6574001
42	0xbf9b23b6	-1.2120273
43	0x3edc0ca4	0.42978394
44	0x400f9bb2	2.243878
45	0x4000ca76	2.0123572
46	0xbfe34bf0	-1.7757549
47	0xc0762400	-3.8459473
48	0xc0475ca3	-3.115029
49	0x3e8cb859	0.27484396
50	0x405c2022	3.4394612
51	0xbfa5aa99	-1.2942687
52	0x400a9719	2.1654723
53	0x400c889c	2.195838
54	0xbfd51ae8	-1.6648836
55	0x402cb4ac	2.6985273
56	0x405c30a3	3.4404685
57	0xbe623d15	-0.22093613
58	0x4028dcb0	2.6384697
59	0xbf480a9e	-0.781412
60	0xbf5f947b	-0.8733594
61	0xc04dd98a	-3.2164025
62	0xbf300cf1	-0.68769747
63	0x4017adb5	2.3699772

block1.0.block.1.running_var f4 [64]
0	0x3db7ff50	0.08984244
1	0x3e901643	0.28141984
2	0x3f3b691c	0.7320726
3	0x3f358e93	0.70920676
4	0x402db781	2.7143252
5	0x3f8ce7d6	1.1008251
6	0x3e82fe0c	0.25584447
7	0x3f301c01	0.6879273
8	0x3f58b1b4	0.84646153
9	0x3e8deb0a	0.27718383
10	0x3f3d5bdb	0.73968285
11	0x3e84af0c	0.259148
12	0x3f3857db	0.72009057
13	0x3e86b4cf	0.2630982
14	0x406b09cb	3.6724727
15	0x3ff72f02	1.9311221
16	0x3f810ce8	1.0082064
17	0x3f9f23b2	1.2432768
18	0x3f192a88	0.5983052
19	0x3ec37f1d	0.38182917
20	0x3eba8118	0.36426616
21	0x3e842171	0.25806764
22	0x3fcd325e	1.6030996
23	0x3f9e2c56	1.235728
24	0x3f46db2a	0.7767817
25	0x3f9f76c5	1.245812
26	0x3fcc4dac	1.5961204
27	0x3ef82259	0.48463705
28	0x3ebf57aa	0.3737157
29	0x3d78eb3a	0.060771205
30	0x3e1593d6	0.14607176
31	0x3fb7cfa6	1.4360244
32	0x3f0a033f	0.53911203
33	0x3ff59f24	1.9189191
34	0x3e28d012	0.16485623
35	0x3fc1bf34	1.5136476
36	0x3ecee7e3	0.4041129
37	0x3f6a90a2	0.9162694
38	0x3f0992c3	0.53739566
39	0x3f3c04a9	0.7344461
40	0x3eedf7f6	0.46478242
41	0x3eaa4023	0.33252057
42	0x3f19d479	0.6008983
43	0x3e3bbeec	0.1833455
44	0x3f1e8c6e	0.6193303
45	0x3f0332f6	0.51249635
46	0x3e906df3	0.28208885
47	0x3fbcec12	1.4759543
48	0x402b909b	2.680701
49	0x3ed8fa87	0.42378637
50	0x3ff0e8ef	1.8821086
51	0x3f1eef27	0.6208367
52	0x3f0ff9b7	0.5624041
53	0x3efaed87	0.49009344
54	0x3f9f5758	1.244853
55	0x40146115	2.3184254
56	0x3f70516e	0.9387425
57	0x3f4ff124	0.81227326
58	0x3f457d18	0.77144
59	0x3ece1885	0.40253082
60	0x3f006b20	0.5016346
61	0x403b0d2a	2.9226785
62	0x3f2953da	0.6614357
63	0x3f73851f	0.95125

block2.0.block.0.weight f4 [64, 64, 3, 3]
0	0x3fe750df	1.8071555
1	0x3f5398aa	0.8265482
2	0x3f72ae30	0.9479704
3	0x3f1b778f	0.60729307
4	0xbf924bf8	-1.1429434
5	0x3f247234	0.6423676
6	0x3e64557a	0.22298232
7	0x3f00ba76	0.50284517
8	0xbfb87970	-1.441206
9	0x3e7324aa	0.23744455
10	0x3f4051e3	0.7512495
11	0xbf3e01ca	-0.7422148
12	0x3f771d36	0.9652895
13	0xbfb57469	-1.417615
14	0xbdb5fb44	-0.08885816
15	0x3f612949	0.8795362
16	0xbf9dfcd5	-1.2342783
17	0xbfb2a46a	-1.3956425
18	0xbf9bb446	-1.216439
19	0x3f2f2560	0.68416405
20	0xbf4731d1	-0.7781039
21	0x3e21c75a	0.15798703
22	0x3e889e33	0.26683196
23	0x3efb31a6	0.49061316
24	0xbfa06cf0	-1.2533245
25	0x3ecc9ad3	0.39961872
26	0x3e4d18c0	0.20028973
27	0x3f7dcc7c	0.99140143
28	0x3fdd5bcc	1.7293639
29	0xc00525f2	-2.080441
30	0xbf0421d7	-0.51614136
31	0x3ff757e9	1.9323703
32	0xbf646f9f	-0.8923282
33	0xbf7c1fa5	-0.98485786
34	0x4040a8af	3.0102956
35	0x3e42e861	0.19033958
36	0xbf0e646c	-0.5562198
37	0xbf134ede	-0.57542217
38	0xbf65b297	-0.8972563
39	0xbfae5bc9	-1.3621761
40	0xbf1fab68	-0.6237092
41	0xbf9bb3e7	-1.2164277
42	0xbe4566f1	-0.1927755
43	0x3f883501	1.0641176
44	0x3da73967	0.081652455
45	0x3e7276a2	0.23678067
46	0x3f1ddd0d	0.6166542
47	0xbefed768	-0.49773717
48	0x3f1097dc	0.5648172
49	0x3f633183	0.88747424
50	0xbd893011	-0.06698621
51	0x3f80eb50	1.0071812
52	0x3e17badc	0.14817375
53	0x3ca9e979	0.020741211
54	0x3b033c26	0.0020024865
55	0x3db87da4	0.09008339
56	0xbf4b475e	-0.7940577
57	0xbf83dba2	-1.0301402
58	0x3edc1afb	0.42989334
59	0xbe2356a5	-0.15951021
60	0x3f33ee37	0.7028536
61	0x3f2ca780	0.67443085
62	0xbe9e21c9	-0.3088515
63	0x3f623bd0	0.88372517
64	0xbf699986	-0.91249883
65	0x3f20e241	0.62845236
66	0xbf144993	-0.57924765
67	0xbf2e011c	-0.6797044
68	0xbe8dc731	-0.27691033
69	0x3e02e909	0.12784208
70	0x3f6c5656	0.9231924
71	0x4001b317	2.0265558
72	0x3eeb3b37	0.45943615
73	0x4025c322	2.590035
74	0x3e7defd3	0.24798517
75	0x3e632dd8	0.22185457
76	0xbf9e66e0	-1.2375145
77	0xbfa5b5bb	-1.2946085
78	0x40183bbc	2.378646
79	0xbfd11b35	-1.6336428
80	0xbf83e7b5	-1.0305086
81	0x3fa6b661	1.3024408
82	0xbf33cec7	-0.7023739
83	0xbf1de1ae	-0.61672485
84	0x3f101f9e	0.56298244
85	0x3c4c2544	0.012460057
86	0xbf09a574	-0.53768086
87	0xbfe82911	-1.8137532
88	0x3e807878	0.2509191
89	0xc0301b3e	-2.7516627
90	0x3eb7f95c	0.35932434
91	0xbf285c27	-0.65765613
92	0xc0131969	-2.298426
93	0x3e479c47	0.19493209
94	0x3fb2cb58	1.3968306
95	0xbf8854bb	-1.0650858
96	0xbda1422e	-0.07873951
97	0x3f334f0e	0.700425
98	0xbfa396c9	-1.2780391
99	0xbd82a6fb	-0.06379505
100	0xbfa0a2da	-1.2549698
101	0x3f0d8144	0.5527537
102	0x4005e622	2.0921712
103	0x3f6b6932	0.9195739
104	0x3f10a5cd	0.5650299
105	0x3eff03be	0.49807543
106	0xbf99cb44	-1.2015157
107	0xbece6a0f	-0.4031529
108	0xbc5ca44e	-0.013466908
109	0x4000984b	2.0092952
110	0x3f85194b	1.0398344
111	0xbea1d878	-0.31610465
112	0x3e7b2133	0.24524383
113	0xbf831208	-1.0239878
114	0x3faaeb71	1.3353101
115	0xc08090b2	-4.017663
116	0xbf8f368b	-1.118852
117	0xbf599141	-0.84987265
118	0x3f931a38	1.1492376
119	0x3e02e50f	0.12782691
120	0xbf983677	-1.1891621
121	0x3eb4b9f0	0.3529811
122	0x3f54f75b	0.83189934
123	0xc0294fd6	-2.6454978
124	0x3f3f566f	0.7474126
125	0xbff8c285	-1.9434363
126	0x3fb772d6	1.433192
127	0x3fa342f2	1.2754805
128	0xbfc7a20a	-1.5596325
129	0x3ec051bc	0.37562358
130	0x3f8e7f71	1.1132642
131	0xbf852edf	-1.0404929
132	0xbe4f6b79	-0.20255841
133	0x3f244c43	0.64178866
134	0xbf624adc	-0.88395476
135	0x3ee03eb1	0.4379783
136	0xbf9dc15d	-1.2324635
137	0xbf1e1562	-0.6175138
138	0x3fe99df0	1.8251324
139	0x3fbd9c7c	1.481338
140	0xbfb29f9e	-1.3954961
141	0x3fc232f4	1.51718
142	0xbc2470cb	-0.010036658
143	0xbf0d7f17	-0.5527205
144	0xbeb6ba8f	-0.35689208
145	0x3fb7f327	1.4371079
146	0xbffc97ae	-1.9733789
147	0xbdb3a38c	-0.087714285
148	0x3fec1177	1.844283
149	0x3c70df3b	0.01470166
150	0x3fe60ba6	1.7972305
151	0x4001d4c3	2.028611
152	0xbf9b4a34	-1.213202
153	0x3fdef1b8	1.7417517
154	0x3fa6d588	1.3033915
155	0xc00324d8	-2.0491238
156	0x3d0e5927	0.03475299
157	0x3ee8a55f	0.45438668
158	0xbe562c1d	-0.20915265
159	0xbff153dc	-1.8853717
160	0x3f6cc2f2	0.9248496
161	0xbf581e54	-0.8442128
162	0x3ff28701	1.894745
163	0x3fb01c5a	1.3758652
164	0xc00a0aad	-2.1569016
165	0xbf989e8e	-1.1923387
166	0x3c873483	0.016504532
167	0xbed64424	-0.41848862
168	0xbfefe4b7	-1.8741673
169	0x3fcc8c7d	1.5980374
170	0xbf2d213f	-0.67628855
171	0x3f933e4d	1.1503388
172	0xc01e228c	-2.4708586
173	0x3f98e803	1.1945804
174	0x3dc2316c	0.09482083
175	0xbfc280f3	-1.5195602
176	0x3fb3e758	1.4054976
177	0x3f608ab2	0.8771163
178	0xbee1363a	-0.43986684
179	0x3e6f562d	0.23372717
180	0x3d9ab452	0.075539246
181	0xbf0d3355	-0.5515645
182	0xbf74d0e7	-0.9563126
183	0x3f88ccf4	1.0687547
184	0x3f1ca70a	0.6119238
185	0x3f5e05fc	0.8672788
186	0xbeaee65b	-0.34160122
187	0xbfb733f4	-1.431273
188	0xbf6b86d2	-0.92002594
189	0x3f0327fd	0.5123289
190	0xc000969d	-2.0091927
191	0xbf5962ef	-0.84916586
192	0xbf9e5aa4	-1.2371411
193	0x4035091e	2.8286815
194	0xbf9bd015	-1.2172877
195	0x3f9485e1	1.1603357
196	0xbfaf005c	-1.3671985
197	0xbf7705c6	-0.96493185
198	0x3f8faccc	1.1224608
199	0x3eaf6eb9	0.34264162
200	0x3e853c51	0.2602258
201	0x3ee8e25e	0.45485204
202	0xbe9bf14e	-0.30457538
203	0x3e1585b1	0.1460178
204	0x3f8b8630	1.0900326
205	0x3c09f205	0.008419518
206	0x3eecfb97	0.46285698
207	0xbf63d12f	-0.88991064
208	0xbfcfdc9f	-1.6239203
209	0x3d7402b0	0.059572875
210	0xbf940725	-1.156468
211	0xbfde9edc	-1.739223
212	0x3bb933ac	0.0056519117
213	0x3e4e3ced	0.20140429
214	0x3e1ba28e	0.15198728
215	0xbf1bcba1	-0.6085759
216	0x3f77ae72	0.9675056
217	0x3fe7abce	1.8099306
218	0xc010c895	-2.2622426
219	0xbe718eca	-0.23589626
220	0xbf1003b1	-0.5625563
221	0x3e992d28	0.29917264
222	0xbfd5b8d1	-1.6697026
223	0x3f6262be	0.8843192
224	0xbf80a0c3	-1.004906
225	0x3f38637d	0.7202681
226	0xbf897802	-1.0739748
227	0x3e3fa173	0.18713932
228	0xbf660606	-0.8985294
229	0xbf4ae677	-0.7925791
230	0xbef0944d	-0.46988145
231	0x3e40979b	0.18807833
232	0x3f41d0a3	0.7570898
233	0x3fba5d24	1.4559674
234	0x3f8ca824	1.0988812
235	0xbee3b1ec	-0.4447168
236	0x3f81448d	1.0099045
237	0xbfa23ac8	-1.2674189
238	0xbf4b2b3e	-0.7936286
239	0x3e9ff28e	0.31239742
240	0xbecec3bd	-0.4038371
241	0x3fba4d30	1.4554806
242	0x3ff4bf91	1.9120961
243	0xbd9327e6	-0.071853444
244	0xbf81d377	-1.0142659
245	0xbe71d972	-0.23618105
246	0xbe88514b	-0.26624522
247	0xbf51c2c6	-0.81937826
248	0xbf0b64ee	-0.5445088
249	0x3f0b57a7	0.5443062
250	0xbf370c78	-0.715034
251	0xbf6450a9	-0.8918558
252	0x3edd1f23	0.43187818
253	0xbf724753	-0.9464008
254	0xbf0e1d98	-0.55513906
255	0xbeeddd95	-0.46458116

block2.0.block.0.bias f4 [64]
0	0xbc0aa07a	-0.008461112
1	0x3c5128cc	0.012766074
2	0xba0b227f	-0.00053075695
3	0x3d1e74bf	0.038685557
4	0xbcf4d81d	-0.029888207
5	0x3c813759	0.015773462
6	0x3ab8da44	0.0014103134
7	0x3c28d967	0.010305739
8	0x3cb708fb	0.02234315
9	0xbc8e51f5	-0.017373065
10	0xbc4b4270	-0.012405977
11	0xbacd6f82	-0.0015673491
12	0x3d4774ca	0.048695363
13	0x3c572771	0.013131962
14	0x3c493758	0.012281261
15	0xbcf9c4c6	-0.030489337
16	0xbc4be3e0	-0.012444466
17	0xbc6ba626	-0.014382875
18	0x3c559aed	0.0130374255
19	0xbcacb78d	-0.021083618
20	0x3c211cbc	0.009833511
21	0x3ccd35a4	0.025049992
22	0x3d2a22e7	0.04153719
23	0x3c1947a9	0.009355464
24	0xbd2a3faa	-0.04156462
25	0x3d1a1c61	0.03762472
26	0xbc9ca8bb	-0.019123426
27	0x3ba183d8	0.004929047
28	0xbcd54444	-0.026033528
29	0x3cb906da	0.022586275
30	0xbc86cd70	-0.016455382
31	0xbc9f0542	-0.019411687
32	0x3bf27a2f	0.0073998193
33	0xbccd2411	-0.025041612
34	0xbc8d2693	-0.017230308
35	0x3b2685d8	0.0025409367
36	0xbcf9afc0	-0.030479312
37	0xbba5cece	-0.0050600534
38	0x3cc61902	0.024181847
39	0xbbc80ddc	-0.006105168
40	0xbc97fe08	-0.018553749
41	0x3bc77122	0.0060864845
42	0x3cf66134	0.030075647
43	0xbd416016	-0.047210775
44	0xbca8517a	-0.020546664
45	0xbcca602a	-0.024704058
46	0xbc827101	-0.015923025
47	0x3cae0a2b	0.021245083
48	0xbcc0f88b	-0.023556015
49	0x3cdc80ee	0.026916947
50	0xbcf74e89	-0.030188816
51	0x3b65a95e	0.0035043578
52	0x3c8f12ec	0.017465077
53	0x3cb1bda6	0.021696877
54	0xbd01d546	-0.031697534
55	0x3d0668a8	0.03281465
56	0xbd029f62	-0.03189028
57	0xbc91672e	-0.017749395
58	0x3d464961	0.048409823
59	0x3d0f477f	0.034980293
60	0x3caf61d2	0.021408949
61	0xbafc1de5	-0.0019234983
62	0xbb597821	-0.0033183175
63	0xbca7bf41	-0.02047694

block2.0.block.1.weight f4 [64]
0	0x3fe5c46e	1.795057
1	0x3fddbcae	1.7323205
2	0x3faf8c82	1.3714755
3	0x4010f810	2.2651405
4	0x3f75e790	0.9605646
5	0x3fe2a0ca	1.7705319
6	0x401b0174	2.4219637
7	0x3fcc6848	1.5969324
8	0x3f86c0c8	1.0527582
9	0x3fc7a354	1.5596719
10	0x3fd7ed8d	1.686937
11	0x3feb8798	1.8400755
12	0x3ff80af1	1.9378339
13	0x3fd6a91e	1.677036
14	0x3dfa657a	0.12226386
15	0x40004bba	2.004622
16	0x3fe776a3	1.808308
17	0x3fb06cfd	1.378326
18	0x3f875681	1.0573274
19	0x3f784c5c	0.96991515
20	0x3ee37f83	0.4443322
21	0x40020c89	2.032015
22	0x3fd63910	1.6736164
23	0x3f40ea1a	0.7535721
24	0x3fafd191	1.373583
25	0x403426cb	2.8148677
26	0x3fabb0eb	1.3413366
27	0x3f6888b1	0.90833575
28	0x3fa0245c	1.2511096
29	0x3f621ca3	0.88324946
30	0x3f94c087	1.1621255
31	0x3fc2ef05	1.5229193
32	0x3faa1cab	1.3289999
33	0x3fb12070	1.3838024
34	0x3fa3af94	1.2787957
35	0x3fc494e2	1.5357935
36	0x3ff18638	1.8869085
37	0x3fafb068	1.372571
38	0x3faf948b	1.3717207
39	0x3ff568dd	1.9172627
40	0x3fb6ec89	1.4290935
41	0x3fc158dc	1.5105243
42	0x3ef715e6	0.48258895
43	0x3fda658d	1.7062241
44	0x3f8966e2	1.0734522
45	0x3fdc8507	1.7228097
46	0x401c64ce	2.4436526
47	0x3fdfa113	1.7471031
48	0x3fed14b5	1.8521944
49	0x3fd62de9	1.6732761
50	0x3f87563c	1.0573192
51	0x3ff1d2d0	1.889246
52	0x3f643c5d	0.8915461
53	0x4007f545	2.124345
54	0x3fbffaef	1.4998454
55	0x3ee7e4bd	0.452917
56	0x3f98e51c	1.1944919
57	0x3fafaced	1.3724648
58	0x3fd2980e	1.6452653
59	0x3cab8d66	0.020941447
60	0x3fd72ac3	1.6809925
61	0x401e46ee	2.4730792
62	0x3fa5b282	1.2945101
63	0x3fc02ddb	1.5013994

block2.0.block.1.bias f4 [64]
0	0xbf35afc0	-0.709713
1	0xbf37181e	-0.71521175
2	0xbf40848c	-0.7520225
3	0xc0029e8f	-2.0409276
4	0xbcca46fd	-0.024692053
5	0xbebfb6ee	-0.37444252
6	0xbf571da4	-0.84029603
7	0xbeaed4a1	-0.34146598
8	0xbf635007	-0.8879399
9	0xbf8ac440	-1.0841141
10	0xbe9d5507	-0.30728933
11	0xbfb6023c	-1.4219432
12	0xbfb0abd9	-1.3802444
13	0xc0162e83	-2.3465889
14	0xbf5bd4c7	-0.8587155
15	0xbfa69433	-1.3013977
16	0xbe67802f	-0.22607492
17	0xbf34c14e	-0.7060746
18	0xbfd7a515	-1.6847254
19	0xbf734c3d	-0.95038205
20	0xbd828dd3	-0.06374707
21	0xc003e33b	-2.060744
22	0xbfdf0308	-1.74228
23	0xbfb9d7cc	-1.4518981
24	0xbfc7ab92	-1.5599234
25	0xbf59dd76	-0.8510355
26	0xbfc57e6e	-1.5429208
27	0xbf170d19	-0.5900436
28	0xbffea4e3	-1.989407
29	0xbf2dfa4c	-0.6796005
30	0xbef879d1	-0.4853044
31	0xbf7ec3c8	-0.9951749
32	0xbfea925a	-1.8325913
33	0xc0078d6e	-2.1180072
34	0xbe8af6f1	-0.27141526
35	0xbf427769	-0.75963455
36	0xbfd033d1	-1.6265813
37	0xbfcc9980	-1.5984344
38	0xbf938c5e	-1.1527212
39	0xbeed4ae7	-0.46346208
40	0xbe2e77eb	-0.17037933
41	0xbf5e0085	-0.8671954
42	0xbf5f926c	-0.873328
43	0xc00d0164	-2.2032099
44	0xbf857f09	-1.0429393
45	0xc009435b	-2.144736
46	0x3e8feb91	0.2810941
47	0xbf151f02	-0.5825044
48	0xbdc6c849	-0.0970617
49	0xc011cd58	-2.2781582
50	0xbf82cb26	-1.0218246
51	0xbfd9a4a6	-1.7003372
52	0xbfd13ea3	-1.634724
53	0xbf7cd290	-0.9875879
54	0xbfcf75e8	-1.6207857
55	0xbf62c38c	-0.8857963
56	0xbcaa9ba3	-0.020826166
57	0xc00969fa	-2.1470933
58	0xbed6e745	-0.4197332
59	0xbe8c7848	-0.27435517
60	0xbfcd0ba9	-1.6019183
61	0xbf1ce587	-0.6128773
62	0xbefda670	-0.49541044
63	0xbf43080a	-0.7618414

block2.0.block.1.running_mean f4 [64]
0	0x4159814a	13.594065
1	0xc16858da	-14.521692
2	0x42159430	37.394714
3	0x40d3a19e	6.6134787
4	0x420cdc86	35.215355
5	0xc22fa62f	-43.91229
6	0xc1c77d49	-24.936174
7	0xc22bdf5b	-42.96812
8	0xc0eb22d2	-7.3480005
9	0x4123abaa	10.22941
10	0xc2345776	-45.08541
11	0xc21ea8ee	-39.66497
12	0x418de794	17.738075
13	0x4045a01b	3.087897
14	0xc11fca28	-9.986855
15	0xc20b9a93	-34.90095
16	0xc2839db0	-65.80798
17	0xc2024600	-32.56836
18	0x40c5b242	6.17801
19	0x4216e279	37.721165
20	0x420fa5ba	35.911842
21	0xc1663bad	-14.389569
22	0xc010d8d7	-2.2632349
23	0xc13ba3c1	-11.727479
24	0xc06df996	-3.7183585
25	0xc21d8538	-39.380096
26	0x4240b826	48.179832
27	0xc2012bdf	-32.292843
28	0x41f39431	30.44736
29	0xc16d350c	-14.825451
30	0x427005c1	60.00562
31	0x3f36fe77	0.7148203
32	0x427ed5c2	63.708748
33	0x408f40d8	4.4766655
34	0xc1ab590f	-21.418486
35	0xc172a282	-15.164675
36	0x417cf9a3	15.810946
37	0x419edc64	19.857613
38	0xc1a049ad	-20.035975
39	0xc15ddf38	-13.866997
40	0x4154e72b	13.3064375
41	0xc1a459d8	-20.543869
42	0x418545f9	16.659166
43	0x41e48694	28.565712
44	0x3dc4df84	0.09612945
45	0x414632ab	12.38737
46	0x412e6155	10.898763
47	0xc2830c38	-65.523865
48	0x413e248f	11.883925
49	0x4108c75b	8.548671
50	0xc21a1ef4	-38.530228
51	0x41c7c8c0	24.973022
52	0xc19371ff	-18.430662
53	0xc259c462	-54.44178
54	0xc103c5f1	-8.235826
55	0x41217bef	10.092757
56	0x41d6f8ae	26.871426
57	0x41a48aea	20.56783
58	0xc13b4a79	-11.705682
59	0xc0278700	-2.6176147
60	0x4184a31f	16.579649
61	0xc1279416	-10.473654
62	0xc1adc4b7	-21.721052
63	0x411685a9	9.407632

block2.0.block.1.running_var f4 [64]
0	0x447e3d81	1016.961
1	0x44fad1cb	2006.556
2	0x44cabf94	1621.9868
3	0x44bae02e	1495.0056
4	0x44c21d51	1552.9161
5	0x4550224f	3330.1443
6	0x44b0c2a7	1414.0829
7	0x4560f398	3599.2246
8	0x4475d17e	983.2733
9	0x4530b581	2827.344
10	0x458a41ac	4424.209
11	0x44854b74	1066.3579
12	0x453fc59f	3068.3513
13	0x448d4d3d	1130.4137
14	0x4401fdc7	519.9653
15	0x448197f9	1036.7491
16	0x45710e7e	3856.9058
17	0x450a086a	2208.526
18	0x45285b7b	2693.7175
19	0x449ee642	1271.1956
20	0x44b437c1	1441.7423
21	0x447bb251	1006.7862
22	0x45247226	2631.1343
23	0x446b3cc3	940.9494
24	0x451d9ba5	2521.7278
25	0x44dc710a	1763.5325
26	0x44ebfc69	1887.8878
27	0x4565d98f	3677.5974
28	0x44eacaf7	1878.3427
29	0x44b2b2aa	1429.5833
30	0x44be507f	1522.5155
31	0x44a97ea4	1355.9575
32	0x44d44ada	1698.3391
33	0x446910a0	932.25977
34	0x44d7b124	1725.5356
35	0x45022f30	2082.9492
36	0x4530e24d	2830.1438
37	0x450c5ffb	2245.9988
38	0x446eadff	954.7187
39	0x44d6038f	1712.1112
40	0x448fabf6	1149.3738
41	0x4540311e	3075.0698
42	0x44e9238e	1865.1111
43	0x451b3a9f	2483.6638
44	0x45270bfa	2672.7485
45	0x452de2f1	2782.1838
46	0x44c8f610	1607.6895
47	0x459e3637	5062.777
48	0x4533c1b1	2876.1057
49	0x44b6d00e	1462.5017
50	0x44f4380f	1953.7518
51	0x449cf77b	1255.7338
52	0x44de8646	1780.196
53	0x44e2ac57	1813.3856
54	0x44ed97cc	1900.7437
55	0x453108b2	2832.5435
56	0x45152c30	2386.7617
57	0x44ddd282	1774.5784
58	0x4545ed87	3166.8455
59	0x44b95b53	1482.8539
60	0x453625c3	2914.36
61	0x44afb6f1	1405.7169
62	0x4563f524	3647.3213
63	0x44c9f15d	1615.5426

block3.block.0.weight f4 [64, 64, 3, 3]
0	0xc01e3ae6	-2.4723449
1	0x4007fe23	2.1248863
2	0xbffa7cad	-1.9569298
3	0xbe7dce1b	-0.24785654
4	0xbda4c2ef	-0.08044993
5	0x3ea8ddea	0.32981807
6	0xbfde5e49	-1.7372524
7	0xbec00ebb	-0.37511238
8	0x3ec23d93	0.37937602
9	0xbee74dd0	-0.45176554
10	0xbf82a763	-1.0207332
11	0xbf6d8c62	-0.9279233
12	0xbfa7b374	-1.310164
13	0xbf7ac0fe	-0.9795073
14	0xbfe3b65f	-1.779003
15	0x3f9ffd97	1.2499264
16	0xbfa35052	-1.2758887
17	0xbf33096d	-0.6993626
18	0xbe4aa611	-0.19789912
19	0xbf29964c	-0.6624496
20	0x3f88d919	1.0691253
21	0x3fdd7069	1.729993
22	0xbe5b5b9c	-0.21421665
23	0x3e0ea50d	0.1393015
24	0xbf913c38	-1.1346502
25	0xbf09e279	-0.53861195
26	0xbed056dc	-0.40691268
27	0xbf551a82	-0.8324357
28	0xbf61107d	-0.87915784
29	0x3eacf4c3	0.33780488
30	0x3fd5a83a	1.6691964
31	0x3d09015a	0.033448555
32	0x3f574ca5	0.84101325
33	0x3de9323b	0.11386534
34	0xbf2bdb64	-0.6713164
35	0xbfbc970c	-1.4733596
36	0xbe7fa5d4	-0.24965602
37	0xc019176a	-2.392054
38	0xbfecf9a7	-1.8513688
39	0x3efc3901	0.4926224
40	0xbf938ad8	-1.1526747
41	0xbfc86d02	-1.5658267
42	0xbec2b3ad	-0.38027707
43	0xbee0d5d8	-0.4391315
44	0xbf90e293	-1.1319145
45	0xbdcbe154	-0.09955087
46	0x3f7084ea	0.9395281
47	0xbf3ff434	-0.74982
48	0x3fd597ae	1.6686914
49	0xbf66010b	-0.8984534
50	0xbec1a598	-0.3782165
51	0x3f70371b	0.93834084
52	0x3d9a52ff	0.075353615
53	0xbf94e6ca	-1.1632931
54	0x3fa585ac	1.2931418
55	0x3f3de695	0.74179965
56	0xbf6322ad	-0.88724786
57	0xbf7498ed	-0.95545846
58	0xbdecffe7	-0.11572247
59	0xc0160a8c	-2.3443937
60	0x3f18b594	0.59652066
61	0xbdc4156b	-0.09574398
62	0xbffe2260	-1.985424
63	0x3f9469c3	1.1594776
64	0xbf1883fc	-0.5957639
65	0xbf8ba424	-1.0909467
66	0x3f7ad926	0.9798759
67	0x3eb50b9e	0.35360426
68	0xbfabe35a	-1.3428757
69	0x3c9712d8	0.018441603
70	0x3ebbc8e4	0.36676705
71	0xbd9dd43d	-0.07706497
72	0xbda32b76	-0.07967274
73	0x3e8b88e9	0.27252892
74	0x3faad279	1.3345481
75	0x3f4e97d8	0.80700445
76	0xbf902c78	-1.1263571
77	0x3f22c469	0.6358095
78	0x3d139998	0.03603515
79	0xbf110e26	-0.56662214
80	0x3f994872	1.1975234
81	0xbca8f708	-0.020625606
82	0xbfd989e0	-1.6995201
83	0xbf62af47	-0.885487
84	0x3fa6c844	1.3029866
85	0xbfdbd89c	-1.7175479
86	0x3e01cc9b	0.12675707
87	0xbf45b1d9	-0.772245
88	0x3de5d745	0.112227
89	0xbfe18add	-1.7620503
90	0x3fa101ff	1.2578734
91	0x3e787f02	0.242672
92	0xbfb454f1	-1.4088422
93	0xbf15aa23	-0.58462733
94	0x3ea83900	0.32855988
95	0xbfa4a9b4	-1.2864289
96	0x3fa13e86	1.2597206
97	0xbefcb4e9	-0.49356773
98	0xbfd5c7b5	-1.6701571
99	0x40051aee	2.0797687
100	0x3f190d6a	0.59786093
101	0x3f38bc73	0.7216255
102	0x3ecbfcb8	0.39841247
103	0x401418a9	2.3140051
104	0x3f9ebbc6	1.2401054
105	0x3d892dd6	0.06698196
106	0x3dd8089a	0.105485156
107	0x3f6a17e7	0.9144272
108	0x3f520b65	0.82048637
109	0xbf8be834	-1.0930238
110	0x3f97d97b	1.1863245
111	0xbfc64137	-1.5488652
112	0xbf52f3fc	-0.8240354
113	0xbf87fbc2	-1.0623705
114	0xbe47034a	-0.19434848
115	0x3da7f4c0	0.08200979
116	0xbf6bc7c7	-0.9210171
117	0x3ffd8377	1.9805745
118	0x3db199e2	0.08671929
119	0x3f4b6ca5	0.79462653
120	0x3eaf9403	0.3429261
121	0x3ec2fe4a	0.38084632
122	0xbeed8137	-0.46387646
123	0xbf9d852f	-1.230627
124	0x3e8f2bcb	0.279631
125	0xbf8e8c50	-1.113657
126	0xbd8fd847	-0.070236735
127	0xbea2e15a	-0.31812555
128	0xbded5a25	-0.11589459
129	0xbd3a0367	-0.0454134
130	0xbeaeeb04	-0.34163678
131	0xbd54d709	-0.051962886
132	0xbe1a7ea2	-0.15087369
133	0x3df9ff2b	0.122068726
134	0xbe1526f8	-0.14565647
135	0x3f43a137	0.7641787
136	0x3ea687a2	0.32525355
137	0xbf62aeb0	-0.885478
138	0x3fe50e9e	1.7895086
139	0x3d5bac8f	0.05363136
140	0x3fb17bca	1.3865902
141	0xbf2e34e6	-0.68049467
142	0x3dcee991	0.10103143
143	0xbebca8f6	-0.36847657
144	0xbfaea40c	-1.3643813
145	0xbee8cd7f	-0.4546928
146	0xbf4d6b7f	-0.8024215
147	0xbe42c1b4	-0.19019204
148	0x3e940934	0.2891327
149	0xbe2db423	-0.16963248
150	0xbeff92de	-0.49916738
151	0xbf53b2bd	-0.8269461
152	0xc009400e	-2.1445346
153	0x3fd9bc35	1.7010561
154	0xbeff71f1	-0.49891618
155	0xbfd2ab11	-1.6458455
156	0x3e8f0a2b	0.27937445
157	0xbe9f1126	-0.3106777
158	0xbe138a91	-0.14408328
159	0xbf8fbcb5	-1.1229464
160	0xbf70e861	-0.9410458
161	0xbf7f0ddb	-0.99630517
162	0xc009a24b	-2.1505306
163	0xc000f9ce	-2.0152469
164	0xbfe70bc9	-1.8050472
165	0x3ee9026b	0.45509657
166	0xc049917c	-3.1495047
167	0xc02bd573	-2.684903
168	0xbecbefd7	-0.3983142
169	0xbf21de7e	-0.6323012
170	0xbf9a0c62	-1.2035029
171	0xbf8d8082	-1.1054842
172	0xbec6f377	-0.38857624
173	0xbfac8d10	-1.3480549
174	0xbe1f7fd1	-0.15576102
175	0xbdaef77a	-0.08543296
176	0xbf913c1e	-1.1346471
177	0xbf85e1b4	-1.0459504
178	0xbe9765e3	-0.2956992
179	0xbf9e9357	-1.2388715
180	0xbef67334	-0.48134768
181	0xbeed597d	-0.46357337
182	0x3fc428bf	1.5324935
183	0x3f8cbda9	1.099538
184	0xbf2c2c2a	-0.6725489
185	0x3e5be373	0.21473484
186	0xbfce4c37	-1.6117009
187	0xbd3c8cad	-0.046032596
188	0xbea46e70	-0.32115507
189	0x3fabf921	1.3435403
190	0xbf228c4a	-0.63495314
191	0xbf8f3c35	-1.1190249
192	0x3f1d738a	0.61504424
193	0x3f7e012d	0.99220544
194	0x3fa42bfd	1.2825924
195	0xbf6ae948	-0.9176221
196	0xbf27a42b	-0.65484875
197	0xbe47ee3c	-0.19524473
198	0x3d5f3797	0.054496374
199	0xbff035f0	-1.876646
200	0x3f054692	0.52060807
201	0xbf877be1	-1.058468
202	0xbcdacb5a	-0.026708294
203	0xbed2b1f8	-0.41151404
204	0xbf77cde4	-0.9679854
205	0xbf8acde8	-1.0844088
206	0x3f21d44a	0.6321455
207	0x3fe0d407	1.7564706
208	0xbeff6f66	-0.49889678
209	0xbfb495d4	-1.4108224
210	0x3ff2cb36	1.8968265
211	0xbf9d01d1	-1.2266179
212	0xbf1f6e80	-0.62277985
213	0xbf27bf14	-0.6552594
214	0xbe990d43	-0.2989293
215	0x3ef67694	0.48137343
216	0xbfbad4c6	-1.4596183
217	0xbe8d35f9	-0.2758024
218	0x3f384394	0.71978116
219	0xbf8c5e34	-1.0966249
220	0xbf3273c1	-0.69707876
221	0x3e4ca2f4	0.19984037
222	0xbe921249	-0.28529575
223	0xbf812cbf	-1.009178
224	0xbf87a7e0	-1.0598106
225	0xbe261d70	-0.16222167
226	0x3ec31592	0.38102394
227	0xbf802068	-1.000989
228	0xbc4ba094	-0.0124284215
229	0xbdc3375d	-0.09532044
230	0xbd856fb9	-0.0651545
231	0xbdc8e048	-0.09808403
232	0xbef59ef7	-0.47972843
233	0xbeff5aa9	-0.49873856
234	0xbf00ac47	-0.50262874
235	0xbfe975c5	-1.8239065
236	0xbf8eb249	-1.1148158
237	0x3fc05d36	1.5028446
238	0xbf7d6297	-0.9897856
239	0xbfac065c	-1.3439441
240	0xbe229b76	-0.15879616
241	0x3f9989a8	1.1995134
242	0xbf48d666	-0.78452146
243	0xbf6943f3	-0.9111931
244	0x3f20ceaa	0.62815344
245	0xbea76be1	-0.32699493
246	0x3eeab929	0.4584439
247	0x3f27249f	0.65290254
248	0x3e05ccf0	0.13066459
249	0xbf3dd12b	-0.7414729
250	0x3f66b38d	0.9011772
251	0xbf7480c3	-0.95508975
252	0xbf35b1a6	-0.70974195
253	0xc01aa899	-2.4165404
254	0xbffd4044	-1.9785237
255	0xbea64a84	-0.32478726

block3.block.0.bias f4 [64]
0	0xbd08f9c1	-0.03344131
1	0x3b7ff3a2	0.0039055129
2	0x3c2fefb7	0.010738305
3	0xbd2d230d	-0.042269755
4	0x3c4e4f8d	0.012592209
5	0x3c8b32be	0.01699197
6	0x3d0d91f1	0.03456301
7	0x3ce478da	0.027889658
8	0x3a74e47d	0.0009341909
9	0x3cef366e	0.029200759
10	0xbd008170	-0.03137344
11	0x3c6a3821	0.014295609
12	0xbd003bf9	-0.031307194
13	0x3bc2eab4	0.005948389
14	0x3b92f574	0.0044848267
15	0xbcd258c3	-0.02567709
16	0x3d11dbf6	0.03561016
17	0x3c83598b	0.016033908
18	0x3ba998ae	0.0051756715
19	0x3c3c6ce9	0.011500576
20	0xbd2d6f33	-0.042342376
21	0x3cb5be06	0.022185337
22	0x3c3b8864	0.011446092
23	0x3bbc8e32	0.0057542557
24	0x3b5f5761	0.0034079181
25	0x3cdc5eb6	0.02690063
26	0xbcbc0389	-0.022950904
27	0xbc61b324	-0.013775621
28	0xbc23d5d6	-0.009999713
29	0x3ce00a35	0.027348617
30	0xbd2fc867	-0.042915728
31	0x3c5c78ab	0.013456504
32	0x3b64c851	0.0034909437
33	0x3d034f2f	0.032057937
34	0x3cb668be	0.022266742
35	0x3cad8836	0.021183114
36	0xbc391d00	-0.011298418
37	0xbc6a4c48	-0.014300413
38	0xbcfa0fc7	-0.030525101
39	0xbca19e4c	-0.019728802
40	0xbd179c68	-0.037014395
41	0xb82d0015	-4.124649e-05
42	0x3d3e76f8	0.046500176
43	0x3ca3e4c5	0.020006547
44	0x3d22133e	0.039569132
45	0xbd067573	-0.032826852
46	0xbc95b02e	-0.018272486
47	0xbb8eb852	-0.004355469
48	0x3ca72d84	0.020407446
49	0x3c89b9a2	0.01681215
50	0x3cc16a19	0.023610162
51	0xbca06871	-0.019581052
52	0x3d06ac1a	0.032878973
53	0xbc2d0c94	-0.010562081
54	0xbccd0186	-0.02502514
55	0xbd154537	-0.03644296
56	0x3b7ba3cd	0.0038397193
57	0x3c4ec0c4	0.012619201
58	0x3ca674dd	0.020319397
59	0x3cf43b96	0.029813569
60	0x3d144431	0.036197845
61	0x3c7c6049	0.015403816
62	0x3cbc076c	0.022952758
63	0xbcc87189	-0.0244682

block3.block.1.weight f4 [64]
0	0x3fc60eac	1.5473228
1	0x3fc22d19	1.5170013
2	0x3fe7b3ba	1.8101723
3	0x3fdf5614	1.7448144
4	0x40017885	2.022981
5	0x3f600d1a	0.8751999
6	0x3ff667c6	1.9250419
7	0x40126140	2.2871857
8	0x3f9a7bd6	1.2069042
9	0x3f9f5d97	1.2450436
10	0x3e251a68	0.16123354
11	0x3f83c605	1.0294806
12	0x3fb6988d	1.4265305
13	0x3fa6ae27	1.3021897
14	0x3fe74323	1.8067364
15	0x4002a24b	2.0411556
16	0x401da869	2.463404
17	0x3fcca3d2	1.5987494
18	0x3f7dd0fe	0.9914702
19	0x3fcbb297	1.5913876
20	0x3fb272d5	1.3941294
21	0x4012abab	2.2917278
22	0x3fe47105	1.7846991
23	0x40047f0c	2.0702543
24	0x3fd016e9	1.6256992
25	0x40076e9d	2.1161263
26	0x3fcd05e1	1.6017419
27	0x3f97f090	1.1870289
28	0x3f5d4be4	0.86443925
29	0x3fd4e1c4	1.6631398
30	0x3f9aa038	1.2080145
31	0x3fbfdc68	1.4989138
32	0x3fc7d6f2	1.5612471
33	0x3f841df7	1.0321645
34	0x4008d02d	2.137706
35	0x3dca20b4	0.09869519
36	0x3dd3345f	0.10312723
37	0x40067252	2.1007276
38	0x3f8c9b5b	1.0984911
39	0x3fead52a	1.8346303
40	0x3fb13e22	1.3847086
41	0x3fba6f12	1.4565146
42	0x3f86bd7b	1.0526575
43	0x3ff0b1db	1.8804277
44	0x3fbc5d63	1.4715999
45	0x3fb09594	1.3795648
46	0x40082b5b	2.1276462
47	0x3fd54e2b	1.666448
48	0x3ff57fef	1.9179667
49	0x3fd9f2c2	1.7027209
50	0x3ff4142d	1.9068657
51	0x3ece25f5	0.40263334
52	0x3f7e3585	0.99300414
53	0x3fc9c73e	1.5763929
54	0x3fab608e	1.3388841
55	0x3f59b09a	0.850351
56	0x40038671	2.0550807
57	0x3f931f7e	1.1493986
58	0x3feb7ad3	1.8396858
59	0x3fc64196	1.5488765
60	0x4004ac7a	2.0730271
61	0x3f8998fd	1.0749813
62	0x3fc4415d	1.5332447
63	0x3d5166f4	0.051123574

block3.block.1.bias f4 [64]
0	0xbf99e320	-1.2022438
1	0xbeae3255	-0.34022775
2	0xbf9c6c9c	-1.2220645
3	0xbfefc037	-1.8730534
4	0xbdd59bb3	-0.10430088
5	0xbf4f3b18	-0.80949545
6	0xbf44bc13	-0.7684948
7	0xbf96b160	-1.177288
8	0xbff041db	-1.8770097
9	0xbf30f2d9	-0.69120556
10	0xbf5318bd	-0.8245962
11	0xbf152359	-0.5825706
12	0xbff7a4b9	-1.9347144
13	0xbf6a0722	-0.91417134
14	0xbee7676b	-0.4519609
15	0xbf970d50	-1.1800938
16	0xbf8ebd87	-1.1151589
17	0xbf86ddbe	-1.053642
18	0xbf30a00b	-0.68994206
19	0xbf757d62	-0.95894444
20	0xbf999ced	-1.2001015
21	0xbe3d8d25	-0.18510874
22	0xbf45f0e0	-0.7732067
23	0xbf0f4813	-0.5596935
24	0xbf4efa20	-0.8085041
25	0xbf9f8a25	-1.2464033
26	0xbf6b606d	-0.9194401
27	0xbfabe2e6	-1.3428619
28	0xbf544d2a	-0.82930243
29	0xbfaa4990	-1.33037
30	0xbf446c82	-0.7672807
31	0xbf42774a	-0.7596327
32	0xbfa4d927	-1.287877
33	0xbf501093	-0.8127529
34	0xbf9b31d9	-1.2124587
35	0xbf3fadb1	-0.7487441
36	0xbf288c70	-0.6583929
37	0xbf07aaed	-0.5299519
38	0xbed8d02f	-0.4234633
39	0xbf12ae11	-0.57296854
40	0xbfc4fc40	-1.538948
41	0xbfb54d5d	-1.4164234
42	0xbee82347	-0.45339414
43	0xbf6cf893	-0.92566794
44	0xbfd50d09	-1.6644603
45	0xbf440078	-0.76563215
46	0xbfad0e4f	-1.3519992
47	0xbf3a315e	-0.7273158
48	0xbfb409ef	-1.4065531
49	0xbfe4c18f	-1.7871569
50	0xbf82cee4	-1.0219388
51	0xbf0a39ac	-0.5399425
52	0xbf6dbbfb	-0.9286496
53	0xbf295cd5	-0.66157275
54	0xbf9077d0	-1.1286564
55	0xbf6881c7	-0.90823025
56	0xbfc9eb5a	-1.5774949
57	0xbfa9ee9a	-1.327594
58	0xbf0662e1	-0.5249463
59	0xbf8e8a6a	-1.1135991
60	0xbfaf318b	-1.3686994
61	0xbf7fd5e1	-0.9993573
62	0xbec5ee60	-0.38658428
63	0xbe77c218	-0.24195135

block3.block.1.running_mean f4 [64]
0	0xc274ff9a	-61.24961
1	0x4183b840	16.464966
2	0xc20cc336	-35.190636
3	0x4213e527	36.97378
4	0xc26e0d5f	-59.513058
5	0xc1bb3e74	-23.405495
6	0xc1b7c123	-22.969305
7	0xc270b6b3	-60.178417
8	0x4158cdb8	13.550224
9	0x41d7f727	26.99568
10	0xc1e38b70	-28.443085
11	0x414fd41a	12.989283
12	0x41c25d86	24.295666
13	0xc1218272	-10.094347
14	0xc21239be	-36.55639
15	0xc1c2b4a8	-24.338211
16	0xc154f0e5	-13.308812
17	0xc04f883a	-3.2426896
18	0x407e3ea3	3.972573
19	0x41a11ca2	20.13898
20	0xc207ceaf	-33.95184
21	0xc20f3b66	-35.808006
22	0x41de2bc6	27.771374
23	0xc25424a6	-53.03579
24	0xc29d68b2	-78.70448
25	0xc0a43c02	-5.132325
26	0x41945cbc	18.54528
27	0xc1833db6	-16.405132
28	0x411058b2	9.021654
29	0xc29c13d1	-78.038704
30	0xc1157e7d	-9.343381
31	0xc109540a	-8.583017
32	0x41b58b59	22.69304
33	0x413221c6	11.133245
34	0xc2613178	-56.29831
35	0x4205c0ea	33.438393
36	0x41b70a6d	22.88009
37	0xc2837265	-65.72343
38	0x4198f982	19.12183
39	0xc191a090	-18.2034
40	0xc18d194b	-17.63735
41	0x41aa38ad	21.277674
42	0xc224b431	-41.17597
43	0xc25f41db	-55.814312
44	0x419f698d	19.926538
45	0x419ea710	19.831573
46	0x419c4979	19.535875
47	0xc11cc799	-9.79873
48	0xc22db9f1	-43.431583
49	0x41ca6bd7	25.302656
50	0xc2898513	-68.75991
51	0x4212d986	36.712425
52	0xc1f2f617	-30.370161
53	0xc2648eb9	-57.139378
54	0xc1fe33b6	-31.77525
55	0xc1c2eda1	-24.36603
56	0xc215cbe5	-37.449116
57	0x3f119b1f	0.5687732
58	0x418b6e6f	17.428923
59	0x41b250ee	22.289516
60	0xc23e530e	-47.58111
61	0x418a0b8d	17.25564
62	0xc2b2a7d5	-89.3278
63	0x419b6fad	19.42953

block3.block.1.running_var f4 [64]
0	0x4519812a	2456.0728
1	0x454c7498	3271.287
2	0x4515e98d	2398.597
3	0x449af78d	1239.736
4	0x45a688b4	5329.088
5	0x44ed2593	1897.1742
6	0x44fc10d1	2016.5255
7	0x45210d55	2576.8333
8	0x44f65ffc	1970.9995
9	0x452503f4	2640.247
10	0x45188eb3	2440.9187
11	0x450a2054	2210.0205
12	0x4513359a	2355.35
13	0x4504fd8c	2127.8467
14	0x451d15f3	2513.3718
15	0x45879f6c	4339.9277
16	0x45060014	2144.005
17	0x449ba216	1245.0652
18	0x4490e366	1159.1062
19	0x452f01be	2800.109
20	0x44f74e2c	1978.4429
21	0x44f8e077	1991.0145
22	0x44df25e3	1785.184
23	0x456503de	3664.2417
24	0x45bae45c	5980.545
25	0x44ad68b6	1387.2722
26	0x44c42718	1569.2217
27	0x44fc9376	2020.6082
28	0x451538ee	2387.558
29	0x452c82a9	2760.1663
30	0x449f202f	1273.0057
31	0x45076136	2166.0757
32	0x44efbec8	1917.9619
33	0x4503bb83	2107.7195
34	0x4583dbe5	4219.487
35	0x44a9aa77	1357.327
36	0x44ce568e	1650.7048
37	0x45aa35f7	5446.7456
38	0x44c407bb	1568.2416
39	0x453b115e	2993.0854
40	0x45631f3f	3633.953
41	0x44d4aee9	1701.466
42	0x454c12dd	3265.179
43	0x4557a5fe	3450.3745
44	0x44f974d7	1995.6512
45	0x44fd6445	2027.1334
46	0x45300e36	2816.8882
47	0x44bdccfa	1518.4055
48	0x453d7753	3031.4578
49	0x45123e24	2339.8838
50	0x45710c2c	3856.7607
51	0x4506fb64	2159.712
52	0x44a6858f	1332.1737
53	0x452fc788	2812.4707
54	0x45362415	2914.2551
55	0x453795ba	2937.358
56	0x4504af9f	2122.9763
57	0x44fa57df	2002.746
58	0x452597df	2649.492
59	0x452fa20b	2810.1277
60	0x4581da4e	4155.288
61	0x45122952	2338.5825
62	0x45e9521d	7466.264
63	0x44970fd7	1208.495

block4.block.0.weight f4 [64, 64, 3, 3]
0	0xbf6b042d	-0.91803247
1	0x3f64e880	0.89417267
2	0xc014236b	-2.3146617
3	0xbf8273ed	-1.0191628
4	0x401f25a9	2.4866736
5	0x3f846549	1.034341
6	0x3f81f369	1.0152408
7	0xbf50f522	-0.81624043
8	0x3d2950ea	0.04133693
9	0xbfb00c55	-1.3753763
10	0xbe4a8032	-0.19775465
11	0x3dfae87a	0.12251373
12	0xbf037ffe	-0.51367176
13	0x3f9ee83e	1.2414625
14	0xbf1632b2	-0.58671105
15	0xbfba6a17	-1.4563626
16	0xbd722c0b	-0.059124034
17	0xbcc03115	-0.023460904
18	0x3dea043b	0.11426588
19	0xbfea98e9	-1.8327914
20	0xbf5b69cb	-0.857083
21	0xbdfc8067	-0.12329178
22	0xbf3a5e9f	-0.7280063
23	0x3f0357bf	0.51305765
24	0x3fa94d55	1.3226725
25	0xbefbf913	-0.49213466
26	0xbeecf6e8	-0.46282125
27	0x3f9b9fb2	1.215811
28	0xbdd4080b	-0.103530966
29	0xbf82e708	-1.0226755
30	0xbf11e55c	-0.569906
31	0x3f05366e	0.5203618
32	0x40227468	2.5383549
33	0xbf44ec8f	-0.7692346
34	0xbfcf0a3a	-1.6174996
35	0xbf8c2dd8	-1.095149
36	0x3eec550b	0.46158633
37	0xbec2aa04	-0.38020337
38	0xbfa47670	-1.2848644
39	0xc0657323	-3.5851524
40	0xbede4470	-0.4341159
41	0x3f493d87	0.7860951
42	0x3fd81989	1.6882793
43	0x3d655aeb	0.05599491
44	0xbf45eb70	-0.77312374
45	0x3fcd6bf7	1.6048573
46	0x3f1a2602	0.60214245
47	0xbffec196	-1.9902828
48	0xbfef7d36	-1.8710086
49	0x3f120bd7	0.57049316
50	0x3ea99e8d	0.33128777
51	0x3fa75236	1.3071964
52	0x3f406b2d	0.7516354
53	0xbf1974dd	-0.59943944
54	0x3f7d829a	0.9902741
55	0x3fc1baa9	1.5135089
56	0x3fb4c1b2	1.4121611
57	0x3f9f49ad	1.2444359
58	0xbdd2bd68	-0.102900326
59	0xbf4c4515	-0.7979291
60	0x3e33efb2	0.17571905
61	0x3f10de4d	0.56589204
62	0x3f04d04e	0.5188035
63	0x3f33fa04	0.7030337
64	0xbd4b3560	-0.04961145
65	0xbe9788f9	-0.2959669
66	0x3fecf434	1.8512025
67	0xbf1964ae	-0.5991925
68	0xbe952168	-0.2912705
69	0xbf951bff	-1.1649169
70	0xbe930be7	-0.28720018
71	0xbf862663	-1.0480465
72	0xc033f9fb	-2.8121326
73	0xc014c711	-2.32465
74	0xc020990b	-2.509341
75	0x3cd9ed12	0.026602302
76	0x4003987a	2.0561814
77	0x3fb8e15e	1.4443777
78	0xbfff622b	-1.9951833
79	0xbfa2b3e5	-1.271115
80	0x3dd5c29f	0.10437512
81	0x3f871b96	1.0555294
82	0x3deb88b5	0.11500684
83	0xc00a97bc	-2.1655111
84	0x3d337a24	0.043817654
85	0x3cd40f05	0.025886068
86	0xbe4dbb96	-0.2009109
87	0x3ef3fc7f	0.47653577
88	0x3f309eaa	0.689921
89	0xc04d52a6	-3.2081695
90	0xbf49869d	-0.7872103
91	0xbe82d061	-0.25549605
92	0xbf9332ec	-1.1499915
93	0xbe0ba820	-0.13638353
94	0x3e8a39bc	0.26997173
95	0xbfaaecdd	-1.3353535
96	0xbf93f866	-1.156018
97	0xbeeb34f4	-0.45938838
98	0xbf903719	-1.1266814
99	0x3f2586e9	0.6465898
100	0xbea7892a	-0.32721835
101	0xbe6570ed	-0.22406359
102	0xbf10cc64	-0.56561875
103	0xbf8d4848	-1.1037683
104	0xbdf6a188	-0.120425284
105	0xbfc8be05	-1.5682989
106	0xbd96cad7	-0.073629074
107	0x3fc60873	1.5471328
108	0x3f44d392	0.7688533
109	0xbee66fd6	-0.450072
110	0x3eef4b55	0.4673716
111	0xbf1f36d0	-0.6219301
112	0xc01dbc0c	-2.4646025
113	0xbefd8929	-0.49518707
114	0xbe899fc7	-0.26879713
115	0xbe1afcfc	-0.15135568
116	0x3f1a2fb8	0.60229063
117	0x3e6be47d	0.2303638
118	0x3f558a25	0.83413917
119	0x3fd530b3	1.6655487
120	0xc02ee28c	-2.7325773
121	0xbfda780c	-1.7067885
122	0xc0131df6	-2.2987037
123	0xbf236d91	-0.6383906
124	0x3e3328dc	0.17496055
125	0xbe48f7a5	-0.19625719
126	0x3f041567	0.5159516
127	0xbf4fc224	-0.8115561
128	0xbf2eb458	-0.6824393
129	0xc03c69a3	-2.9439476
130	0xbd9cabca	-0.07649954
131	0x3e123e09	0.14281477
132	0x3ff48093	1.9101738
133	0xbe9f0b6a	-0.31063396
134	0xbf631cc2	-0.88715756
135	0x3f1df00d	0.61694413
136	0xbf5e62ce	-0.86869514
137	0xbf2fde15	-0.68698245
138	0xbfbac895	-1.4592463
139	0xbf14a77a	-0.5806805
140	0xbf2d2743	-0.67638034
141	0xbeddecc7	-0.4334471
142	0xc0185f66	-2.3808227
143	0x3f2a7677	0.66587013
144	0x3fce2762	1.6105769
145	0x3f3842bd	0.71976835
146	0x3e9a3c35	0.3012406
147	0x3ef3951f	0.47574708
148	0xc054cc2b	-3.3249614
149	0xbf80018b	-1.0000471
150	0xbfe3043a	-1.7735665
151	0x3f352d2f	0.7077207
152	0xbf597262	-0.8494016
153	0xbf8c3d34	-1.0956178
154	0xbea2cb18	-0.31795573
155	0x3fc442f6	1.5332935
156	0xbf0ac443	-0.5420572
157	0xbe8ad0d5	-0.2711245
158	0xbfb87958	-1.4412031
159	0x3f44258b	0.76619786
160	0x3f4aa0fa	0.7915188
161	0xbf00a802	-0.5025636
162	0x400f260a	2.2366967
163	0x3dec1458	0.11527318
164	0xbfd0e8fb	-1.63211
165	0xc010004d	-2.2500184
166	0xbf04c5c3	-0.5186426
167	0x3f700fe1	0.9377423
168	0xbfe1196e	-1.7585886
169	0xbf1fcdd8	-0.6242347
170	0xbf857c1b	-1.0428499
171	0x3df41cd0	0.11919558
172	0x3ea21004	0.31652844
173	0x3f76d668	0.9642091
174	0x3ec03aec	0.37544954
175	0xbe9b66d9	-0.30351904
176	0xbed617f0	-0.41815138
177	0xc00dae5a	-2.2137666
178	0xc01483a4	-2.3205347
179	0xbf09ce90	-0.53830814
180	0x3f82b029	1.021001
181	0x3f603444	0.8757975
182	0x3f873ce3	1.0565456
183	0xbf4db523	-0.8035452
184	0xbf0d1da5	-0.5512336
185	0xbfe54f07	-1.7914742
186	0xbf025299	-0.50907284
187	0xbfb626ff	-1.4230651
188	0x3f3e5dbc	0.7436178
189	0x3f2a4b9a	0.6652161
190	0x3f39ae2b	0.72531384
191	0xbe6a43dd	-0.2287745
192	0xbf604d27	-0.87617725
193	0xbfe53bed	-1.7908913
194	0xc0092cb9	-2.1433547
195	0xbf8cf86f	-1.1013316
196	0x3fb91b89	1.4461528
197	0x3fe075d3	1.7535957
198	0x3b5b0b40	0.0033423454
199	0xbf9b8d74	-1.2152543
200	0xba3d654b	-0.00072248717
201	0xbfc55aba	-1.5418313
202	0x3f413a55	0.7547963
203	0x3f758f0a	0.95921385
204	0x3f3e683a	0.7437779
205	0x3f96f77a	1.1794274
206	0xbf67abfa	-0.9049679
207	0x3e82befc	0.25536335
208	0x3f3bc038	0.7334018
209	0x3eacac05	0.3372499
210	0xbeaf984c	-0.3429588
211	0xbf02b446	-0.51056325
212	0x3ea70f86	0.3262903
213	0xbf82d30e	-1.0220659
214	0xbd7eeddc	-0.06223856
215	0x3f0b628a	0.54447234
216	0x3e7f785f	0.24948262
217	0xbea50eab	-0.32237753
218	0xbfc016b4	-1.5006928
219	0xbf51b489	-0.819161
220	0x3f7285f0	0.9473562
221	0x3e29846a	0.16554418
222	0x3f223b40	0.6337166
223	0xbfb0cb85	-1.3812109
224	0x3f924e9f	1.1430243
225	0xbeaa7edc	-0.3329991
226	0xbf700543	-0.9375803
227	0xc0135e76	-2.3026404
228	0x3ea10c67	0.31454775
229	0x3e2f9328	0.1714598
230	0xbf2fef88	-0.6872487
231	0xbf8847eb	-1.0646948
232	0xbf9472e6	-1.1597564
233	0x3e9d262d	0.30693188
234	0x3f9fe94e	1.2493074
235	0xbfe4b258	-1.7866926
236	0xbfff9d2e	-1.9969842
237	0xbe089d8e	-0.13341352
238	0x40218091	2.523472
239	0x3f1b68bc	0.60706687
240	0xbe3bf51f	-0.18355225
241	0xbed08e1a	-0.40733415
242	0xc0704237	-3.7540414
243	0xbf3f578d	-0.74742967
244	0xbf16af16	-0.5886091
245	0xbf23d766	-0.64000547
246	0xc01489b9	-2.320906
247	0xbf8faac4	-1.1223989
248	0x3e84d02c	0.25940073
249	0xbf6c9d13	-0.92427176
250	0xbe499a35	-0.19687732
251	0xbcc34c38	-0.023840055
252	0x3f17d7cd	0.5931366
253	0xbfb32d6e	-1.3998239
254	0xbecce7ca	-0.4002059
255	0xbf188663	-0.5958006
