trained_models/relational.pth (torch, 918946 bytes, 39 tensors)

block1.0.block.0.weight f4 [64, 1, 3, 3]
00000000: 8158 53bf d857 493f 1c4f 3ebd 1c04 893f
00000010: 29ba f5be 9aa8 88bf 6828 c0be 750d 80bf
00000020: e354 a13f 9d02 8dbf 0406 833e 28ef 863e
00000030: 7f60 a53f 803a d0be d5bb 67be 1b63 7abf
00000040: a138 8fbe c4b2 8fbd c28f 36bf a0f9 1bbf
00000050: 6ff2 bc3f d2a5 b1bf a9ac b1bf 811e aabd
00000060: e8a6 083f d05f 403f c54e 513f f303 97be
00000070: 5b3f 7d3f 9cac a6bf 685e 903e 48cf 403f
00000080: 35db 8bbf b986 3e3f e991 113f 1225 b2bf
00000090: c6c0 7ebf 21db 98bf 5442 87bf 492d 293f
000000a0: 3265 653f 28c6 21bf 4c22 473f 45a8 aabe
000000b0: 5d0f 92be cefb a8be 979b 21bf 8cde 7dbe
000000c0: 2f4d a53e df9a a8be bf68 ae3e 0609 52bf
000000d0: 7ca8 d1bf b90c 80bd 900e 3dbf 7bee babe
000000e0: 6c73 033f 9d52 9abe ac87 bc3e 6037 07bf
000000f0: 4a40 c03f 7c7b a1bf bb66 823c 9e89 583e
00000100: 10d4 df3f 3585 aabf 3903 323e e826 3e3f
00000110: 7ef3 913f 2afe 95bf 17a6 a83f dc06 e7be
00000120: db3c e3bd e743 053f adc5 9abf 0fbf 053f
00000130: 3b16 ecbf d3d8 24bf 4b83 8dbf a3f9 88bf
00000140: 507f 873f 538b f5bc b65a 903d 3f6f 21bf
00000150: 87c8 993a 355d 0ac0 e391 b03f 432d 593e
00000160: 4776 173e 1990 2dbf 1b0d 4fbf 28a5 3dbf
00000170: 39f4 78bf ffe0 043d e1e0 cf3f d110 f63d
00000180: 9247 93be 579f eabe 4ec1 79bf 1090 f23f
00000190: 8b01 c5be 924f de3d 3931 7cbf 1067 04bf
000001a0: 744f a1bf 51dc 14bf 96f0 4d3f bc80 973f
000001b0: d9c5 da3d 2ebe 69bf 887b 433e 40eb 913f
000001c0: b3e2 54bf c849 96bf 0c25 eabf 25ee a8bc
000001d0: 874e 9b3e 0b98 3ebf c492 59bf c829 ee3f
000001e0: c4e4 e63e 3a95 3dbf 15e0 ea3e 4d60 a23f
000001f0: 07d6 a6be 71af 56bf f39a 86bf ad3b b4bf
00000200: cce1 ffbe 04a0 66bf 35f9 34bf 6caf c3bf
00000210: dc2a 83be e925 3cbf 7abf b4be a674 fb3e
00000220: 3594 9c3f 5714 15c0 ec5c 42bf 0154 0ec0
00000230: 8a2d 3bbf 32c3 8d3d 01a4 49be 7a95 fb3e
00000240: 2e05 4cbf 6825 01bf 428b df3d 37d6 4dbf
00000250: c7a6 90bf 3bd1 6e3f 4e63 f5bd b5d5 6a3f
00000260: b222 07c0 c9b8 963e d928 61bf 6e01 49be
00000270: 0992 b9be 60f3 0dc0 5124 903f f018 5d3f
00000280: 6d1e cbbe ee4b f4bf caf0 36bf a795 75bd
00000290: 6604 8abd f766 febe a3e6 dbbf 196e a03f
000002a0: 5a39 0e3f c39c 80be 4eb4 c4bf 03ed 24be
000002b0: d1d2 f43e 78d6 eb3e 15f1 acbf e68a a93f
000002c0: d2d1 373d ff27 d4be 2b92 c03f 21dc 80bf
000002d0: efb4 bebf 4462 d33e 5725 92be 87ee 213f
000002e0: b1f0 a03e f031 b33f 2ceb 17bf 03b3 6bbf
000002f0: dae9 8bbf 7f20 3a3f 49e9 9bbf 6976 763d
00000300: b84b 8bbf 74cb b43f ba50 903a da70 d8bc
00000310: cb05 b8be c1f6 c3be e1da be3f 3d6d bf3e
00000320: 89ce ea3f 55dc 87be a6d8 88bf d9e0 ff3e
00000330: 83e6 5dbe 4a7d bcbf b09b 423f 75b2 f0bf
00000340: 0185 46bf b2d6 62bf efba bc3e 0d74 4e3f
00000350: 8d4b 2d3e 10de a03b 35b4 c93f 42cb 893f
00000360: ca45 a9be 7645 4abf 1fe1 123f 88ea cabc
00000370: 3d86 d8bf b787 ac3f d4c5 963f 8357 71bf
00000380: c2e5 b1bf 15c3 883d 19b7 6f3f ecb3 cabf
00000390: 2c9c 063f c73f e23f 8346 873f ff0e 3abf
000003a0: e3d0 f03f 2760 88be 6c15 c1bd 9e33 8540
000003b0: 21f0 98be dfad 623d 9f98 0b3f 9547 97be
000003c0: 1b9e 01bf aa59 a63e b1e1 57bf 5893 9bbf
000003d0: 1fde 49bf da10 81bf 3b90 9a3e 1456 b33f
000003e0: 8939 383f ebb4 d0be 1135 d33e f191 b53e
000003f0: 71e0 90bf 6a14 2ebf 622e ee3d e67e 993f
-0.8255692 0.78649664 -0.046462163 1.0704379 -0.4799359 -1.0676453 -0.37530828 -1.0004107
1.260403 -1.1016423 0.25590527 0.26354337 1.2920073 -0.40669632 -0.22630246 -0.9780747
-0.27972892 -0.07016519 -0.71313107 -0.6092777 1.4761485 -1.3878729 -1.3880817 -0.083065994
0.5337968 0.751462 0.8176082 -0.294952 0.989248 -1.3021426 0.28197026 0.75316286
-1.0926272 0.7442432 0.56863266 -1.3917563 -0.995129 -1.1941873 -1.0567117 0.66084725
0.89607537 -0.6319299 0.7778671 -0.33331504 -0.28527346 -0.33004612 -0.63128036 -0.24791926
0.3228545 -0.32930657 0.3406429 -0.8204502 -1.6379542 -0.06252427 -0.73850346 -0.3651007
0.51347995 -0.30141154 0.3682226 -0.5281887 1.501962 -1.261581 0.015918126 0.21146247
1.7486591 -1.3321902 0.17384042 0.74278116 1.1402433 -1.171819 1.3175687 -0.4512242
-0.11095592 0.52056736 -1.2091576 0.5224466 -1.8444284 -0.6439335 -1.1055692 -1.0701183
1.0585728 -0.029973662 0.07048552 -0.63060373 0.0011732735 -2.161939 1.3794521 0.21208672
0.14791213 -0.67798 -0.8087937 -0.74080133 -0.97247654 0.032441135 1.6240503 0.12014926
-0.2876554 -0.45824692 -0.97560585 1.8950214 -0.3847774 0.108550206 -0.9851261 -0.5171976
-1.2602372 -0.58148676 0.8044523 1.1836162 0.10682268 -0.91305816 0.19090092 1.1399918
-0.83158416 -1.1741266 -1.8292556 -0.020621369 0.3033335 -0.7445075 -0.8498957 1.8606501
0.4509641 -0.74055827 0.45874086 1.2685639 -0.32585165 -0.8386145 -1.0516037 -1.4080712
-0.49976957 -0.90087914 -0.7069276 -1.528791 -0.25618637 -0.73495346 -0.35302335 0.49112433
1.2232729 -2.3293664 -0.7592304 -2.2238772 -0.7311636 0.06921996 -0.19691469 0.4913748
-0.79695404 -0.504477 0.10915233 -0.8040499 -1.1300896 0.9328801 -0.119818315 0.9173234
-2.1114926 0.29437855 -0.87952954 -0.19629452 -0.36244228 -2.2179794 1.1261083 0.86366177
-0.3967165 -1.9085672 -0.71461165 -0.059957173 -0.0673912 -0.4968793 -1.717976 1.2533599
0.5555626 -0.251196 -1.5367525 -0.16106038 0.4781709 0.46062064 -1.3511072 1.3245513
0.044877835 -0.41436765 1.5044607 -1.0067178 -1.4898967 0.41285908 -0.28544113 0.6325459
0.31433633 1.3999615 -0.5934322 -0.92070025 -1.0930741 0.72705835 -1.2180568 0.06017152
-1.0882483 1.4124589 0.0011010387 -0.026421 -0.3594192 -0.38274196 1.4910547 0.3738803
1.834428 -0.26535287 -1.0691116 0.49976233 -0.21669964 -1.4725735 0.7601881 -1.8804461
-0.775467 -0.8860885 0.3686137 0.8064583 0.16923352 0.0049092844 1.575812 1.0765154
-0.33061057 -0.7901224 0.5737476 -0.024770036 -1.6915966 1.3478917 1.1779122 -0.9427416
-1.3898242 0.06677834 0.9363876 -1.5836158 0.5258205 1.7675713 1.0568393 -0.7267913
1.8813747 -0.26635858 -0.09427914 4.162551 -0.29870704 0.055341598 0.54529756 -0.295468
-0.50631875 0.32490283 -0.8432875 -1.2154341 -0.78854555 -1.0083268 0.30188164 1.4010644
0.7196279 -0.4076303 0.41251424 0.35462907 -1.1318494 -0.679999 0.116299406 1.1991851

block1.0.block.0.bias f4 [64]
00000000: adaf 66be bbfe 9f3d 412a 093e 7248 873e
00000010: 46fb 9a3e d83f 923e 8a6c 5dbf 6bed 28bf
00000020: 3991 c3bd 873d edbd c47e a6be e491 a6be
00000030: f3cb 863f 1a5f 09bd 208f 31be 3ff8 433d
00000040: fd46 26be 8535 c13e ed7b 353f 6511 fdbe
00000050: 4b57 a43e 5a9b 4dbe e183 153f 13f9 bf3c
00000060: 0547 45be 9224 babf 57e1 843e 6de4 693e
00000070: 9bc7 b7be 9418 1a3e 6482 f3be 53e8 59be
00000080: 3090 06be 7173 083e 1590 aebb 658e 063e
00000090: 1d92 83be 3937 47be 75ac 9fbe ddc8 6ebe
000000a0: 2740 3bbe c684 24bd 4d2c c03e 1bf2 8abe
000000b0: 4d4e 9abd c68e 303e 4be2 3cbf 0d81 8dbe
000000c0: b409 4c3d d77a 14be 436a eabe c2a6 bbbd
000000d0: 519e 573c 53a1 683e 15fd 2d3e da31 cfbe
000000e0: 589c 313f 212e 83be 2f7f b43d d763 38be
000000f0: d88c 8f3e ed94 19bd cad8 483e dbee 0abf
-0.22527952 0.07812258 0.13395025 0.2642246 0.3026983 0.28564334 -0.8649374 -0.6598727
-0.095491834 -0.11584001 -0.3251859 -0.3253318 1.053099 -0.03353796 -0.17339754 0.047844168
-0.16238017 0.37736145 0.7089222 -0.49427333 0.3209785 -0.20078793 0.58404356 0.023434198
-0.19265373 -1.454241 0.2595317 0.22841044 -0.35894474 0.15048438 -0.47560418 -0.21280031
-0.1314094 0.13325287 -0.0053272345 0.13140257 -0.25697413 -0.1945466 -0.31186262 -0.23318811
-0.18286191 -0.040165685 0.375338 -0.27137837 -0.07534466 0.17241964 -0.73782796 -0.2763752
0.04981394 -0.14499985 -0.45784196 -0.09162666 0.013160304 0.2271779 0.16991074 -0.4046772
0.69379187 -0.2562113 0.08813321 -0.18006836 0.28037143 -0.037495542 0.19613948 -0.54270715

block1.0.block.1.weight f4 [64]
00000000: c133 b63f c73a 973f 7a26 8c3f a164 543f
00000010: 9088 c73e 2e62 d93b a5b3 e63f 8d61 403f
00000020: 23c6 ba3f 99c7 de3f ec45 b63f ac0f 0e40
00000030: a95a d33f 0273 1e40 cd3f 313f e666 943f
00000040: b03f f43f 3c37 ca3f 07f8 c83f 7435 0d40
00000050: c6fd 023f f9e8 de3f 3cd9 993f a167 a63f
00000060: 0438 d43f 2f90 563f 6c2f 703f 4cf5 503f
00000070: fe76 5f3f edae c33f bf23 d93f 3009 9a3c
00000080: cca8 823f 0cea 213e 310c a43f 0d30 0f40
00000090: 6967 b53f ea6a 803f 06da f73f 8577 443f
000000a0: a694 753f 9612 853f 789d 983f 639a 803f
000000b0: 1354 e73d 4660 383f 657b 3e40 18f7 193f
000000c0: 1e9e 8d3f d9d5 2e3f 0e1e 743f 34c5 aa3f
000000d0: 4544 333f 8734 963f 0152 f43f 1d77 183f
000000e0: fac6 dd3f 6ccc 953f 0b62 c53f 31dc 4e3f
000000f0: cec9 dc3f a379 b43f 74d2 003e 9d32 8b3f
1.4234544 1.1814812 1.0949242 0.8296605 0.38971376 0.0066340184 1.8023573 0.7514885
1.4591717 1.7404662 1.4240088 2.2197065 1.6512042 2.4757695 0.6923798 1.1593902
1.9081936 1.5798106 1.5700692 2.2063875 0.5116848 1.7414848 1.201942 1.3000375
1.6579595 0.83813757 0.9382236 0.81624293 0.8729094 1.5287758 1.6964034 0.018803209
1.0207763 0.15811938 1.281622 2.2373078 1.4172183 1.0032628 1.936341 0.7674487
0.95929945 1.0396297 1.1923056 1.0047115 0.11295333 0.720219 2.9762814 0.6014266
1.1063879 0.68295056 0.9535836 1.3341432 0.70026046 1.173478 1.9087526 0.5955675
1.7326348 1.170301 1.5420545 0.80804735 1.7249086 1.409962 0.12580281 1.0874821

block1.0.block.1.bias f4 [64]
00000000: 60c2 35bf 733c 73bf b185 a6bf 3a30 38bf
00000010: 19e0 88bd 3ce6 f5bd 1cd3 b7bf 6540 d9bf
00000020: 0fd2 1dbf c8a6 86bf 1209 9bbe 579e a1bf
00000030: 87d5 30bf 4874 bbbf 8275 8abe 3a33 4a3e
00000040: 751c 603e 4c32 16bf 527c bbbe d9b7 64bf
00000050: dc12 493f 111f 08bf b756 06c0 1600 dbbf
00000060: 2f12 3cbf 26b2 cfbf a2cc dcbf 584f d8be
00000070: 1ead 25bf 8cd9 bebf f13a 31bf 70ed 31be
00000080: 466c 7e3c 9ace 10bf 7051 a3bf d465 39c0
00000090: ef0d d3bf 0362 88bf b3b1 f2be 3354 c2bf
000000a0: 0ed4 17c0 849d 43bf 6fdd 00c0 a289 36bf
000000b0: 5f86 edbe 8826 dcbe cb97 1fc0 fc94 cabf
000000c0: 3c51 cdbf e34b 98bf 2bfd 40be 8164 09c0
000000d0: 1d58 78bf 1aae 87bf 3618 29c0 7cf5 533e
000000e0: d2ae 99be fabe e8bf 2925 6f3e 44f8 0ec0
000000f0: 13de efbf 3163 00c0 4d54 8dbf ff69 a0bd
-0.7099972 -0.95014113 -1.3009549 -0.7194859 -0.06683368 -0.12006804 -1.43613 -1.6972777
-0.6164865 -1.0519648 -0.30280358 -1.2626446 -0.69075817 -1.4644861 -0.27042776 0.19746104
0.21885855 -0.58670497 -0.36618286 -0.8934303 0.785444 -0.53172404 -2.0990427 -1.7109401
-0.73465246 -1.6226242 -1.7249949 -0.42248034 -0.6471728 -1.491014 -0.6923056 -0.17375731
0.015528744 -0.5656525 -1.2759228 -2.89684 -1.6488627 -1.0654911 -0.474012 -1.5181946
-2.3723178 -0.76412225 -2.0135152 -0.7130376 -0.4639158 -0.42998147 -2.4936397 -1.5826716
-1.6040416 -1.1898159 -0.18846576 -2.1467593 -0.9700945 -1.0600007 -2.6421027 0.20699114
-0.3001619 -1.8183281 0.23354019 -2.233903 -1.8739647 -2.0060542 -1.1041352 -0.07832717

block1.0.block.1.running_mean f4 [64]
00000000: d4dd c63e f0ba 913f c74c 493f 16f9 563f
00000010: ee3e 0b40 0d96 5040 eb6e 10be 4ad6 37c0
00000020: 3de1 5640 fb9b b73f e57a df3f af52 f3be
00000030: e152 6e40 74f0 e2be 68f9 cb40 5072 6640
00000040: 20c7 3840 f89e 6b40 b188 5940 e869 adbf
00000050: b496 d13f 9c74 0b3f 648e 7bbf 5c5f e9be
00000060: d3ad d83f 898f 9ac0 75af 1ec0 e588 aa3e
00000070: 5216 f43f b5ac a33d df71 803e 7f93 5b40
00000080: cf2f f33f 2cd2 8940 f251 d53e 57d6 8cbf
00000090: 6a2b a0bf e543 c73e 89bb c73f 6c5c 4fc0
000000a0: ddb7 85be c0a8 0640 bc5b 8fbf f8eb 103e
000000b0: efb1 1040 7e60 3040 efd0 b8bf 666d 77c0
000000c0: 459d 3ec0 2b33 b83e c73d 7f40 c319 1abf
000000d0: 8ece f43f b251 ff3f 4a71 eebf aedf 1840
000000e0: 8931 6340 b69e f9bf 9205 4b40 e5ac 4bbf
000000f0: f648 1dbf e132 96c0 04d2 31bf befc ef3f
0.38841116 1.1385174 0.7863278 0.83973825 2.175716 3.2591584 -0.14104812 -2.8724542
3.3574975 1.4344476 1.745938 -0.4752402 3.7238085 -0.44324076 6.374195 3.600727
2.8871536 3.6815777 3.398968 -1.3547945 1.6374116 0.54474807 -0.98264146 -0.45580566
1.6928047 -4.8300214 -2.479459 0.33307567 1.9069312 0.079919256 0.25086877 3.4308774
1.8998965 4.3069057 0.41664082 -1.1002911 -1.2513249 0.38918987 1.5604106 -3.240016
-0.2611684 2.1040497 -1.119987 0.14152515 2.2608602 2.7558894 -1.4438761 -3.8660522
-2.978349 0.35976538 3.9881456 -0.6019556 1.9125535 1.9946806 -1.8628323 2.3886523
3.5498984 -1.950156 3.172215 -0.7956069 -0.61439455 -4.693711 -0.69461083 1.8749006

block1.0.block.1.running_var f4 [64]
00000000: 3bfa 8a3d 1167 4b3e 6aed 2e3f 67fc 393f
00000010: 1698 6e3f b75a 8a3f ab8d e43d f7cb 2b3f
00000020: 166c 9c3f a12a 903e 3f4d 4f3f c4d6 833e
00000030: 7348 463f 2da4 453e 401c 8d40 9802 c53f
00000040: 1893 843f 2d59 9f3f 75a2 443f f87f af3e
00000050: bb2e 103f 5242 c53d 7edd a23f d46c 973f
00000060: f00f 083f e416 b13f 0120 d93f 097b 0c3f
00000070: 2d64 233f 67e0 1e3d ef34 c03d c1fd b43f
00000080: a6b8 403f da29 f63f 9f60 173e a40d 343f
00000090: a12c c43e fa1b 2f3f 05d6 d13e 6d2d 963f
000000a0: 6d5f c13e 5ca4 fc3e 769f 293f 67a8 203e
000000b0: d5f0 1a3f 2c61 533f 9790 a83e 14b6 ca3f
000000c0: 1236 2540 1ab3 033f 9f3d 0d40 f8d5 1c3f
000000d0: 4ecb c33e 166f be3e e79b a43f fa30 ff3f
000000e0: 86ca 823f ccb4 743f 915a 813f b2fb 103f
000000f0: 4958 ec3e 7b2b 7b40 df2d 1f3f 9c03 233f
0.06786009 0.19863535 0.68331015 0.7265076 0.93200815 1.0808934 0.111598335 0.671081
1.2220485 0.28157523 0.80977243 0.2574979 0.774543 0.1930091 4.4096985 1.5391417
1.035739 1.2449089 0.7681039 0.3427732 0.56321305 0.0963179 1.2723844 1.1830087
0.5314932 1.3835111 1.6962892 0.54875237 0.6382473 0.038788226 0.09385096 1.413994
0.7528175 1.9231522 0.14782952 0.70333314 0.383153 0.68402064 0.40983596 1.1732613
0.37768117 0.49344146 0.66258943 0.1568924 0.6052373 0.8257015 0.32922813 1.5836816
2.5814252 0.5144516 2.206886 0.6126399 0.38241047 0.37194127 1.2860078 1.9936821
1.0218055 0.95588374 1.0105764 0.56634057 0.46161106 3.9245288 0.6217937 0.6367738

block2.0.block.0.weight f4 [64, 64, 3, 3]
00000000: 4bf5 0c40 8a5a c33e adac a43f bd2d 803e
00000010: 0bea 60bf 23f5 a93e e637 e93e 1c83 303f
00000020: 9a34 a5bf 626c 703f 29db 543f c0b5 44be
00000030: 8a19 263f e7a2 9dbf 115e 013e f028 3a3f
00000040: 6e76 88bf 58c7 8abf 2916 72bf d893 153f
00000050: 2d19 39bf 5b8b 73be 14dd 913e 3e61 293f
00000060: 9e3b 3abf 4178 eb3e 90ef 863e 5bdd 793f
00000070: 682b e53f 8d83 17c0 0e9e 00bf ff9a 0040
00000080: bc4e acbf 18ac 51bf 25ab 3a40 6789 a0be
00000090: 519a 35bf 40b2 f4be 0758 79bf 7667 b0bf
000000a0: 90c3 54bf 8118 a3bf 604e 193e 2073 883f
000000b0: 01de a0bb a276 723e 0ddd 1d3f 68d7 febe
000000c0: dc97 103f 8331 633f 1130 89bd 50eb 803f
000000d0: dcba 173e 79e9 a93c 30dd e8be 0590 913e
000000e0: bbad 15bf 6ef1 c3bf 3b37 893e ced6 0abf
000000f0: 60de 723f 8ba1 4f3f fbe7 5abe f82f 4b3f
00000100: 1cf4 81bf 352e 013f af6b 3ebf cd4c adbe
00000110: 29b8 38be 1f2f b6be e9ae 493f 5915 0c40
00000120: 32ad ed3e 93ba 1e40 68c5 d23e 440e a23e
00000130: b9ff 75bf 16eb c3bf 5776 0b40 4b8b dfbf
00000140: 62e2 1dbf 7fc4 ef3f 3572 a0be 4519 60be
00000150: c3bc 0a3f 2081 c53e 57e8 89bf 1598 e1bf
00000160: 9c1c f83e 3099 35c0 2353 a83e a9de 89bf
00000170: b2d7 13c0 983d 12bf bcca af3f 039e 7bbf
00000180: 1c90 b8be c37d 053f e812 68bf ea05 36bd
00000190: 5bee 91bf 4960 bb3e 6b8a 0440 2426 553f
000001a0: 6ef1 013f d707 ad3e 3d4f 61bf c997 3fbd
000001b0: 12fd 933d 7c6b df3f 7908 803f 74d2 61be
000001c0: f57b 223f d8f5 9cbf 1de9 773f 53d7 7cc0
000001d0: dd12 7abf f9ed 41bf 883c 823f 2035 243f
000001e0: f9a4 b5bf c8c7 6c3e 13b0 1b3f a7f9 35c0
000001f0: 0fec 4c3f 4860 0cc0 811f e23e 9eaf 073f
00000200: d567 b1bf f84f 143e f638 733f 27d5 1cbf
00000210: 471a 12bf 2385 1f3f d34d 73be 4907 793e
00000220: 5da4 b6bf 37c1 03bf 329a d43f 1851 ba3f
00000230: 34ea d1bf 636a c63f c8ad d93d 3864 f8be
00000240: 7bfd ccbd 11e6 803f 6b1d f2bf b59d d1be
00000250: f160 f83f 64af 51be 210b fb3f e13e 0840
00000260: fc83 80bf 2d28 0140 11eb 883f d2b6 14c0
00000270: e0da babe 048a 4e3f a215 18bf fa10 ecbf
00000280: d8b4 773f cbc1 88bf 9d1d 0740 7ff3 713f
00000290: 8084 e9bf 072d c3bf d4c2 6f3e 5c96 4bbf
000002a0: d17e cbbf 9195 de3f 83eb f1be dab6 823f
000002b0: 534b 2dc0 e82d 633f 5df0 08bf 0100 ccbf
000002c0: db3a 9d3f d856 d63e 0cda 09bf 3c95 943e
000002d0: 6795 5c3d 6742 7abf c285 8ebf 919a 7b3f
000002e0: 9ba5 423f 78a3 5c3f 4946 44bf ecc5 99bf
000002f0: a3d7 6abf ea0e da3e ccc6 fcbf bd8c 38bf
00000300: ec58 63bf 10fc 2b40 c609 bdbf 260d 153f
00000310: 32e4 90bf ab2e c5be 0d20 9e3f cf46 293e
00000320: a884 153f d008 bf3d 0a38 28bf 0501 a13d
00000330: a96d 1c3f a3c8 0abe abb2 3c3f 5721 b9bf
00000340: 46c8 f1bf 0119 32bc 91a5 cbbf 97e9 edbf
00000350: 1465 21bd 6da7 bb3e d3e8 0bbe 9e38 40bf
00000360: 8b4a 8d3f 5b42 d33f 8151 0dc0 8958 e1be
00000370: 1a0a 97be 6079 e3bd e77b a0bf 90c0 703f
00000380: 5306 96bf 9e09 393f 56a8 87bf da6a cb3d
00000390: 570b afbf b181 12bf 3823 8dbe 599c 0abe
000003a0: 12a9 133f e5db da3f f167 893f 8a22 18bf
000003b0: c2d8 6e3f dbd1 b3bf 3281 61bf 426f 583d
000003c0: f8f7 48bf ff71 b93f 8e43 f53f dfc0 afbe
000003d0: d0cb 9cbf 3035 97be 435f 4dbf c8f8 7bbf
000003e0: 7c3d 07bf eb64 153f 9fe1 64bf 6fe3 63bf
000003f0: 4bc9 f33e f2cc 39bf a720 98be 8647 11bf
2.2024715 0.38155013 1.2865196 0.25034896 -0.8785712 0.33194837 0.4555046 0.6895006
-1.2906678 0.9391538 0.8314691 -0.19209957 0.6488272 -1.2315339 0.1263354 0.72718716
-1.0661142 -1.0842085 -0.94565064 0.58428717 -0.7230404 -0.23783629 0.28488982 0.66164005
-0.7274722 0.45990184 0.26354647 0.97603387 1.7903872 -2.3674042 -0.5024117 2.0094602
-1.3461528 -0.8190322 2.9166958 -0.3135483 -0.70938593 -0.47792244 -0.97399944 -1.3781574
-0.83110905 -1.2741853 0.14971304 1.0660133 -0.0049092774 0.23678067 0.6166542 -0.49773717
0.5648172 0.88747424 -0.06698621 1.0071812 0.14817375 0.020741211 -0.45481253 0.2843019
-0.58468217 -1.5308053 0.2679995 -0.54234016 0.9487057 0.8110587 -0.21377556 0.7937007
-1.0152621 0.5046113 -0.7438306 -0.33847657 -0.18039002 -0.35582826 0.78782517 2.188803
0.464212 2.4801376 0.41166234 0.3165151 -0.96093327 -1.5306118 2.179098 -1.7464384
-0.6167356 1.8731841 -0.31337133 -0.2188464 0.5419428 0.38575077 -1.077403 -1.7624537
0.48459327 -2.8374748 0.32875928 -1.0771075 -2.31004 -0.57125235 1.3733745 -0.9828798
-0.36047447 0.5214502 -0.9065385 -0.044439234 -1.1400865 0.36596897 2.0709484 0.8326132
0.5075902 0.33795044 -0.88011533 -0.046775613 0.07226004 1.7454677 1.0002586 -0.22052938
0.63470393 -1.2262526 0.9684008 -3.9506423 -0.97685033 -0.7575374 1.0174723 0.6414356
-1.4190971 0.23123085 0.6081554 -2.8433626 0.80047697 -2.1933765 0.4416466 0.53002346
-1.3859812 0.1448363 0.9500879 -0.61262745 -0.57071346 0.62312526 -0.23760156 0.24319185
-1.426891 -0.514667 1.6609557 1.4555998 -1.6399598 1.5501217 0.10628849 -0.4851396
-0.10009285 1.0070211 -1.8915228 -0.40940633 1.9404584 -0.20477062 1.9612771 2.1288378
-1.0040278 2.0180771 1.0696737 -2.3236585 -0.36495113 0.80679345 -0.5940801 -1.8442681
0.9676032 -1.0684141 2.1111825 0.9451217 -1.8243561 -1.5248116 0.23414165 -0.79526305
-1.5898076 1.7389394 -0.47249994 1.0212052 -2.7077224 0.8874192 -0.53491765 -1.5937501
1.2283586 0.41863132 -0.5384834 0.29020107 0.05385342 -0.9775757 -1.113457 0.98282725
0.76033944 0.86186934 -0.76669747 -1.2013526 -0.91735286 0.42589504 -1.9748168 -0.7208975
-0.8880756 2.6872597 -1.4768608 0.5822319 -1.131964 -0.38512167 1.2353531 0.16530918
0.5840554 0.09327853 -0.6571051 0.078615226 0.6110483 -0.135531 0.73710126 -1.44633
-1.8889244 -0.010870219 -1.5909902 -1.8586911 -0.039403036 0.36651173 -0.13663034 -0.7508639
1.1038374 1.6504625 -2.2080996 -0.4401286 -0.29499894 -0.11107135 -1.2537812 0.9404383
-1.172068 0.722803 -1.0598247 0.0993249 -1.3675336 -0.57229143 -0.27565932 -0.13536204
0.57679856 1.7098356 1.0734845 -0.594277 0.93299496 -1.4048418 -0.8808776 0.05284048
-0.7850337 1.4487914 1.9161241 -0.34326836 -1.2249699 -0.29532766 -0.8022348 -0.98426485
-0.5282819 0.58357114 -0.8940677 -0.8901891 0.47614512 -0.72578347 -0.29712412 -0.5674976

block2.0.block.0.bias f4 [64]
00000000: c6ee efbb 45fd 123c 2a1f 083b 2622 293d
00000010: 0e9c efbc 568d 463c 4d49 26bb 1012 1c3c
00000020: f2a6 bf3c 7290 94bc 7539 4dbc 8413 a0bb
00000030: 84d5 4e3d db54 323c 5837 493c 96f8 01bd
00000040: c58a 11bc 753c 85bc 031e 483c 05af a7bc
00000050: 4d80 213c bd39 c63c 184f 233d d64b 113c
00000060: 36bf 2abd a741 223d 09d0 93bc 8c9a bc3b
00000070: 7ae8 e4bc a38c b63c 4c98 93bc d55d a4bc
00000080: 1325 983b a738 dcbc 7ab4 9fbc b909 853b
00000090: 8843 f1bc da19 98bb 0b94 c13c 04db 11bb
000000a0: 0daa 8cbc 91c1 dc3b 7b2c f53c fd38 40bd
000000b0: 504c b1bc 3330 b7bc 863d 80bc aebc b43c
000000c0: 1f7b aabc 9d74 ce3c 31a9 edbc 8b5c 853b
000000d0: 64f0 853c df56 aa3c 27aa 0fbd 78da 053d
000000e0: e7c4 0abd a27b 91bc a83e 443d 7f47 0f3d
000000f0: 2561 b03c 279a 07bc 8cb9 87bb 97fe a6bc
-0.007322165 0.008971517 0.0020770528 0.041292332 -0.029249217 0.012118658 -0.002537328 0.009525791
0.023395035 -0.018135283 -0.012525906 -0.004885139 0.050496593 0.010884489 0.012281261 -0.03173121
-0.008883183 -0.01626418 0.012214187 -0.020469198 0.009857249 0.024197454 0.03987035 0.008868178
-0.04168626 0.039613392 -0.018043535 0.005755728 -0.027942885 0.022283858 -0.018016957 -0.020064274
0.0046430915 -0.026882483 -0.019495238 0.004059997 -0.029451147 -0.0046417536 0.023630163 -0.0022255788
-0.01717093 0.006736942 0.029928437 -0.04692935 -0.021642834 -0.02236185 -0.015654337 0.022062626
-0.020810662 0.02520209 -0.02901134 0.00406987 0.016349979 0.020793376 -0.03507438 0.03267905
-0.033879187 -0.017759148 0.047911316 0.034980293 0.021530697 -0.008276499 -0.004141992 -0.02038507

block2.0.block.1.weight f4 [64]
00000000: 2cb0 db3f d6fa f33f 0e63 a93f f8d9 0e40
00000010: a527 693f d09b e33f d264 1140 086a d63f
00000020: a22e a43f d768 be3f 0330 d53f 7de5 ec3f
00000030: bce1 f03f 6e71 cd3f 7a65 fa3d b5db f83f
00000040: ee1e c73f 500b ab3f 27c4 8b3f 9a64 853f
00000050: 7c0c 2a3f 25e9 f63f f3d5 e23f 4a5b 313f
00000060: ea01 ae3f 55f3 3440 968b a33f 4a91 853f
00000070: a2ff a33f d680 4b3f 475c 9b3f 470e b13f
00000080: 784b 9d3f d22d b03f c6a3 963f 1d8f da3f
00000090: aff6 e63f 8089 a43f 3033 aa3f 9876 f53f
000000a0: 8ef9 be3f 4839 be3f d795 f73e cd64 d73f
000000b0: 3e95 a43f f0a8 df3f fc0e 2340 352d d23f
000000c0: 9900 eb3f c41f d83f 4520 933f c043 ed3f
000000d0: 4f60 5d3f a25a f33f af70 d33f dcd1 fe3e
000000e0: d8cd 9b3f 0b51 a23f a488 c13f 668d ab3c
000000f0: 4448 dc3f 5331 1f40 b36e b23f 8dcf 9b3f
1.7163138 1.9060924 1.3233354 2.2320538 0.9107612 1.7781925 2.2717786 1.6751108
1.2826731 1.4875745 1.6655277 1.8507534 1.8818889 1.6050241 0.12226386 1.9442049
1.5556314 1.3362827 1.0919236 1.0421326 0.664253 1.92899 1.7721542 0.6927992
1.3594334 2.8273518 1.2776973 1.0434964 1.2812388 0.79493463 1.2137536 1.3832482
1.2288656 1.3763983 1.176873 1.7074925 1.8044032 1.2854462 1.3296871 1.9176817
1.4919908 1.4861231 0.48356506 1.6827637 1.2858045 1.7473431 2.5477896 1.6420046
1.8359557 1.6884694 1.1494223 1.8536301 0.8647508 1.9012034 1.6518763 0.49769485
1.2172194 1.2680982 1.5119824 0.020941447 1.7209554 2.4873855 1.3940033 1.2172714

block2.0.block.1.bias f4 [64]
00000000: 6b2c 2cbf 5efb 3abf a1e1 58bf efed 05c0
00000010: 7482 87bd 4e74 92be 01d6 7fbf 01f2 13bf
00000020: faa4 8bbf 2cc5 a3bf bbb4 59be 9d04 b0bf
00000030: 7af8 ccbf 66bc 0bc0 c7d4 5bbf 1e04 74bf
00000040: a788 85be 5aa9 1cbf eebf dcbf d5e9 6bbf
00000050: 17b9 4f3e 2307 0ac0 e415 c2bf 8dc0 b4bf
00000060: e727 d6bf ed87 84bf d570 c9bf d0d2 06bf
00000070: 2bbd f4bf bcd9 62bf 610f 1fbf 0218 9fbf
00000080: 2f7d f4bf 53de 00c0 11fe 2abe 8707 19bf
00000090: e87d f7bf 39d4 bebf 8dee 67bf aabb 18bf
000000a0: 7f4d 30be c141 83bf da75 54bf 24f7 0bc0
000000b0: 2972 81bf 090b 09c0 2b92 ec3d 831e 0abf
000000c0: ed75 3cbe 2321 1ac0 216e a9bf 6da8 dcbf
000000d0: 3c92 cdbf d45c 99bf 3fbc bdbf c499 6ebf
000000e0: 2223 9ebd 2c04 0fc0 a71c 13bf 4878 8cbe
000000f0: 8b46 c7bf 9797 4fbf dbe9 e6be 382b 24bf
-0.67255276 -0.73039806 -0.8471928 -2.0926473 -0.06616679 -0.28604358 -0.9993592 -0.57791144
-1.0909722 -1.2794547 -0.2126035 -1.3751408 -1.6013329 -2.183374 -0.8587155 -0.9531878
-0.2608082 -0.6119591 -1.7246072 -0.92153674 0.2028545 -2.1566856 -1.516293 -1.4121262
-1.6730927 -1.0353981 -1.5737559 -0.52665424 -1.912023 -0.88613486 -0.6213284 -1.2429202
-1.9100703 -2.0135696 -0.16698481 -0.5977711 -1.9335299 -1.4908515 -0.90598375 -0.5966135
-0.17217062 -1.0254441 -0.8299233 -2.1869593 -1.0112964 -2.1412985 0.11551317 -0.5395281
-0.1840436 -2.4082725 -1.3236734 -1.72389 -1.6060252 -1.1981454 -1.4823073 -0.9320338
-0.07721545 -2.2346296 -0.57465595 -0.27435517 -1.5568403 -0.8109068 -0.45100293 -0.64128447

block2.0.block.1.running_mean f4 [64]
00000000: 7bf3 a540 f367 d0c1 16f9 b241 dfaa 0741
00000010: 2790 0842 d928 2cc2 010b bdc1 a792 19c2
00000020: 1238 59c1 8988 be41 5d87 42c2 560d c2c1
00000030: 98c0 4d41 c899 bbbf 2c13 3cc1 bb26 11c2
00000040: 80b1 89c2 3e80 04c2 246e 9f40 f6fb 0b42
00000050: 7dac fb41 6839 e9c0 2f7a b6bf 0058 26c1
00000060: 914b c0c0 5932 13c2 ec65 2642 e518 bdc1
00000070: 61ba 1842 39e8 75c1 849c 4542 f89a 6fc0
00000080: be59 8342 5a7b 0ac1 e6a4 d5c1 958e 8fc1
00000090: 7053 ad41 1a48 3e41 8d79 d0c1 e8c5 80c1
000000a0: b882 9441 5da2 35c1 814d 1241 f404 c641
000000b0: 7643 6f40 894d 8641 2b53 af41 ece2 68c2
000000c0: 248b 8241 ff57 e540 85ad fdc1 e004 8341
000000d0: 84e6 40c1 c5c2 4bc2 8f76 abc0 5052 3d41
000000e0: b130 d941 79bb b041 f580 aac0 49d0 21c0
000000f0: 048e 3241 75f7 3bc1 ba00 87c1 eb43 ee40
5.1859717 -26.050756 22.371624 8.479217 34.140774 -43.03989 -23.630373 -38.393215
-13.576189 23.816668 -48.63219 -24.256512 12.85952 -1.4656305 -11.754681 -36.287823
-68.84668 -33.125237 4.982195 34.996056 31.459223 -7.2882576 -1.4256037 -10.396484
-6.0092244 -36.799168 41.599533 -23.637156 38.18201 -15.369195 49.402847 -3.7438335
65.67528 -8.655115 -26.705517 -17.94462 21.665741 11.892603 -26.059351 -16.096634
18.563828 -11.352139 9.143922 24.752419 3.7384925 16.787859 21.91561 -58.221603
16.31794 7.1669917 -31.709726 16.37738 -12.056278 -50.940205 -5.3582225 11.832596
27.148775 22.09154 -5.328242 -2.5283377 11.159672 -11.747914 -16.875355 7.445791

block2.0.block.1.running_var f4 [64]
00000000: 3e13 8d44 8419 0e45 32be f544 5a23 aa44
00000010: 73dc 0845 9c6a de44 8c40 aa44 786f 5145
00000020: 8723 6344 2eb3 0e45 5944 5c45 f75f 5144
00000030: bbf0 2145 beac 6544 c332 ee43 99c3 5944
00000040: 50c1 8d45 605c 1d45 d9a5 e544 4055 9d44
00000050: 2852 ca44 6103 6f44 bf34 0945 7c8a 5e44
00000060: f7f7 f844 c584 bd44 9b9b c544 e29e 1f45
00000070: 40a9 fa44 3ff7 c544 1c0b c044 499a fc44
00000080: 2474 d044 cada 4344 1587 0d45 ce9e d144
00000090: 8320 2045 3bd6 0445 ab8d 5d44 c15d dd44
000000a0: e999 7b44 a1e4 1145 5b08 ee44 3fd3 e744
000000b0: 26fd 0e45 5b41 2845 1e0c c744 ebaf bf45
000000c0: f234 3545 596d a244 c820 ef44 2284 b544
000000d0: ae72 ec44 92dc ab44 0d80 d644 fc63 fc44
000000e0: 18d0 0045 24c2 ad44 94f0 1d45 fb8d c144
000000f0: e6f5 5545 eed8 9444 43fc 3045 0e9b bb44
1128.6013 2273.5947 1965.9436 1361.1047 2189.778 1779.3315 1362.0171 3350.9668
908.5551 2283.1987 3524.2717 837.49945 2591.0457 918.6991 476.39658 871.0562
4536.164 2517.7734 1837.1827 1258.6641 1618.5674 956.0528 2195.2966 890.1638
1991.7489 1516.149 1580.8627 2553.9302 2005.2891 1583.7264 1536.3472 2020.8214
1667.6294 783.4186 2264.4426 1676.9626 2562.032 2125.3894 886.21356 1770.9298
1006.40485 2334.2893 1904.2611 1854.6014 2287.8218 2692.0847 1592.3787 6133.9897
2899.309 1299.4171 1913.0244 1452.1292 1891.5837 1374.8928 1716.0016 2019.1245
2061.0059 1390.0669 2527.0361 1548.4369 3423.3687 1190.779 2831.7664 1500.8455

block3.block.0.weight f4 [64, 64, 3, 3]
00000000: 7abe 06c0 e380 e33f 9a8a e2bf 26db 3dbe
00000010: 6f16 81bf 0d9f 723e 4724 a8bf ec26 33bf
00000020: 9d64 f13e a32f 43bf 044a 90bf 02e3 5fbf
00000030: 3152 83bf 13c8 61bf edaf f8bf f1b3 873f
00000040: 8626 8cbf dcbb 0ebf edf3 c7bd 8ea8 3bbf
00000050: 5150 9b3f ae4a 993f dad2 45bf 54ad 473e
00000060: 2899 3dbf 99c1 2abf 065a 1abf a202 12bf
00000070: 1420 5fbf b150 393f 0164 e23f 4365 cdbd
00000080: d68a 463f 84a0 cf3e a514 64bf f25f 1fc0
00000090: 6db4 b4be 492b 26c0 db02 d3bf cac6 d93e
000000a0: 2c80 9ebf 04e6 c5bf 26b7 60be ea3b 82be
000000b0: bb6e 4fbf 76aa c63c d74c 753f ff32 a8bf
000000c0: 8838 f43f 25b7 5dbf 94e9 36bf 11ca 683f
000000d0: 07c4 1cbe 8cd0 c1bf 9fca 3b3f 793f a63b
000000e0: 72b2 35bf ebaa 1cbf 974f 70be 41fb 08c0
000000f0: d927 1e3f b055 bdbe c284 c6bf 4307 ac3f
00000100: d0bc 02bf cfd5 b8bf 9cf7 863f c061 bb3e
00000110: a1c4 babf 2acb 973e feb8 b53e 74e9 5cbe
00000120: 2b1a 8ebe 61d8 ba3e a0e2 9f3f ef72 e93e
00000130: f9cb 9cbf ca75 3e3f 5f77 99be e3de 62bf
00000140: 5d1f 643f 56ae 1e3f 91a1 f9bf fb2c 97bf
00000150: 1c63 b93f d15c c4bf 4756 be3d fee8 0dbf
00000160: f6a7 3e3e 6dd1 02c0 5f33 9c3f 810b a93e
00000170: 17d5 95bf 83d1 12bf df23 123f 1b13 8dbf
00000180: 92ec c23f 0b8e 4a3e c5a4 8dbf 7f52 e63f
00000190: d03d 483d a107 363f f855 1b3f e3d5 0240
000001a0: e038 9f3f 85fd 193e 697f a83e 7bd9 643e
000001b0: acfb 313f 1ab8 bebf 92b2 703f 45b1 a6bf
000001c0: f959 2fbf 0a0a 72bf fa09 713d f9f5 20bf
000001d0: 2e36 a8bf d302 0d40 95a7 db3c b279 393f
000001e0: e2ae fa3e 6f13 2fbe c2b9 78be 3f00 a4bf
000001f0: dd85 12be fde0 c8bf 47d8 8fbd 5ae1 a2be
00000200: 255a edbd 6703 3abd 04eb aebe 09d7 54bd
00000210: a27e 1abe 2bff f93d f826 15be 031f 8d3f
00000220: 0788 683e b16e 49bf f5a7 e93f 6af4 913e
00000230: 8f40 813f cc8c 4cbf 5982 c6be b586 5cbe
00000240: df1c ccbf 905c 773d 3003 8dbe 7b84 fdbc
00000250: 8b23 d73d 85a2 083e 7d3d 91be 616c 25bf
00000260: 0282 d4bf ded7 f33f 42e8 3cbf 6163 06c0
00000270: 9921 913e 2ba2 b2be be32 27be 9d97 53bf
00000280: 446a 71bf 3f14 b4bf 273d 01c0 428e 20c0
00000290: 10d5 15c0 c301 993e 703f 40c0 7560 62c0
000002a0: 8d44 81bd 2448 1dbf 53f6 81bf 4a21 dbbf
000002b0: 0549 4fbf 001f 9abf 22b5 94be 2839 b6be
000002c0: 7e10 b8bf 741b 5ebf afc9 fabe 09b7 c2bf
000002d0: b9d7 34bf f576 a6be 40b7 f73f 0e21 0a3f
000002e0: 0475 72bf af64 743e da81 aebf 77db bcbd
000002f0: 2d98 09bf 8c6a da3f d350 74bf d287 96bf
00000300: 8e0a 133f 157a ed3e e238 cf3f 9a66 97bf
00000310: 55ca 7fbf 75a0 91be ba31 8dbd 9f6b 1bc0
00000320: f102 d63e 5f6e 8dbf 3ae5 963d 5685 abbe
00000330: 1901 32bf b28b e0bf a59a 9b3e 57e2 0c40
00000340: 243b 9dbe 1ec2 2bbf bf34 cc3f 104f dcbf
00000350: ec93 f8be d1c5 12bf dd2c 1fbf f63f 37bf
00000360: 27ca aabf e402 6ebf f15e 903e dd20 85bf
00000370: cebf 84bd e327 d3bd 8163 803d cb9a 9cbf
00000380: ad00 abbf 03b7 93bc 5688 96be 2636 36bf
00000390: e67f 263f 861a 0b3e f1e5 c2bc 5eda 803e
000003a0: 21d4 07be e0cc 3dbf c616 f6be e9a3 efbf
000003b0: d4f2 34bf 2638 a03f cf4c 60bf ece1 edbf
000003c0: 531a 10be af0d 803f 00b3 86bf c57a 76bf
000003d0: 0612 54bd cb9a 81be a518 dcbd 349e 403e
000003e0: 1bae ae3e 164b d2be 28c1 903f a16e 83bf
000003f0: ccd4 c7be d6a6 35c0 769f 08c0 3b3c 44bd
-2.1053758 1.7773708 -1.7698548 -0.1854063 -1.0084971 0.23693486 -1.3136071 -0.69981265
0.47147074 -0.7624456 -1.1272588 -0.8745576 -1.0259458 -0.88195914 -1.9428688 1.0601789
-1.0949256 -0.557554 -0.09763322 -0.7330407 1.2133886 1.1975915 -0.7727486 0.19499713
-0.7406182 -0.66701657 -0.60293615 -0.5703527 -0.8715832 0.7238875 1.7686769 -0.1002908
0.77555597 0.4055215 -0.89094 -2.490231 -0.35293904 -2.596392 -1.6485246 0.42534477
-1.2382865 -1.546082 -0.21944866 -0.25436336 -0.81028336 0.024251204 0.95820373 -1.3140563
1.9079752 -0.8660758 -0.7145016 0.9093333 -0.15309153 -1.5141768 0.7335605 0.0050734845
-0.7097541 -0.611983 -0.23467861 -2.1403353 0.6177955 -0.36979437 -1.5509264 1.3439716
-0.51069355 -1.4440249 1.0544314 0.36598015 -1.4591256 0.2964719 0.354927 -0.2157343
-0.2775434 0.3649321 1.2491035 0.455955 -1.2249748 0.7439848 -0.29973885 -0.8862135
0.89110357 0.61984766 -1.9502431 -1.1810602 1.4483371 -1.5340825 0.092938 -0.5543364
0.1861876 -2.0440323 1.2203177 0.3301659 -1.1705655 -0.5735094 0.57085985 -1.1021456
1.5228446 0.19780748 -1.1065909 1.7993926 0.048887074 0.7110539 0.6067805 2.0443046
1.2439232 0.15038116 0.32909706 0.22348587 0.69524646 -1.4899933 0.94022477 -1.3022848
-0.6849666 -0.9454657 0.058847405 -0.62875324 -1.3141534 2.2032974 0.026813308 0.7245132
0.4896155 -0.17097257 -0.24289611 -1.2812575 -0.14308877 -1.5693661 -0.070236735 -0.31812555
-0.11589459 -0.0454134 -0.34163678 -0.051962886 -0.15087369 0.122068726 -0.14565647 1.1025089
0.2270814 -0.78684527 1.8254381 0.28506786 1.0097827 -0.7990234 -0.38771322 -0.21535762
-1.5946311 0.06039101 -0.27541494 -0.03094696 0.10504826 0.13343246 -0.28367224 -0.646185
-1.6602175 1.9050252 -0.737919 -2.0998156 0.28345945 -0.3488935 -0.1632795 -0.8265322
-0.94302773 -1.4068679 -2.0193574 -2.5086827 -2.3411293 0.29884157 -3.003872 -3.5371373
-0.06311903 -0.614382 -1.0153297 -1.7119534 -0.80970794 -1.204071 -0.29044443 -0.35590482
-1.4380033 -0.8676064 -0.48981997 -1.5212108 -0.70641667 -0.32512632 1.9352798 0.5395669
-0.947098 0.23866533 -1.3633378 -0.09221547 -0.53747827 1.7063766 -0.9543583 -1.1760199
0.5743798 0.46382204 1.6189234 -1.1828187 -0.9991811 -0.28442731 -0.0689425 -2.4284437
0.4179912 -1.1049308 0.0736794 -0.33500165 -0.69532925 -1.7542632 0.30391422 2.2013147
-0.30709183 -0.67093074 1.5953597 -1.7211628 -0.48550355 -0.57333094 -0.6217783 -0.7158197
-1.3342942 -0.9297316 0.28197435 -1.0400654 -0.06481896 -0.10310342 0.06268979 -1.2234739
-1.3359581 -0.018031603 -0.2940089 -0.71176374 0.6503891 0.13584337 -0.023791285 0.251666
-0.13264515 -0.7414074 -0.4806425 -1.8721896 -0.70683026 1.2517135 -0.876172 -1.8584571
-0.14072542 1.0004176 -1.0523376 -0.9628108 -0.051775 -0.2531341 -0.10746888 0.1881035
0.34117207 -0.4107291 1.1308947 -1.0268136 -0.3902954 -2.8383079 -2.1347327 -0.047909003

block3.block.0.bias f4 [64]
00000000: c3b2 08bd 1a73 873b 763d 053c b6c3 25bd
00000010: 6564 713c eba0 7c3c 8469 053d c5eb 083d
00000020: 1a79 b83a 8967 f83c 7081 00bd 291d 813c
00000030: c407 fdbc 23aa ba3b f54d cc3b c139 d9bc
00000040: 3a3c 163d 4b1c 873c 756e 8e3b e8dc 153c
00000050: a472 30bd 4b66 cf3c 71f2 693c 4ee9 ca3b
00000060: e4e3 893b ffb0 f03c 9c37 bfbc 8554 71bc
00000070: 5a3d 24bc 9563 f63c 60ec 2abd 66f5 843c
00000080: b68e d43a 66bb 063d 51c4 993c 3688 ad3c
00000090: 001d 39bc 0828 3cbc d665 fbbc 74b3 abbc
000000a0: b71d 10bd 2a88 21bb df81 393d 84e2 993c
000000b0: 593a 1b3d db76 12bd 8789 53bc 7165 abbb
000000c0: 7568 a73c 0516 933c acd3 ae3c 709e a1bc
000000d0: af81 053d 35bf 1cbc 3353 c9bc 17d6 16bd
000000e0: c26c 0a3b 7e6e 593c c9c7 9e3c d708 023d
000000f0: 57b4 143d cf68 7c3c de72 d23c 8971 c8bc
-0.033373605 0.004133594 0.008132329 -0.040469848 0.014733409 0.015419225 0.03257133 0.033427972
0.0014074177 0.030322807 -0.03137344 0.015760975 -0.030887492 0.0056965514 0.006234879 -0.026516797
0.03667853 0.016492983 0.0043466636 0.009146906 -0.04307808 0.025317332 0.014278994 0.006192363
0.004208075 0.029381273 -0.023341946 -0.014729624 -0.010024393 0.030076781 -0.04172933 0.016230296
0.0016216848 0.03289356 0.018770369 0.021183114 -0.011298418 -0.011484154 -0.030688208 -0.020959593
-0.03518459 -0.002464781 0.04528987 0.018784769 0.03789744 -0.03575788 -0.012911207 -0.0052305986
0.020435551 0.017954836 0.021341167 -0.01972887 0.03259438 -0.009567072 -0.024575805 -0.036825266
0.0021121954 0.013270972 0.019382374 0.03174671 0.036304798 0.015405848 0.025689539 -0.0244682

block3.block.1.weight f4 [64]
00000000: 5060 cb3f 6913 bd3f c67a eb3f 4b16 d93f
00000010: 5d58 0340 9b07 813f 11f1 eb3f 0ef0 1a40
00000020: 1b80 9f3f b241 8b3f 681a 253e d758 733f
00000030: fb0e cf3f 43b4 b33f df7a f63f b790 0740
00000040: 6b0a 1740 982f be3f 1730 303f a884 c43f
00000050: 13f5 b03f 404d 1340 7d67 ec3f faa4 ff3f
00000060: dc2d e53f 4bdb f13f 25ef d23f edd7 933f
00000070: 31d9 373f 81e4 c03f 05ef 9a3f 104f c53f
00000080: f0f3 af3f ed27 853f d1c2 0c40 b420 ca3d
00000090: 5f34 d33d 81bb 0440 4197 533f 34d3 df3f
000000a0: 8604 bb3f dc66 be3f 1e17 8d3f 4482 f53f
000000b0: 2242 b43f f0cf 983f 43ee 0640 f038 e23f
000000c0: 57a9 e23f 7886 dc3f d922 0940 9f60 053f
000000d0: 3280 9c3f e213 cd3f e9f1 943f 4626 573f
000000e0: b095 0e40 0937 9f3f 7fd2 e43f ebdb d13f
000000f0: f633 0040 1a2c 9a3f 2052 be3f f466 513d
1.5888767 1.4771549 1.8396842 1.6959928 2.0522683 1.0080446 1.8432943 2.4209018
1.246097 1.0879424 0.16123354 0.95057434 1.6176447 1.4039387 1.9256247 2.1182077
2.3600109 1.4858274 0.6882338 1.5352983 1.3824791 2.30159 1.8469082 1.9972222
1.790462 1.8895048 1.6479231 1.155027 0.7181578 1.5069734 1.2104193 1.5414753
1.3746319 1.0402809 2.1993906 0.09869519 0.10312723 2.0739443 0.8265267 1.7486329
1.4610755 1.487514 1.102268 1.9180379 1.4082682 1.1938457 2.1082923 1.7673626
1.7707928 1.7228537 2.142752 0.5210056 1.2226622 1.6021693 1.1636325 0.84042776
2.2278862 1.243867 1.7876738 1.6395239 2.0031714 1.2044709 1.4868813 0.051123574

block3.block.1.bias f4 [64]
00000000: 27eb 6dbf 88e3 27bf b9fa 91bf d076 fdbf
00000010: 0f8a aabe 9564 fbbe 5a47 2fbf d921 91bf
00000020: cd6b e6bf 42f8 e2be bd18 53bf b89d 0bbf
00000030: a6b7 f7bf 44a4 80bf 2365 85be e397 79bf
00000040: 2274 8bbf de11 b0bf aa38 63bf 7a5d 84bf
00000050: 2ad0 aebf cc29 94be c3a3 42bf 1d2e 06bf
00000060: b7b8 21bf 22b3 ccbf bb46 78bf 7147 afbf
00000070: 731b 57bf aec3 b9bf bb50 1abf 4047 54bf
00000080: 8159 bbbf be6b 1fbf 6af5 96bf b1ad 3fbf
00000090: 708c 28bf 2418 2ebf b6e9 bbbe 174f 01bf
000000a0: 3a1d b7bf cf18 b3bf edd8 ebbe 7467 7fbf
000000b0: 8138 dbbf f01a 1ebf 37c1 90bf e985 14bf
000000c0: d65a a4bf d113 00c0 a106 76bf 73fa c2be
000000d0: 9ab9 11bf 6022 57bf dcc4 bdbf 32d0 3ebf
000000e0: 6ede d3bf 5a66 89bf 0797 04bf 689d 83bf
000000f0: 7662 c3bf e1ce 83bf 7dfe dfbe 18c2 77be
-0.9293694 -0.6558156 -1.140464 -1.9801884 -0.33308455 -0.49100175 -0.6846825 -1.1338454
-1.8001648 -0.4433003 -0.8245962 -0.54537535 -1.935292 -1.005013 -0.26053724 -0.97497386
-1.0894816 -1.3755453 -0.8875834 -1.0341027 -1.3657277 -0.28938138 -0.7603113 -0.52414113
-0.6317248 -1.5992167 -0.96982926 -1.3693677 -0.8402626 -1.4512842 -0.60279435 -0.8292122
-1.463669 -0.62273777 -1.1793644 -0.7487441 -0.6583929 -0.68005586 -0.36701745 -0.50511307
-1.4305794 -1.3991946 -0.4606394 -0.9976723 -1.7126619 -0.61759853 -1.1308964 -0.5801683
-1.2840221 -2.0012095 -0.96103865 -0.38081703 -0.5692383 -0.8403683 -1.4825702 -0.7453643
-1.6552255 -1.073436 -0.5179295 -1.0282412 -1.5264423 -1.029751 -0.43748847 -0.24195135

block3.block.1.running_mean f4 [64]
00000000: a33f 63c2 fafe c340 d5e9 0ec2 228a 1442
00000010: 7b3f 57c2 aff2 12c1 6d4c b1c1 5f5e 71c2
00000020: 096d a041 83ad 8041 1a1e 00c2 8395 2741
00000030: a27b d041 1754 66c1 24cc b0c1 6b94 bfc1
00000040: 93fe f0c0 f4e7 ef40 063f b3bb 5c98 3041
00000050: 0a49 edc1 c5ca 0cc2 bb2c c541 236c 51c2
00000060: 9ff0 98c2 a651 8640 603a a541 eabe 6cc1
00000070: a5f3 9740 71a4 6bc2 77bf bbc1 ab32 d7bf
00000080: 9909 2d40 d359 bc41 7883 63c2 eda5 f641
00000090: 7af8 a641 a4e1 54c2 f664 8241 3ac5 ecc1
000000a0: 8267 5bc0 51a6 bc41 2ba7 c0c1 658d 31c2
000000b0: 8238 ba41 99c8 3b41 1831 3541 8ef9 5abf
000000c0: bd85 18c2 ed6f 1941 6640 84c2 a81d 1d42
000000d0: 9350 0ac2 5439 4ec2 1995 fac1 c167 97c1
000000e0: a92a d7c1 9654 8cbf a49f 6a41 3192 f541
000000f0: 16b3 f0c1 f91e 18c0 0f1b bbc2 1d3e 9e41
-56.812145 6.124875 -35.72835 37.134895 -53.811993 -9.184249 -22.162317 -60.34216
20.05324 16.084723 -32.029396 10.474002 26.060368 -14.39553 -22.099678 -23.94747
-7.531076 7.4970646 -0.0054701595 11.037197 -29.660664 -35.198017 24.646841 -52.355602
-76.46996 4.197467 20.653503 -14.79661 4.748492 -58.910587 -23.468489 -1.6812338
2.7037108 23.54386 -56.878387 30.831018 20.871326 -53.220352 16.299297 -29.596302
-3.4281926 23.58121 -24.081625 -44.38808 23.277592 11.736474 11.324486 -0.8553704
-38.130604 9.589826 -66.12578 39.27896 -34.578686 -51.555984 -31.322802 -18.925661
-26.89583 -1.0963314 14.663975 30.696383 -30.087444 -2.3768904 -93.55285 19.780329

block3.block.1.running_var f4 [64]
00000000: ae24 ee44 d1a8 1745 984c 1245 c58a 8644
00000010: 0938 8945 c066 b144 f3da fa44 f453 0645
00000020: 72b3 c844 f1ce b744 31eb 1045 ae98 0045
00000030: 1334 d844 9c64 0845 ff64 fa44 f453 3f45
00000040: 128f e944 a4fd 9144 e3fe 8d44 6288 0d45
00000050: 3b31 d344 98c4 b444 6dcb ac44 74d7 6145
00000060: 154f 8245 e715 9644 c0f4 9c44 9173 d744
00000070: edd9 e544 29e4 8d44 5a8f 9644 9dfd c744
00000080: 4384 f844 e764 ca44 ee5a 4645 6774 8144
00000090: c836 b644 6781 6e45 b3e5 f244 e6bc 4445
000000a0: 99e3 1a45 f5db bf44 86ad 2045 12e8 1645
000000b0: f00e d544 d4fc e344 abab 2745 b36e 9d44
000000c0: f96e 4c45 ad0b cd44 69df 5145 635c 0345
000000d0: 1901 8f44 5857 f044 905e 3945 ecb4 2745
000000e0: 2ef5 b444 6a2c be44 5309 1845 0cd3 0945
000000f0: 46f8 1345 65ce 2245 42d1 ae45 e533 ac44
1905.1462 2426.551 2340.787 1076.3365 4391.0044 1419.2109 2006.8422 2149.247
1605.6077 1470.4669 2318.6995 2057.5425 1729.6273 2182.288 2003.1561 3061.247
1868.471 1167.9263 1135.9652 2264.524 1689.5385 1446.1436 1382.357 3613.4658
4169.8853 1200.6844 1255.6484 1723.6115 1838.8102 1135.13 1204.4797 1599.9254
1988.1332 1619.1532 3173.683 1035.6376 1457.7119 3816.0876 1943.1781 3147.8062
2478.2249 1534.8737 2570.8452 2414.5044 1704.4668 1823.9009 2682.7292 1259.4594
3270.9358 1640.3649 3357.9631 2101.7742 1144.0343 1922.7295 2965.9102 2683.3076
1447.6619 1521.388 2432.5828 2205.1904 2367.517 2604.8997 5594.157 1377.6217

block4.block.0.weight f4 [64, 64, 3, 3]
00000000: 9cd5 57bf 2119 633f 3153 37c0 addc a7bf
00000010: 4f59 0940 d7c9 b63f c486 a03f c1e5 bdbe
00000020: 4608 b93c 8029 cdbf 509f 44be c149 97be
00000030: f3af 00bf 7a20 c03f b0bf 77be a14b cabf
00000040: 33c7 0a3e bd69 4cbf 473b 743f 4d28 a8bf
00000050: e4ae 8cbf b253 9c3e 8f62 43bf a8d1 0cbe
00000060: b1bf ae3f 7e3f 91bf f8bd 5bbf adac b33f
00000070: c50a 51bf 6a90 71bf 7f5a 10bd 6c2e 003f
00000080: d112 4040 b079 36bf 3261 a6bf ea26 8fbf
00000090: 4de3 9e3f 3919 583e 0c2c aebf 2982 54c0
000000a0: 107c 5c3e bff7 7f3f 92e3 f13f 4a1f c8bc
000000b0: eed7 bdbe d818 0b40 db5c 9a3e 362e c5bf
000000c0: c316 e7bf f2db 953f 7073 fcbd aac3 533f
000000d0: 6f62 823f e924 53bf 8e3f 643f 06f6 bb3f
000000e0: e285 993f 7e9a 993f 3885 9a3d 9255 f4be
000000f0: addc 353f fc93 a93f 75ab 863f c9aa 1d3f
00000100: 31c0 b03e 810f c1be d8f5 d13f 9152 e3be
00000110: 40a5 87be 8419 96bf fce3 02bf 9461 5bbf
00000120: d36f 35c0 76c5 f0bf 2286 1ac0 3a67 703f
00000130: c894 1640 e0f1 e63f 4349 15c0 f0f1 d2bf
00000140: 0140 31bf 2c29 813f 5e6f 923e 2dce 07c0
00000150: 3283 023e 6a99 77be e33c b4be a355 123f
00000160: 095e 063f f1e6 2cc0 9d86 49bf 61d0 82be
00000170: ec32 93bf 20a8 0bbe bc39 8a3e ddec aabf
00000180: 66f8 93bf f434 ebbe 1937 90bf 97b2 b03e
00000190: da72 f9be 8135 66bf 44cb ebbe 2c0f 92bf
000001a0: 9b0b 0c3d 27c6 a4bf d44e ed3e dfff fa3f
000001b0: 162c 2b3f dc26 c8be 89f6 d9be 020a 9ebf
000001c0: 53d9 03c0 fbaa 31bf 075a e6be 8049 6f3e
000001d0: fbe7 583f 67b9 fa3e d648 1d3f 44bb 9b3f
000001e0: 5bd4 0ec0 d936 c0bf 29e9 febf 9eb4 10bf
000001f0: 2ae7 5a3d c94f 44be 6e4b 503f 3600 1dbf
00000200: 57de 6abf 409b 26c0 e339 ed3d 7b28 bdbe
00000210: b79b f53f ffe6 8abe 673d 0bbf 4fc4 063f
00000220: d137 d4bf b825 93bf 2483 58bf a0c0 01bf
00000230: 237a 0cbf f3ad cdbe 190b 29c0 8f46 133f
00000240: ec10 cb3f 40b4 323f d709 3f3f a650 3a3b
00000250: 5fcd 66c0 4cb6 cabe 3507 8cbf fbab cc3e
00000260: 48e1 e6be 99af fcbe 1884 87be b6f1 a73f
00000270: 683d 4bbf e460 fbbd 98f5 a2bf 6e56 443f
00000280: bcf2 073f 6080 3fbf a504 1b40 0b3b 913e
00000290: a41c cdbf 898a cdbf 4eae b0be 2621 133f
000002a0: e5bf cdbf c225 23bf 85de 7bbf 7dc3 83be
000002b0: 03b4 113f 1fb1 553f 6b6b 543e f59d 41be
000002c0: a4af 29bf ee48 1bc0 34c5 1dc0 d0e8 87bf
000002d0: 7c3d 9e3f 6520 483f be61 943f cfb8 47bf
000002e0: d3a1 bdbe 55c4 b9bf 0095 37bf 36c6 acbf
000002f0: 9e92 c63e 1742 483f 7122 9a3f a2a0 dfbc
00000300: 2f75 44bf d174 f3bf 5513 b0bf 381f 0abf
00000310: 2b0f dd3f cb9f ad3f ba88 183f c0a3 b4be
00000320: 22e5 a63e 3680 99bf 1e66 5d3f 44f0 603f
00000330: 2cf0 4a3f 1585 363f c229 41bf 219a 513e
00000340: 41c1 123f b96e 283e 403d d0be a344 5dbf
00000350: 9adf 203f e49e 39bf eed0 c5be c3cf 213f
00000360: f061 2a3f 018f 2bbf 0eca c8bf 5660 2dbf
00000370: a3ed 3d3f 878d 3dbf 3b7d 443f a00b 7cbf
00000380: 975e 863f 3dd6 0fbe 84f1 5ebf 5814 1ac0
00000390: 9be8 dd3e cfe4 b93e 9e82 d5bd 2023 c7be
000003a0: 825a a0bf 2715 e6bc c6d5 8a3f 3934 f1bf
000003b0: c393 cbbf bfaa 03bd ded4 2140 e040 4b3f
000003c0: 0139 8ebe 99ae 3cbe 4534 5bc0 8823 6dbf
000003d0: 7bb9 b1be aa2f d2bf 1a4d d5bf 1a11 f2be
000003e0: adc4 9d3e 1d57 3cbf 6e0f cc3d 2e0a 20be
000003f0: 86f4 d93e 4f65 a0bf 8cc3 bfbe 997f 2bbf
-0.8431032 0.8871022 -2.8644526 -1.311422 2.146076 1.4280347 1.2541127 -0.3708935
0.022586953 -1.602829 -0.19201398 -0.29548457 -0.5026848 1.5009911 -0.24194217 -1.580433
0.13552551 -0.79848844 0.9540295 -1.3137299 -1.0990872 0.30532604 -0.76322263 -0.13751853
1.365225 -1.1347501 -0.85836744 1.4037071 -0.8165706 -0.94360983 -0.035242554 0.50070834
3.0011485 -0.7127943 -1.2998412 -1.1183751 1.2413117 0.21103372 -1.3607192 -3.3204443
0.21531701 0.99987406 1.8897574 -0.024428982 -0.37078804 2.1733913 0.30148968 -1.5404727
-1.8053821 1.1707747 -0.123267055 0.82720435 1.018629 -0.82478195 0.89159477 1.4684455
1.1993983 1.2000272 0.07544941 -0.47721535 0.7103985 1.3248286 1.0521075 0.6158872
0.3452163 -0.3770714 1.640315 -0.4439893 -0.26493263 -1.1726537 -0.51129127 -0.8569577
-2.8349502 -1.881026 -2.4144368 0.9390751 2.352831 1.8042564 -2.3325965 -1.6480083
-0.6923829 1.009069 0.2860059 -2.121959 0.1274536 -0.24179617 -0.35202703 0.5716192
0.52487236 -2.7015955 -0.7872103 -0.25549605 -1.1499915 -0.13638353 0.26997173 -1.3353535
-1.156018 -0.45938838 -1.1266814 0.34511253 -0.48720437 -0.8992539 -0.46053517 -1.141088
0.034190755 -1.2872971 0.46349204 1.9609336 0.66864145 -0.39092147 -0.42570904 -1.2346804
-2.0601394 -0.6940152 -0.4499056 0.23367882 0.84728974 0.48969576 0.61439264 1.2166524
-2.2317111 -1.5016738 -1.9914905 -0.565256 0.05344311 -0.1917106 0.81365097 -0.61328447
-0.91745514 -2.6032257 0.11583307 -0.36944947 1.9188145 -0.2712936 -0.5439057 0.52643293
-1.6579534 -1.1495886 -0.84575105 -0.5068455 -0.54873866 -0.40171775 -2.6413023 0.5752954
1.5864539 0.6980629 0.7462439 0.0028429418 -3.6062849 -0.39592206 -1.09397 0.3997496
-0.4509375 -0.4935272 -0.26467967 1.3120639 -0.79390574 -0.1227434 -1.2731199 0.7669438
0.5310476 -0.7480526 2.4221585 0.2836536 -1.6024365 -1.6057903 -0.34507984 0.57472456
-1.6074187 -0.6372949 -0.9838641 -0.25735083 0.569153 0.8347339 0.20744102 -0.18907912
-0.6628363 -2.4263263 -2.4651613 -1.0617924 1.2362514 0.7817443 1.1592329 -0.7801637
-0.37037525 -1.4513041 -0.7171173 -1.3497989 0.38783735 0.78225845 1.2041761 -0.027298275
-0.7674131 -1.9020025 -1.37559 -0.53953886 1.7270254 1.356439 0.5958363 -0.3528118
0.3259669 -1.1992252 0.86483943 0.87866616 0.79272723 0.7129682 -0.7545434 0.20468952
0.5732613 0.16448487 -0.4067173 -0.86432856 0.6284119 -0.7250807 -0.38635963 0.63207644
0.6655569 -0.6701508 -1.5686662 -0.6772512 0.7419073 -0.7404408 0.76753587 -0.9845524
1.0497617 -0.14046569 -0.87087274 -2.4074917 0.43341526 0.3630738 -0.10425304 -0.38893986
-1.2527621 -0.028086258 1.0846488 -1.8844062 -1.5904468 -0.032145258 2.5286174 0.79395866
-0.27777866 -0.18425979 -3.4250653 -0.9263234 -0.34711823 -1.6420796 -1.6664155 -0.47278672
0.30814114 -0.73570424 0.099638805 -0.15628883 0.4256937 -1.2530917 -0.37453878 -0.66991574

block4.block.0.bias f4 [64]
00000000: 5730 533c c566 edbc 287f d63b cfd6 2bbc
00000010: bc86 d03c 4aa6 933c 1b5d 61bc 4284 f23c
00000020: b93e a5bc 8d3f 913c ec1a 4bbc e2fa 893c
00000030: 9ed8 583c cb4a 68bc 15bf 9cbc aad3 ba3c
00000040: 1b9b 8bbb 541f 04bd 16f1 23bd 0cb5 acba
00000050: a2dd 17bb d864 15bd d4af e43b cd87 193d
00000060: 9340 fabc 9c81 9e3c 5713 ec3b 6f00 a2bc
00000070: 8219 883c 4b84 dcbc 4309 e43c 807d 833c
00000080: d3fd c33b 8393 eebb 8121 993c caca ca3c
00000090: 6eeb 6cbb 892a e0bb c838 26bb b9c3 e2bc
000000a0: 22b5 173c 82c5 97bc 0e8c 833c 2555 163d
000000b0: 3019 cabb bad6 d2bc e6c2 243d 77e5 cb3c
000000c0: 1835 05bb b1c3 c6bc 522d 573d 2fa5 ce3c
000000d0: 7eee 1b3d 077e e1bb 3140 423c 2021 013d
000000e0: 4cd6 c6bc 8c37 30bd 08f2 d83c 0352 6a3c
000000f0: ab36 703b 3809 d5bc 6424 b3bc 578b c5bc
0.012889943 -0.028979668 0.00654592 -0.010488226 0.025454871 0.018023629 -0.013755108 0.029604081
-0.02017151 0.017730499 -0.012396555 0.016843263 0.013235239 -0.014177988 -0.019134084 0.022806007
-0.0042604334 -0.03225644 -0.04002484 -0.0013176515 -0.0023172875 -0.036473125 0.006978968 0.037483025
-0.03054837 0.019348912 0.007204454 -0.019775597 0.016613726 -0.026918551 0.027836448 0.016051054
0.005981186 -0.0072807684 0.018692734 0.0247549 -0.003615107 -0.006841008 -0.0025363434 -0.027681218
0.009259494 -0.018526796 0.016057994 0.036702294 -0.0061675534 -0.025737155 0.040224932 0.02488969
-0.0020325836 -0.024263235 0.052533455 0.02522525 0.03806924 -0.0068814787 0.011856125 0.03152573
-0.024272107 -0.043021724 0.026482597 0.01430178 0.0036653678 -0.026005372 -0.021867938 -0.024114294

block4.block.1.weight f4 [64]
00000000: d545 0a40 1716 dd3f 7f73 b13f 67b6 c13f
00000010: 8d44 a23f 85fc 993f 3b75 813f 1aeb f73f
00000020: 87ed 0640 f824 ae3f bd2c a13f da07 b93f
00000030: 4fb3 b43f ec99 c93f b4c3 863f d59b b63f
00000040: 4da7 9d3f 792a eb3f 6474 2a3f edad e93f
00000050: fa84 0a40 3097 d63f c067 3a3f e8e2 0840
00000060: 0587 9a3f 5c42 c03f d1f6 ba3f ede1 2c3e
00000070: 7c53 693f 4b07 d53f 3027 9b3f efa1 0740
00000080: cc95 aa3f b4fd cc3f 19f8 da3f 92f7 c73f
00000090: 47bd df3f 7fa8 fa3f ece1 b63f 7969 cb3f
000000a0: 8dfe 9c3f c94b 4f3f d06f d43f f394 0a40
000000b0: 3532 d73f 67c0 e33f 95e1 d63f 43fd cb3f
000000c0: 2650 d43f bee1 933f 5c09 0540 ab5e cf3f
000000d0: 6890 e43f fac6 b53f 67d1 b03f 75f2 633f
000000e0: 2eea 983f 56ba cb3e 7787 c23f b812 0d40
000000f0: 0ceb f23f cc45 ca3f db50 db3f 02ea ad3f
2.1605122 1.7272366 1.3863372 1.513379 1.267717 1.2030188 1.0113901 1.9368622
2.1082475 1.3605032 1.2591778 1.4455521 1.4117221 1.5750098 1.0528474 1.4266306
1.2316681 1.8372337 0.6658385 1.8256203 2.1643662 1.6764889 0.7281456 2.1388493
1.2072455 1.5020251 1.4606572 0.16883059 0.9114301 1.6642851 1.2121334 2.1192586
1.3326964 1.6014924 1.7106963 1.5622427 1.7479638 1.9582671 1.4287696 1.5891563
1.2265183 0.80975014 1.6596622 2.1653411 1.6812197 1.7793092 1.6787592 1.5936664
1.6586959 1.1553266 2.0786963 1.6200765 1.7856569 1.4201348 1.3813905 0.89041835
1.1946466 0.397906 1.519759 2.2042675 1.8977981 1.580255 1.713405 1.3587039
