trained_models/relational.pth (torch, 918946 bytes, 39 tensors)

block1.0.block.0.weight f4 [64, 1, 3, 3]
000000 79 29 41 bf 90 9c 68 3f 0e 56 47 be 26 ac 45 3f
       -0.7545391 0.90863895 -0.19466421 0.772158
000010 d6 8d 91 be 8d 7a 8f bf d7 36 cc be d3 15 92 bf
       -0.28428525 -1.1209275 -0.3988559 -1.141291
000020 f3 55 ab 3f 10 6f 8e bf f3 5c 09 3f 0d e8 03 3f
       1.3385605 -1.1127644 0.53657454 0.51525956
000030 59 9b 80 3f eb e6 33 bf 4b 8a 8f be 0e 90 80 bf
       1.0047408 -0.7027423 -0.28035197 -1.0043962
000040 6a 86 dd bd 92 53 a4 bd b7 1d 3e bf 4e 9c 18 bf
       -0.10816653 -0.08023752 -0.7426409 -0.596135
000050 56 91 b5 3f 19 88 bb bf 10 d6 c5 bf 87 a8 99 3d
       1.4184978 -1.4650909 -1.5455952 0.07502847
000060 b1 49 13 3f 3e 04 30 3f 30 a7 1b 3f bb a6 e5 bd
       0.5753432 0.68756473 0.6080198 -0.11213442
000070 c1 39 7f 3f e0 6a a3 bf 72 87 20 3e 9c 5d 35 3f
       0.996975 -1.2766991 0.15676668 0.7084596
000080 0b 61 96 bf 23 a3 42 3f d3 f4 17 3f 4d 20 b2 bf
       -1.1748365 0.76030177 0.5935795 -1.3916107
000090 a8 40 85 bf ba 02 8c bf 29 c5 80 bf 1b dc 28 3f
       -1.0410357 -1.0938332 -1.0060169 0.65960854
0000a0 c7 af 86 3f fa 9c 26 bf c5 8f 37 3f cf 92 da bd
       1.0522393 -0.6508328 0.7170375 -0.10672533
0000b0 5c 60 7b be ce fb a8 be 97 9b 21 bf 8c de 7d be
       -0.24548477 -0.33004612 -0.63128036 -0.24791926
0000c0 2f 4d a5 3e df 9a a8 be bf 68 ae 3e 06 09 52 bf
       0.3228545 -0.32930657 0.3406429 -0.8204502
0000d0 7c a8 d1 bf b9 0c 80 bd 4c 1c 4d bf 94 8c fc be
       -1.6379542 -0.06252427 -0.801213 -0.49326003
0000e0 a4 ae 0e 3f 1e 60 b6 be 7a 3a 16 3e 67 ff 12 bf
       0.5573523 -0.35620207 0.14670745 -0.57420963
0000f0 fb 0f ad 3f e2 b7 a1 bf 60 d8 35 3e 2c eb f8 3e
       1.3520502 -1.2634242 0.17758322 0.48616922
000100 31 92 c4 3f fd fc b6 bf 88 ca 6c 3d 30 60 32 3f
       1.5357114 -1.4295956 0.057810336 0.6967802
000110 41 da 99 3f ca 84 96 bf 4e 16 b1 3f 73 a6 a4 be
       1.2019731 -1.1759274 1.3834932 -0.3215824
000120 38 6b 55 be 07 77 34 3f 1f c6 2b bf 27 8e 1f 3f
       -0.20841682 0.7049412 -0.67099184 0.6232628
000130 bd 9d da bf 2e 58 8c be 4c e1 8c bf fd 75 92 bf
       -1.7079388 -0.27411026 -1.1006255 -1.1442257
000140 9e a4 97 3f cd 5a 54 bd 94 c1 a6 3e 4c 39 33 bf
       1.1847112 -0.051844407 0.32569563 -0.70009303
000150 81 d4 a1 bd 71 13 00 c0 ee 34 b7 3f e5 d8 19 3e
       -0.0790186 -2.0011866 1.4313028 0.15024145
000160 38 52 0a 3e 94 94 0b bf e3 7a 33 bf 99 26 1c bf
       0.13507926 -0.5452359 -0.70109385 -0.60996395
000170 3d 8c 4f bf 3c 9b 2a 3e 9c 0a dc 3f 54 b5 4e 3e
       -0.8107336 0.1666078 1.7190738 0.20186359
000180 2b a8 70 be 19 df 9e be 4e a7 87 bf 35 6e f6 3f
       -0.23501651 -0.31029585 -1.0597932 1.9252383
000190 c6 c0 66 be a8 eb 04 3e a5 e5 7a bf 6c 3c 03 bf
       -0.22534475 0.1298052 -0.9800666 -0.5126407
0001a0 11 b5 90 bf 93 bb 02 bf 38 cc 46 3f 47 6d ab 3f
       -1.1305257 -0.51067466 0.77655363 1.3392724
0001b0 87 f2 32 3e 9a b8 7f bf ec 10 53 3e bb 6a 88 3f
       0.1747533 -0.99891055 0.20611924 1.0657572
0001c0 47 99 70 bf 9d a2 8d bf 3c 09 e9 bf aa b3 77 3c
       -0.9398388 -1.1065251 -1.8205943 0.015118519
0001d0 70 5d b6 3e a4 3d 0e bf de e3 74 bf 8b c3 ee 3f
       0.35618162 -0.55562806 -0.956602 1.8653425
0001e0 0f f4 eb 3e eb f5 57 bf 63 33 fc 3e 60 f1 98 3f
       0.4608464 -0.84359616 0.49257955 1.1948662
0001f0 28 4e b5 be 97 fa 6e bf 7c 08 88 bf 43 a6 dc bf
       -0.3541119 -0.9335112 -1.0627589 -1.7238239
000200 f9 ff cd be 7a bf 82 bf c3 c2 29 bf 7d 2c 96 bf
       -0.40234354 -1.0214684 -0.6631281 -1.1732327
000210 8a e1 bc be ec c8 22 bf 23 de 1a be c3 07 c6 3e
       -0.36890823 -0.6358783 -0.15123801 0.38677797
000220 95 1c 9d 3f 09 93 13 c0 7b aa 4f bf 91 d4 09 c0
       1.2274348 -2.3058493 -0.8111951 -2.153599
000230 05 4e 25 bf 07 e6 70 bd e4 6e bd bd 88 8e 1d 3f
       -0.64572173 -0.05881312 -0.09249666 0.6154561
000240 a8 ae 38 bf 8e c2 ca be d0 5a 1d 3e dc 8f 2a bf
       -0.72141504 -0.39601558 0.15366673 -0.6662576
000250 af f1 9b bf 23 d6 81 3f 06 94 a2 3d 93 f7 6b 3f
       -1.2183131 1.0143474 0.079383895 0.92174643
000260 fa 46 06 c0 d7 38 f7 3e 3b 7c 2a bf 8a 5c 7c be
       -2.098082 0.48285553 -0.6659581 -0.24644676
000270 fa 5a ea be 9f cd f6 bf db 9b 9c 3f cb 57 58 3f
       -0.45772535 -1.92815 1.2235063 0.8450896
000280 20 ab bf be 9f bb ea bf fb ee 0f bf 44 46 f5 3d
       -0.37435246 -1.8338507 -0.5622403 0.11976293
000290 56 0f e5 bd 34 d1 14 bf 44 4b c9 bf 19 8d 9a 3f
       -0.11184566 -0.5813172 -1.5726094 1.207431
0002a0 19 e3 02 3f 91 bd 41 be e4 25 df bf d1 e6 a2 be
       0.51127774 -0.1891997 -1.7433438 -0.31816724
0002b0 da 0a b4 3e d1 66 a9 3e bd 0a be bf cf ed 93 3f
       0.3516453 0.33086255 -1.4847027 1.1556948
0002c0 36 be bc bc 4c 2f 0d bf 05 f6 c4 3f a5 9c 7d bf
       -0.023039918 -0.55150294 1.5387579 -0.99067146
0002d0 59 eb bd bf 22 68 15 3f 39 06 87 be c0 13 1d 3f
       -1.4837447 0.5836202 -0.26371935 0.6135826
0002e0 31 cb b6 3e 6f d9 ab 3f 77 65 34 bf 82 9b 84 bf
       0.35701898 1.342573 -0.70467323 -1.0359957
0002f0 34 da 80 bf 66 60 26 3f ec 31 83 bf 43 bb 19 be
       -1.006659 0.6499084 -1.024961 -0.15012841
000300 5f 62 b7 bf ad a3 ac 3f b9 79 29 3e 24 60 1e be
       -1.4326895 1.348745 0.1655034 -0.15466362
000310 97 95 d1 be b0 e1 9b be 52 b7 bb 3f df 04 50 3f
       -0.4093444 -0.30445623 1.466532 0.8125743
000320 c8 b9 ee 3f a9 fe b4 bb de 27 3a bf ca 75 22 3f
       1.8650446 -0.005523522 -0.7271708 0.6346098
000330 7d 87 cf be 9c 2f cf bf 75 bb ba 3e ce 1c dd bf
       -0.40533057 -1.6186404 0.36471143 -1.7274415
000340 86 08 34 bf 01 d8 6a bf 4d 7c b1 3e 35 aa 2e 3f
       -0.70325506 -0.91735846 0.34665146 0.68228465
000350 26 2a 5b 3e 0e fb d6 3e dd 37 e3 3f 4b e9 8f 3f
       0.21402797 0.41988415 1.7751423 1.124307
000360 ae c4 1b be fc 5a 41 bf 94 44 bb 3e b7 7f 11 be
       -0.15211746 -0.75529456 0.36575758 -0.14208876
000370 3c a2 dd bf 69 60 a8 3f 6d 58 a7 3f d6 1f 47 bf
       -1.7315135 1.3154422 1.307386 -0.7778295
000380 01 e6 b3 bf 19 29 c2 3e 9f 60 9e 3f 94 a9 c8 bf
       -1.4054567 0.3792198 1.2373236 -1.5676751
000390 8f cb 4d 3e fb 10 a8 3f c4 7b 8f 3f f6 fe 3f bf
       0.20097183 1.3130182 1.1209645 -0.74998415
0003a0 c6 40 f7 3f 1a 16 0b bf 64 47 10 bc ac 77 83 40
       1.9316642 -0.543306 -0.008806083 4.1083584
0003b0 e3 f6 a5 be 90 dd 80 bb b9 10 52 3e c3 d8 1c be
       -0.32414922 -0.0039326623 0.20514192 -0.15317063
0003c0 49 5a ed be 4e 1b 8f 3e c0 c4 90 bf 85 c8 77 bf
       -0.46357945 0.2795052 -1.1310043 -0.96790344
0003d0 d3 5c 4d bf 5e b9 74 bf e5 07 fc 3e f4 76 a7 3f
       -0.80219764 -0.9559535 0.49224773 1.3083177
0003e0 2e 4b 67 3f 88 cd af be 46 65 c6 3e c4 70 3a 3f
       0.9034909 -0.34336495 0.3874914 0.72828317
0003f0 91 6a b3 bf 87 5f 01 bf 15 8a a3 3e 89 b1 a3 3f
       -1.4016896 -0.5053639 0.31941286 1.2788554

block1.0.block.0.bias f4 [64]
000000 39 e6 90 be 5a 5c a4 3d 90 88 5e 3e 29 6b 4d 3e
       -0.28300646 0.08025427 0.21731782 0.2006041
000010 7c 3f b2 3e d8 3f 92 3e 0b 7d 49 bf e6 cf 5d bf
       0.3481406 0.28564334 -0.78706425 -0.8664535
000020 64 77 01 be 2d b0 b4 be 6a 55 97 be 45 96 04 be
       -0.126432 -0.3529066 -0.29557353 -0.12947948
000030 9e 6e b8 3f ed 1f 86 be 83 1f 2c be 00 50 83 bd
       1.4408758 -0.26196232 -0.16808896 -0.06411743
000040 5c 6b 8c be 21 45 ec 3e 3c 0e f9 3e 89 d4 ac be
       -0.2742566 0.4614649 0.48643672 -0.337559
000050 88 87 8a 3e 9e 75 31 be 14 ac 22 3f 57 3c e6 3d
       0.27056527 -0.17330024 0.6354382 0.11241978
000060 23 3c 53 bd 5a 03 8f bf f5 1b 97 3e c7 9c 7b 3e
       -0.051571023 -1.1172898 0.29513517 0.24571525
000070 31 84 b8 be 50 48 2d bc e4 9d 03 bf 53 e8 59 be
       -0.36038354 -0.010576323 -0.51412797 -0.21280031
000080 30 9b ce bd 71 73 08 3e 5a 0a 46 bd ee 17 85 3e
       -0.100881934 0.13325287 -0.048349716 0.2599482
000090 fd b6 cb be d4 e7 2d be 38 c2 40 be 5d b6 d4 be
       -0.39788046 -0.16982967 -0.18824089 -0.41545382
0000a0 73 8d b7 bd 6f 0b 2c 3d 1c cb af 3e be 06 41 be
       -0.08962526 0.04200309 0.34334648 -0.18850228
0000b0 4d 4e 9a bd 1a db 9b 3c 54 13 09 bf 60 03 67 be
       -0.07534466 0.019025374 -0.5354512 -0.22559881
0000c0 12 2c 29 3e 65 f6 13 be 33 88 06 bf 9e 3c 89 bd
       0.16520718 -0.14449461 -0.52551574 -0.06701015
0000d0 31 6e a9 bd 67 72 09 be 0c 61 5d 3d e4 c1 cc be
       -0.082729705 -0.13422547 0.05404763 -0.39991677
0000e0 b6 e2 46 3f 97 a0 7a be 19 be 21 3d 76 e8 3a be
       0.77689683 -0.24475323 0.039487932 -0.1825274
0000f0 da a2 4e 3e df 6b 5a 3c ca d8 48 3e 01 a3 37 bf
       0.2017931 0.013331383 0.19613948 -0.717331

block1.0.block.1.weight f4 [64]
000000 5f 1d 9c 3f 02 9b 8f 3f 85 50 7b 3f 02 d2 7a 3f
       1.2196463 1.121918 0.9816974 0.97976696
000010 a6 96 ba 3e 2e 62 d9 3b bb d6 df 3f 36 8e 44 3f
       0.3644306 0.0066340184 1.7487406 0.76779497
000020 d8 23 d2 3f 06 6c dd 3f 77 a5 a5 3f e3 6b 0d 40
       1.6417189 1.7298591 1.2941121 2.20971
000030 a0 cf cf 3f 3d 6a 12 40 ac a1 15 3f fb 63 88 3f
       1.6235237 2.2877343 0.58449817 1.0655512
000040 c7 23 f4 3f cd a1 cd 3f 4e 89 c9 3f 6b fe 1b 40
       1.9073418 1.6065003 1.5745027 2.4374034
000050 91 a8 f1 3e 6b fe be 3f ba f1 9b 3f 6b 30 a6 3f
       0.47198918 1.4921392 1.2183144 1.2983526
000060 0e 64 cb 3f 72 0b 5a 3f 0d e8 7e 3f 29 d4 50 3f
       1.5889909 0.85173714 0.9957283 0.8157373
000070 a0 3d 79 3f 13 bc b7 3f d1 8c e0 3f 30 09 9a 3c
       0.9735966 1.4354271 1.7542974 0.018803209
000080 f8 ca 79 3f 0c ea 21 3e fe b5 9c 3f dc 55 08 40
       0.9757533 0.15811938 1.224304 2.1302404
000090 32 03 b6 3f aa a2 62 3f e3 a2 01 40 9a ed 39 3f
       1.4219725 0.88529456 2.0255668 0.72628176
0000a0 8c 5b 76 3f 69 ce 95 3f b8 d9 99 3f 98 08 8d 3f
       0.9623344 1.1703616 1.2019567 1.1018248
0000b0 13 54 e7 3d 56 b0 48 3f 86 aa 3c 40 5d c0 19 3f
       0.11295333 0.7839407 2.947908 0.6005915
0000c0 5d 2d 95 3f 55 46 2d 3f d8 b2 76 3f a3 9e b6 3f
       1.1654469 0.67685443 0.96366644 1.4267162
0000d0 0b 46 5a 3f a6 a9 96 3f 33 b2 fb 3f d1 da 4b 3f
       0.8526313 1.1770523 1.9663757 0.7963076
0000e0 10 ad d4 3f 22 a3 91 3f 29 1b ce 3f db 30 71 3f
       1.6615314 1.1377909 1.6102039 0.9421517
0000f0 ad 8a c9 3f d6 6a b5 3f 74 d2 00 3e 26 fa 80 3f
       1.5745445 1.4173229 0.12580281 1.0076339

block1.0.block.1.bias f4 [64]
000000 dd 69 69 bf cf 06 76 bf a3 d0 b1 bf cc fe 39 bf
       -0.9117716 -0.9610414 -1.3891796 -0.72654414
000010 16 bf 40 be 3c e6 f5 bd 3a 44 aa bf a3 21 d7 bf
       -0.18822894 -0.12006804 -1.3302071 -1.680714
000020 6a b5 eb be 8f db a0 bf d7 8e a4 be 09 7e ba bf
       -0.46036845 -1.2567004 -0.32140228 -1.4569713
000030 19 91 78 bf 95 b3 b5 bf b8 83 c2 be f9 f3 49 bd
       -0.970964 -1.4195429 -0.37991118 -0.049304936
000040 ad f2 38 3e d8 96 34 bf 66 c2 c5 be 15 2c 76 bf
       0.18061323 -0.7054267 -0.38624877 -0.96161014
000050 9c fe 4a 3f d5 81 f1 be 5a c4 0a c0 b7 39 e2 bf
       0.79294753 -0.47169366 -2.1682343 -1.7673863
000060 4b b8 6c bf 9e b1 c6 bf a8 98 db bf 2d 3b 25 bf
       -0.9246871 -1.5522954 -1.7155962 -0.6454342
000070 8c dd 31 bf 40 7f 9e bf 22 4e 57 bf 70 ed 31 be
       -0.6947868 -1.2382584 -0.84103596 -0.17375731
000080 95 b0 64 be 9a ce 10 bf 8d b7 94 bf 11 d1 32 c0
       -0.22332986 -0.5656525 -1.1618515 -2.7940104
000090 4a 39 bb bf 2d 36 71 bf 4b 9f 1c bf 24 7e d0 bf
       -1.4626858 -0.9422329 -0.6118056 -1.6288495
0000a0 bc 93 18 c0 2d 77 12 bf 85 40 0d c0 c8 78 62 bf
       -2.384017 -0.572131 -2.207063 -0.8846555
0000b0 5f 86 ed be 3a 58 02 bf 4b 0a 22 c0 a2 5c d1 bf
       -0.4639158 -0.50915873 -2.5318782 -1.6356394
0000c0 79 1a d4 bf 17 ea 98 bf a2 19 4b be 7a 65 fe bf
       -1.6570579 -1.1946439 -0.19833997 -1.9874718
0000d0 e6 09 15 bf f7 08 7b bf 0c a8 18 c0 d2 18 43 bc
       -0.5821823 -0.98060554 -2.3852568 -0.011907773
0000e0 54 f4 a9 be ba 28 ee bf 29 e6 43 3e ab d1 02 c0
       -0.3319422 -1.8606179 0.19130768 -2.044047
0000f0 59 99 f0 bf 8d 76 ff bf 4d 54 8d bf b8 84 61 be
       -1.8796798 -1.9958054 -1.1041352 -0.22023284

block1.0.block.1.running_mean f4 [64]
000000 22 0b ff 3e 2e ea 90 3f 0b f5 97 3f 5d f2 43 3f
       0.4981318 1.1321466 1.1871656 0.7654169
000010 10 23 e2 3f b6 3d 4e 40 69 79 ab 3e bb 17 46 c0
       1.766695 3.2225165 0.33491066 -3.0951984
000020 03 0c 0b 40 6f 4f 5a 3f b5 3f 80 3f 5f 87 3b bf
       2.1726081 0.85277456 1.0019442 -0.73253435
000030 02 66 83 40 88 c0 02 bf 43 fc c2 40 f6 7b 54 40
       4.106202 -0.5107503 6.0932937 3.320066
000040 8c 3a 10 40 12 96 45 40 b6 89 42 40 67 64 df be
       2.2535734 3.0872846 3.0396552 -0.43631288
000050 39 2e c7 3f b0 4d 6f 3f 77 31 aa bf 16 d9 80 bf
       1.5560981 0.93477917 -1.3296345 -1.0066249
000060 c7 cf dd 3f 8f 99 84 c0 a2 70 fb bf 45 91 00 bf
       1.7329034 -4.143745 -1.9643748 -0.50221664
000070 2e a2 ef 3e 9b 8c b0 3d 13 d5 98 3e a9 c3 58 40
       0.4680342 0.08620568 0.29850063 3.3869421
000080 8b fc 0b 40 53 30 88 40 4d f5 46 bf 9a 35 c9 bf
       2.187289 4.255899 -0.7771805 -1.5719483
000090 48 70 45 bf 3f be 08 3f 8b 7f ee 3f a3 5c 37 c0
       -0.7712445 0.5341529 1.8632673 -2.865029
0000a0 31 80 ab be 1f f3 1e 3f 8d 28 89 bf e2 b7 9a 3e
       -0.3349624 0.62089723 -1.07155 0.30218416
0000b0 02 df 0e 40 5a 2b e7 3f b8 84 c7 bf a4 f8 56 c0
       2.2323613 1.8060105 -1.5587378 -3.3589258
0000c0 42 43 20 c0 00 98 54 3e 58 8a 32 40 8b ac 8d bf
       -2.504105 0.20761108 2.7896938 -1.1068281
0000d0 72 4a dd 3f 1b 0c cf 3f f9 b4 c3 bf 23 a9 c2 3f
       1.7288344 1.6175569 -1.5289603 1.5207866
0000e0 4e b3 6b 40 03 00 cb bf 7e 83 1d 40 02 1e 9f bf
       3.682819 -1.5859379 2.4611506 -1.2431033
0000f0 31 1d 67 be b8 6d 8f c0 b0 d9 2e bf 42 02 f8 3f
       -0.2256973 -4.4821434 -0.68300915 1.9375689

block1.0.block.1.running_var f4 [64]
000000 9d 63 a9 3d 41 f6 41 3e cc 26 29 3f 3d 14 37 3f
       0.08270953 0.18941595 0.66074824 0.71515256
000010 e1 93 38 3f 21 cd 6d 3f 06 78 2c 3e 11 8e 13 3f
       0.72100645 0.92891127 0.1684266 0.5763865
000020 e0 7d 07 3f 10 c9 21 3e 91 7a f1 3e 0c a9 9a 3e
       0.52926445 0.15799356 0.47163823 0.30207098
000030 0b 1e 29 3f b6 2a 46 3e ce 30 61 40 bc 65 9b 3f
       0.66061467 0.1935223 3.5186038 1.2140422
000040 c6 9f 1f 3f 2b e5 3d 3f 4e 6b 1d 3f 42 9e 9d 3e
       0.6235317 0.7417781 0.6149186 0.30784804
000050 4f 78 0c 3f 6b 76 28 3e d9 b8 c0 3f 9f a8 a5 3f
       0.54871076 0.16451423 1.5056411 1.2942084
000060 27 af dd 3e 29 c8 7a 3f cb 2b b6 3f 18 d1 0a 3f
       0.43297693 0.9796167 1.4232115 0.542253
000070 ec ac 32 3e e7 04 1b 3d 6d c6 e6 3d d6 46 99 3f
       0.17448777 0.037846472 0.112683155 1.1974742
000080 04 8c 42 3f 0c e7 d0 3f b9 28 61 3e 45 00 70 3f
       0.75994897 1.632051 0.2198819 0.9375041
000090 34 1a a6 3e 9d 96 3c 3f 1c 01 d5 3e bd 01 41 3f
       0.32441866 0.7366732 0.4160241 0.7539328
0000a0 c8 11 bb 3e fc 88 f6 3d 15 50 19 3f b8 b3 1b 3e
       0.36537004 0.120378464 0.5988782 0.15205276
0000b0 f5 c2 03 3f 4b 42 d1 3e 35 89 c3 3e 6f aa 80 3f
       0.51469356 0.4087089 0.38190618 1.0052012
0000c0 4b 0e 10 40 63 8e c8 3e 56 cd 98 3f a2 74 1a 3f
       2.2508724 0.39171132 1.1937664 0.6033422
0000d0 f3 8e a0 3e 15 f3 a8 3e 41 84 8a 3f 5a 2e b1 3f
       0.31359062 0.32997957 1.0821611 1.384227
0000e0 f2 3f 6d 3f eb 33 54 3f d5 27 11 3f 3c 6b 0a 3f
       0.926757 0.8289172 0.56701404 0.54069877
0000f0 b7 a7 bd 3e 48 fa 60 40 70 08 16 3f b0 76 29 3f
       0.3704202 3.515276 0.58606625 0.6619673

block2.0.block.0.weight f4 [64, 64, 3, 3]
000000 65 41 cc 3f 2e bf 1c 3f 9d 60 9e 3f 31 da e1 3e
       1.5957457 0.6122922 1.2373234 0.4411178
000010 b9 a6 c5 bf 26 c8 92 3e 37 81 39 3f 88 7a 05 3f
       -1.5441505 0.28668326 0.7246279 0.5214009
000020 71 f4 f4 bf ac dd c7 3e dd af fe 3e f6 26 0b bf
       -1.9137098 0.3903631 0.49743548 -0.54356325
000030 d3 2e e1 3e 10 33 9a bf ac 92 5e be a7 9d 4f 3f
       0.43981037 -1.2046833 -0.21735638 0.81099933
000040 15 26 4a bf 1d f6 b8 bf 2a 5c a8 bf 32 36 5d 3f
       -0.7896436 -1.4450108 -1.3153126 0.8641082
000050 4b d9 81 bf 93 13 fa 3d 89 8e 8c 3e 91 e1 e9 3e
       -1.0144438 0.12210765 0.27452496 0.45679906
000060 30 a9 25 bf 36 84 3b 3e f6 f4 5d 3e c1 86 83 3f
       -0.64711285 0.18312153 0.21675476 1.0275499
000070 b6 da d7 3f df 1f 15 c0 bf 19 b7 be dd 97 ff 3f
       1.686362 -2.3300703 -0.3576183 1.996822
000080 5b d9 a2 bf 3e 44 3e bf c6 4f 38 40 25 99 36 be
       -1.2722582 -0.7432288 2.879869 -0.17831858
000090 41 09 88 bf 6f 6a 0e bf b1 9a 77 bf 00 85 85 bf
       -1.0627824 -0.55631155 -0.96720415 -1.0431213
0000a0 62 b7 45 bf 0d de aa bf c8 85 ec bd 10 03 7d 3f
       -0.77232945 -1.3349015 -0.11548954 0.988328
0000b0 d5 47 ac be a2 76 72 3e 0d dd 1d 3f 68 d7 fe be
       -0.33648553 0.23678067 0.6166542 -0.49773717
0000c0 dc 97 10 3f 83 31 63 3f 11 30 89 bd 50 eb 80 3f
       0.5648172 0.88747424 -0.06698621 1.0071812
0000d0 dc ba 17 3e 79 e9 a9 3c d4 71 c9 be d3 72 75 bc
       0.14817375 0.020741211 -0.39344656 -0.0149809895
0000e0 45 b6 54 bf 49 69 0e bf f0 8e d3 3e 18 ea 34 bf
       -0.8309062 -0.556294 0.4131999 -0.706697
0000f0 12 ee 28 3f 44 45 2d 3f b9 a9 4a bf b2 eb 15 3f
       0.65988266 0.67683816 -0.79165226 0.5856277
000100 c2 db 92 bf 4a 8d d4 3e 9f b9 62 bf 39 f1 ca be
       -1.1473315 0.41514045 -0.88564485 -0.39637163
000110 df 5e 09 bf 39 27 1e 3e e6 bd 71 3f 38 64 f7 3f
       -0.53660387 0.1544465 0.9443039 1.9327459
000120 93 ec 93 3e f2 a7 11 40 21 09 1e 3e 9a a6 11 3f
       0.2889143 2.2758756 0.1543317 0.5689484
000130 6b 92 96 bf e7 63 b5 bf e9 fc 1f 40 9a 2b e7 bf
       -1.1763433 -1.4171113 2.4998114 -1.8060181
000140 d3 80 87 bf 4f 0d cb 3f f0 c0 47 b9 a9 ce 51 be
       -1.0586189 1.5863436 -0.00019049994 -0.20488991
000150 76 aa 3e 3f c5 2a 76 3e e5 b2 98 bf 0e a2 69 bf
       0.7447885 0.24039753 -1.1929594 -0.912629
000160 70 ae 2b bd b3 43 52 c0 ea 5a 10 3e b0 d1 84 bf
       -0.041914403 -3.285382 0.14097181 -1.0376492
000170 90 27 e7 bf da 24 16 be fc 6a 9d 3f 5b fc 8f bf
       -1.8058949 -0.14662495 1.2298274 -1.1248888
000180 38 16 49 3e 17 e4 0c 3f 85 b9 c2 bf bb 9c d2 be
       0.19637382 0.5503554 -1.5212866 -0.411352
000190 46 a2 91 bf f9 2f 1f 3f 4f 67 f8 3f 8b 12 20 3f
       -1.1377647 0.62182575 1.9406527 0.62528294
0001a0 27 86 f8 3e 49 28 df 3e 59 65 38 bf de e9 ec be
       0.4853985 0.43585423 -0.72029644 -0.46272177
0001b0 3c 17 12 bd 9f 8f e0 3f b9 e0 7c 3f 19 29 72 be
       -0.03566669 1.754383 0.987804 -0.2364849
0001c0 1a 41 2f 3f 37 8f a0 bf ab fa ab 3f 67 58 83 c0
       0.6845871 -1.2543706 1.3435873 -4.1045413
0001d0 4a e8 90 bf 95 6c 90 bf 77 72 87 3f ed 5a a8 3e
       -1.1320889 -1.1283137 1.0581807 0.3288187
0001e0 4b a0 a9 bf 70 d0 53 3e 61 60 f6 3e c1 66 13 c0
       -1.3252043 0.20684981 0.48120406 -2.3031466
0001f0 89 03 3f 3f df 77 1a c0 03 a0 91 3f be 74 60 3f
       0.7461477 -2.4135664 1.1376957 0.87678134
000200 08 16 d6 bf 6c 50 11 3f 20 f9 84 3f 69 76 6c bf
       -1.6725473 0.5676334 1.0388527 -0.9236818
000210 63 dc d8 bd 56 20 10 3f fa 30 5e bf 91 3c 20 3e
       -0.105889104 0.5629934 -0.8679348 0.15648104
000220 b6 81 d6 bf 37 f1 42 bf 35 7b d2 3f bb f2 b8 3f
       -1.6758335 -0.76149315 1.644385 1.4449075
000230 87 85 ae bf c4 d5 e4 3f 00 c5 1b bc 1b e1 eb be
       -1.3634499 1.7877736 -0.009507418 -0.4607018
000240 7b 7f e1 be 75 c6 a9 3f 1c f1 03 c0 2c 5d e7 bd
       -0.44042572 1.3263689 -2.0615911 -0.11297068
000250 f3 c9 f6 3f 8d 20 a6 be 8b 2b f9 3f 4f d6 00 40
       1.928038 -0.3244671 1.9466413 2.0130804
000260 3b 3d 84 bf 16 17 e1 3f d2 96 ba 3f bf 47 1a c0
       -1.0331186 1.758517 1.4577277 -2.410629
000270 bf 12 66 3d 2c cd 52 3f ab 75 42 bf f3 0d d5 bf
       0.05617022 0.8234432 -0.759608 -1.6644882
000280 71 28 8a 3f 8b 3a 90 bf b9 58 f1 3f d4 ea a9 3f
       1.0793592 -1.1267866 1.8855201 1.3274789
000290 c3 a5 ff bf 36 c3 93 bf c0 7d 29 3e 87 6e 61 bf
       -1.9972461 -1.1543949 0.16551876 -0.88059276
0002a0 36 dd ca bf b6 9e dc 3f 0f 31 37 bf 38 10 3b 3f
       -1.5848758 1.7235935 -0.7155923 0.7307162
0002b0 a1 2e 21 c0 f6 d9 73 3f 05 7f 07 be 86 94 d2 bf
       -2.518471 0.95254457 -0.13232048 -1.6451576
0002c0 3a bf 6d 3f 71 e7 16 3f 4b be 38 bf cc 3a 1f 3e
       0.92869914 0.589469 -0.72165364 0.15549773
0002d0 63 9c 92 bd 5b 94 cd be 03 ad 47 bf 0a 00 4c 3f
       -0.07158735 -0.4015225 -0.7799837 0.7968756
0002e0 b0 72 0a 3f 3d 8d c9 3e 76 b5 a4 be 64 b4 c4 bf
       0.5408125 0.3936557 -0.32169694 -1.5367551
0002f0 b7 24 8a bf a2 e0 9b 3e da fb f1 bf 6d 19 6e be
       -1.0792454 0.3044482 -1.8904984 -0.23251887
000300 e7 2f 90 bf b1 24 26 40 ac 98 ab bf 61 31 88 3f
       -1.1264619 2.5959895 -1.3405967 1.0640069
000310 6f 2e 8f bf 39 96 d1 bf 31 be 6d 3f e8 ee 5e 3e
       -1.1186045 -1.6373969 0.92868334 0.21770823
000320 64 b0 c7 3e 86 48 d2 bd c8 f7 81 bf 40 db cd bd
       0.39001763 -0.10267739 -1.0153742 -0.10051584
000330 4e 83 90 3f 6c 7b ba be 4e 2f 3b 3f 51 67 e5 bf
       1.1290071 -0.36422288 0.73119056 -1.7922155
000340 55 0a ea bf 6e 8e 45 bd d5 4e ae bf 10 df f9 bf
       -1.8284403 -0.048231535 -1.3617808 -1.9521198
000350 f8 bd 05 be 1c 96 8f 3e 1e d5 fe bd 07 09 47 bf
       -0.13060749 0.28044212 -0.12442993 -0.7774815
000360 42 9e 7d 3f ee 91 f8 3f 5f 9c 18 c0 b8 53 33 3b
       0.9906961 1.9419534 -2.3845441 0.0027363133
000370 13 93 99 be 7d 31 98 be 08 8d a5 bf 6e 53 71 3f
       -0.2999502 -0.29725257 -1.2933664 0.9426793
000380 a8 a9 b7 bf 32 6a ed 3e 6f 93 99 bf 40 ce d4 3c
       -1.434865 0.46370083 -1.1998118 0.025977254
000390 ba 3d 85 bf 91 6c 2a bf a4 96 12 bf bb ea f7 3d
       -1.0409462 -0.6657191 -0.5726111 0.12105318
0003a0 ca 08 48 3f df ef c2 3f 28 aa 55 3f b9 7f 4d bf
       0.7813841 1.5229453 0.8346276 -0.80273014
0003b0 59 f2 80 3f 7f da df bf 18 ce 6f bf 30 45 02 be
       1.0073959 -1.7488555 -0.9367385 -0.12721705
0003c0 07 b9 ee bd 5c c9 b3 3f 7a fa ba 3f 32 b7 37 bf
       -0.11656385 1.4045825 1.4607689 -0.7176391
0003d0 1a 71 a6 bf 66 c5 50 be 04 88 1e bf 34 f1 88 bf
       -1.3003266 -0.20387802 -0.61926293 -1.0698609
0003e0 59 a8 3b bf e3 83 10 3f f0 6e 82 bf 1e e6 8b bf
       -0.73303753 0.56451243 -1.0190105 -1.0929601
0003f0 c7 54 67 be 2c d7 95 bf a4 33 a2 be 14 f5 1a bf
       -0.22590934 -1.170629 -0.31680024 -0.6053021

block2.0.block.0.bias f4 [64]
000000 b8 1c 36 bc fb 6d 14 3c 49 ff ac 3a 2b 9a 25 3d
       -0.0111152455 0.0090594245 0.001319864 0.04043023
000010 c4 0e f7 bc aa d6 53 3c 89 3c 8c 3b ec 31 d3 3b
       -0.030158408 0.012929598 0.0042796773 0.00644516
000020 9a e5 c9 3c 75 98 89 bc 08 d4 3c bc c4 bd b2 ba
       0.024645615 -0.01679633 -0.011525162 -0.0013636877
000030 49 ca 47 3d a4 b3 5d 3c 58 37 49 3c d2 db fb bc
       0.0487769 0.013531599 0.012281261 -0.030744467
000040 ac 76 0c bc 8b e1 84 bc d2 ba 4e 3c d4 a8 ac bc
       -0.008573215 -0.016220829 0.012617784 -0.021076597
000050 7c d5 1a 3c aa 13 b0 3c 3b bf 22 3d 52 0d 0e 3c
       0.009450313 0.021493752 0.039733153 0.008670168
000060 23 d7 26 bd 6a 0a 35 3d 97 a5 9e bc 70 30 a5 3b
       -0.040732514 0.044199385 -0.019366069 0.0050411746
000070 26 3e d4 bc 2f 19 b1 3c 0e 5f 88 bc b6 52 a7 bc
       -0.025908541 0.021618454 -0.016646888 -0.020425182
000080 31 be 9d 3b ac 34 cd bc 92 42 97 bc e4 99 b6 3b
       0.0048139323 -0.02504953 -0.01846436 0.0055725444
000090 9a 8e f5 bc df e8 dc bb 2a d6 c9 3c 27 c8 ad bb
       -0.029975224 -0.0067416276 0.024638254 -0.005303401
0000a0 de 37 94 bc db ec d0 3b ec e6 f7 3c 8d 0a 42 bd
       -0.018093046 0.0063758916 0.03026148 -0.047373343
0000b0 48 e9 aa bc 70 e8 b5 bc 77 a0 98 bc 60 7b b8 3c
       -0.02086319 -0.022205561 -0.018631203 0.022519767
0000c0 70 33 b1 bc ed c4 cf 3c 8a 9c ee bc 61 99 bd 3b
       -0.021630973 0.025362456 -0.029127378 0.0057861065
0000d0 21 5c 98 3c a8 3c b5 3c 85 0d 0b bd 8a b9 06 3d
       0.018598618 0.02212365 -0.03394844 0.032891788
0000e0 2d c7 fc bc de bb 8a bc 30 96 4d 3d 7f 47 0f 3d
       -0.030856693 -0.016935285 0.050192058 0.034980293
0000f0 de 66 a8 3c 21 54 27 3b 82 57 43 bb a3 dc a0 bc
       0.020556863 0.0025532322 -0.0029806797 -0.019636458

block2.0.block.1.weight f4 [64]
000000 1e fc d9 3f e8 a1 e5 3f 63 d6 b6 3f e1 ee 12 40
       1.7030065 1.7940035 1.4284176 2.29583
000010 be ae 71 3f 00 09 d7 3f 00 41 21 40 d6 45 d0 3f
       0.9440726 1.6799622 2.5195923 1.6271312
000020 a3 fb 96 3f df b4 c0 3f b2 21 e7 3f 74 02 ed 3f
       1.1795543 1.5055197 1.8057158 1.8516374
000030 91 68 d6 3f f6 e0 dd 3f 7a 65 fa 3d a7 85 ff 3f
       1.6750661 1.7334278 0.12226386 1.9962662
000040 8e 97 d1 3f 6c 3e 9e 3f a5 76 90 3f 71 63 8c 3f
       1.6374376 1.23628 1.1286207 1.0967847
000050 53 0b 04 3f 35 94 e5 3f 3b bb ee 3f 50 f0 12 3f
       0.5157978 1.7935854 1.8650888 0.5739794
000060 c6 50 99 3f 1e 1f 2f 40 21 ca c9 3f 1b 3c 6d 3f
       1.1977775 2.7362742 1.576481 0.9266984
000070 4e 6e a0 3f c0 72 35 3f 55 cb 84 3f 61 13 ba 3f
       1.2533662 0.7087822 1.0374552 1.4537164
000080 e9 fe a7 3f a8 c5 b9 3f 7a ed 73 3f 81 35 b4 3f
       1.3124667 1.4513445 0.95284235 1.4078828
000090 5f 4e e6 3f 1b 41 b8 3f 80 12 a6 3f 67 6f dc 3f
       1.7992667 1.4394869 1.2974396 1.7221497
0000a0 85 a6 af 3f 3a 5e b2 3f 89 f8 10 3f b4 cc e1 3f
       1.3722693 1.3935006 0.56629235 1.7640595
0000b0 00 6d 8a 3f af a9 de 3f 3f f6 18 40 fd 97 cb 3f
       1.0814514 1.7395533 2.3900297 1.5905758
0000c0 30 23 f9 3f 3e 09 d1 3f a4 71 90 3f 08 c5 fa 3f
       1.9463863 1.6330945 1.128468 1.9591379
0000d0 47 a1 6e 3f dc ce e4 3f 63 9d c3 3f 54 9c 29 3f
       0.9321484 1.7875628 1.5282406 0.6625416
0000e0 0b 55 b7 3f 7a c9 a9 3f e3 7a ca 3f 66 8d ab 3c
       1.4322828 1.3264611 1.5818752 0.020941447
0000f0 a4 07 eb 3f 35 ac 27 40 f8 8b ba 3f bb e7 b3 3f
       1.8361707 2.6198857 1.4573965 1.4055094

block2.0.block.1.bias f4 [64]
000000 f3 8e 41 bf 73 e4 5a bf 73 ec 31 bf 7b 13 e0 bf
       -0.7560875 -0.85504836 -0.6950142 -1.7505945
000010 3f cf 08 3d 94 e6 12 be 1f 9d 88 bf b8 ee 91 be
       0.03340077 -0.14345771 -1.067295 -0.2850244
000020 95 df 7c bf 1c 3d 9e bf dc 0a e7 be ca a0 d6 bf
       -0.9877866 -1.2362399 -0.45125473 -1.6767819
000030 b9 5c bf bf 82 87 12 c0 c7 d4 5b bf 85 e8 76 bf
       -1.4950172 -2.2895207 -0.8587155 -0.96448547
000040 8f 7f 9a be 0c 22 22 bf 64 73 de bf 9d 41 84 bf
       -0.30175444 -0.633332 -1.7378964 -1.0332524
000050 94 55 b8 3d b5 30 0c c0 99 e9 b8 bf 60 23 b9 bf
       0.09000698 -2.1904728 -1.4446288 -1.446392
000060 05 c2 c7 bf 30 7f 97 bf 3e 08 ca bf 00 26 12 bf
       -1.5606085 -1.183569 -1.5783765 -0.57089233
000070 2e 63 f7 bf 17 9c 42 bf bd 20 2e bf 0a 98 ab bf
       -1.9327142 -0.76019424 -0.68018705 -1.3405774
000080 69 03 f0 bf 35 b0 0d c0 41 0a 29 bd ee c2 75 bf
       -1.8751041 -2.2138798 -0.041269545 -0.96000564
000090 61 b0 dc bf f4 c7 a5 bf 2f 4c 9c bf 5c 2d 48 bf
       -1.7241327 -1.2951646 -1.2210749 -0.7819421
0000a0 f3 44 38 be 4d 83 6f bf 61 30 3f bf 22 bf 0b c0
       -0.17995052 -0.93559724 -0.74683195 -2.1835408
0000b0 85 4f 90 bf ba ac 0a c0 66 5e 6e 3e 15 8d 14 bf
       -1.1274267 -2.1667924 0.23278198 -0.58027774
0000c0 55 ff 03 be 58 eb 10 c0 57 be 93 bf 43 9c b5 bf
       -0.1289037 -2.2643642 -1.1542462 -1.4188312
0000d0 2b b0 c4 bf ec e6 93 bf 27 eb ca bf 17 2b 5a bf
       -1.5366262 -1.1554847 -1.5853013 -0.85222
0000e0 06 af d7 bc 44 73 0d c0 e5 31 d4 be 48 78 8c be
       -0.026328575 -2.2101603 -0.41444317 -0.27435517
0000f0 e1 25 9e bf be 06 35 bf bb a5 03 bf d2 86 68 bf
       -1.235531 -0.7071341 -0.5142476 -0.9083072

block2.0.block.1.running_mean f4 [64]
000000 ef d2 cf 3f ed 33 51 c1 72 e5 e5 41 c8 1b 9e 40
       1.6236247 -13.075177 28.737034 4.9408913
000010 fb d0 dd 41 93 18 f1 c1 c8 5b cf c1 75 27 1e c2
       27.727041 -30.137 -25.919815 -39.538532
000020 69 7e 53 c1 ad 54 3c 41 b4 ed 3c c2 b8 5f ef c1
       -13.218362 11.770673 -47.232132 -29.921738
000030 e4 59 1e 41 ab 5c 96 3f 18 31 1d c1 55 85 15 c2
       9.896946 1.174703 -9.824486 -37.380207
000040 09 b1 86 c2 f5 8d ca c1 c0 8c 1a 41 d3 9e 0a 42
       -67.34577 -25.319315 9.659363 34.6551
000050 fc 9a f3 41 12 5f e8 3e fa 90 de c0 bb 48 ed c0
       30.450676 0.45385033 -6.9551973 -7.415128
000060 ce 0f 39 40 10 de 16 c2 ab b5 e7 41 d3 b9 dc c1
       2.8915896 -37.716858 28.963705 -27.590734
000070 ed c7 f4 41 a4 a7 88 c1 38 5b 19 42 27 9a da bf
       30.59762 -17.081856 38.33908 -1.7078294
000080 ac 43 60 42 70 52 89 bf e6 14 ca c1 f9 b9 5c c1
       56.066086 -1.0728283 -25.260204 -13.7954035
000090 cb 18 bd 41 30 77 aa 41 a7 82 89 c1 5a 1b 96 c1
       23.637106 21.308197 -17.188795 -18.763355
0000a0 d9 9e de 40 49 e5 2a c1 a7 b4 1e 40 c9 fb d3 41
       6.9568906 -10.680978 2.4797761 26.497942
0000b0 01 25 a3 40 da fd 94 41 65 4d 87 41 60 00 58 c2
       5.098267 18.623951 16.91279 -54.000366
0000c0 72 4d a7 41 b7 4f 1f 41 eb 5c 06 c2 3d 9f 61 41
       20.912815 9.956962 -33.59074 14.101377
0000d0 98 e4 92 c0 73 a1 34 c2 0b 5b 54 41 6b 1a cf 41
       -4.5904045 -45.157665 13.272227 25.8879
0000e0 82 4c d5 41 2e 04 af 41 dd 8a f5 bd 10 b8 97 bf
       26.662357 21.87704 -0.11989377 -1.1853046
0000f0 ca f5 cf 40 2a f7 0e c1 35 60 a8 c1 d4 f0 77 41
       6.4987535 -8.935343 -21.046976 15.496296

block2.0.block.1.running_var f4 [64]
000000 d9 73 c3 44 58 92 0f 45 04 d0 d7 44 e6 d6 a8 44
       1563.6202 2297.1465 1726.5005 1350.7156
000010 84 1a ba 44 32 50 dd 44 f6 5d a5 44 e0 bc 36 45
       1488.8286 1770.5061 1322.9363 2923.8047
000020 1a ad 5b 44 06 7d 19 45 cc b2 94 45 5b 17 7f 44
       878.7047 2455.814 4758.3496 1020.3649
000030 f3 f2 3e 45 8a e2 54 44 15 7c fc 43 db 57 6b 44
       3055.1843 851.5397 504.9694 941.37274
000040 09 95 a2 45 a2 36 15 45 b4 cb 0e 45 f4 f9 85 44
       5202.6294 2387.4146 2284.7314 1071.811
000050 34 79 ca 44 fd 87 83 44 bb 5c 0b 45 55 20 8d 44
       1619.7876 1052.2496 2229.7957 1129.0104
000060 f1 65 04 45 68 a0 ce 44 8e 18 a9 44 6a 3e 73 45
       2118.3713 1653.0127 1352.7673 3891.901
000070 26 ee c4 44 c5 8c b6 44 3a 60 c2 44 53 f8 e5 44
       1575.4421 1460.399 1555.0071 1839.7601
000080 3c 33 0a 45 9f f6 50 44 2c 16 18 45 04 7e fb 44
       2211.2021 835.85345 2433.3857 2011.938
000090 5f 44 32 45 93 04 04 45 f1 eb 52 44 11 ff de 44
       2852.2732 2112.286 843.6866 1783.9708
0000a0 c7 1c 8d 44 6d 3b 1d 45 ca fb f9 44 99 42 21 45
       1128.8993 2515.714 1999.8684 2580.1624
0000b0 34 64 11 45 d4 02 20 45 09 7e 9f 44 02 ab de 45
       2326.2627 2560.1768 1275.9386 7125.376
0000c0 d0 9d 0c 45 14 c8 b9 44 c7 b6 14 45 8c 16 cd 44
       2249.8633 1486.2524 2379.4236 1640.7046
0000d0 c4 ea d6 44 47 22 ad 44 aa 34 31 44 7b ee d7 44
       1719.3364 1385.0712 708.8229 1727.4525
0000e0 16 1d d4 44 6d 28 b9 44 e1 f2 06 45 c0 c9 be 44
       1696.9089 1481.2633 2159.18 1526.3047
0000f0 55 11 4e 45 a7 96 97 44 81 4e 44 45 21 b3 b9 44
       3297.0833 1212.7079 3140.9065 1485.5978

block3.block.0.weight f4 [64, 64, 3, 3]
000000 40 04 13 c0 e0 9d 01 40 71 b3 c8 bf de c3 aa be
       -2.2971344 2.025261 -1.5679761 -0.3335256
000010 fb 55 9e be c2 83 5f 3e 92 0c 9f bf 30 46 c0 be
       -0.30924973 0.21827605 -1.2425711 -0.3755355
000020 7c 8e e1 3e 49 6c 23 bf f3 2d a1 bf 63 2b 3d bf
       0.4405402 -0.63837105 -1.2592148 -0.7389433
000030 43 d0 88 bf 0f 7c 84 bf 4a 62 db bf 1f 80 b2 3f
       -1.0688556 -1.035036 -1.713937 1.394535
000040 61 4b a0 bf 91 24 01 bf a3 69 77 be 86 80 28 bf
       -1.2523004 -0.5044642 -0.24161391 -0.6582111
000050 f5 70 8c 3f 2d 63 9a 3f 7e 7b 03 bf c8 5c 01 be
       1.0971972 1.2061516 -0.5136031 -0.1263305
000060 02 f3 83 bf ef 83 32 bf 06 9b f7 be 92 54 1d bf
       -1.0308535 -0.69732565 -0.4836046 -0.6145717
000070 3f aa 54 bf de 89 d4 3e d1 c1 d2 3f fc f0 6e bd
       -0.83072275 0.41511434 1.6465398 -0.05833529
000080 9f ac 55 3f 9e 7b ed 3d ad c0 8d bf cf e0 02 c0
       0.83466524 0.11595844 -1.1074425 -2.0449712
000090 e7 2e f9 bd 5f e0 12 c0 e7 7d bf bf 80 35 50 3d
       -0.12167149 -2.2949445 -1.4960297 0.05083227
0000a0 55 69 a5 bf 9a 76 b6 bf 83 57 87 be 1c 33 97 be
       -1.292277 -1.4254944 -0.26433954 -0.2953118
0000b0 f1 52 45 bf 59 51 07 3f 6b 8f 84 3f db cc 6b bf
       -0.77079684 0.528585 1.0356268 -0.9210946
0000c0 d2 03 f1 3f dc b6 64 bf b0 ae d1 be 2e 56 6a 3f
       1.8829291 -0.8934152 -0.40953588 0.9153775
0000d0 e8 7c c0 be 55 aa 81 bf 97 3c 87 3f 60 ad b7 bd
       -0.37595296 -1.0130106 1.0565366 -0.089686155
0000e0 b4 c4 18 bf 2d 54 89 bf ed a7 81 be 49 b0 03 c0
       -0.59675145 -1.0728813 -0.2532343 -2.0576346
0000f0 dd cb 50 3f 91 43 39 bf 09 07 b0 bf db 38 ac 3f
       0.8156107 -0.72368723 -1.3752147 1.3454851
000100 18 8b ee be ea c2 94 bf 0b f1 76 3f 00 bf 35 3e
       -0.46590495 -1.1621983 0.9646155 0.17748642
000110 08 5f a2 bf 01 af 85 3e 40 d5 44 3e b2 87 27 3d
       -1.2685251 0.2611008 0.19221973 0.040900894
000120 22 db 6d be bf 1d 9a 3e a4 d2 e2 3f 2b 1e 96 3f
       -0.23228124 0.3010082 1.7720532 1.1727957
000130 09 2b b0 bf bb 1c 2e 3f 3f e6 c8 be 13 d4 93 bf
       -1.3763133 0.6801259 -0.39238164 -1.1549095
000140 3f 67 1a 3f 7d bd f2 3e 3d e1 08 c0 98 af a7 bf
       0.6031379 0.47410193 -2.1387475 -1.3100462
000150 2d a4 de 3f f6 5a e2 bf b0 3c 1b be d5 da 18 bf
       1.7393852 -1.7684009 -0.15159869 -0.5970891
000160 e1 0f 9c 3e 6a 92 ba bf 0c f7 70 3f ed e9 9d 3e
       0.30480865 -1.4575932 0.94126964 0.30842534
000170 6c 25 d2 bf 40 41 8a be b3 20 1d 3f 22 16 8e bf
       -1.641767 -0.27002907 0.6137802 -1.1100504
000180 e9 65 c1 3f 73 21 7e 3e ef 95 96 bf 71 44 0b 40
       1.5109226 0.24817447 -1.1764506 2.1760523
000190 80 9d c1 3e e0 b2 26 3f f6 b5 45 3f 15 cc 04 40
       0.37815475 0.6511669 0.77230775 2.0749562
0001a0 7b 68 ad 3f ee 9b 11 be 35 e3 17 bd 79 e8 ca 3e
       1.354751 -0.14219639 -0.037081916 0.39630488
0001b0 96 8d 03 3f a5 d4 eb bf 4f aa 68 3f 20 20 92 bf
       0.5138792 -1.8424269 0.9088487 -1.1416054
0001c0 23 fa 82 bf fb b0 a2 bf 20 67 c2 be cd a7 9d be
       -1.0232586 -1.271026 -0.37969303 -0.30792084
0001d0 88 da 8c bf df 01 10 40 7b f2 0c bf 38 fa 40 3f
       -1.100419 2.2501142 -0.55057496 0.75381804
0001e0 30 5f 88 3f 20 6f 97 3e f8 b0 21 be e9 a0 9f bf
       1.0654049 0.2957697 -0.15790164 -1.2470981
0001f0 69 1a 2f 3e 82 6a 99 bf 47 d8 8f bd 5a e1 a2 be
       0.17099918 -1.1985629 -0.070236735 -0.31812555
000200 25 5a ed bd 67 03 3a bd 04 eb ae be 09 d7 54 bd
       -0.11589459 -0.0454134 -0.34163678 -0.051962886
000210 a2 7e 1a be 2b ff f9 3d f8 26 15 be 8d 46 7b 3f
       -0.15087369 0.122068726 -0.14565647 0.98154527
000220 69 05 a2 3e 52 ef 5b bf 81 3c f3 3f c1 4a 40 be
       0.31644753 -0.8591205 1.9002839 -0.18778516
000230 30 b5 95 3f 83 a7 23 bf 21 b9 d2 be 8f ba 0b be
       1.1695919 -0.6392748 -0.41156867 -0.13645385
000240 55 58 03 c0 04 95 db 3e 78 6e 4a bf 2e 37 03 3e
       -2.0522664 0.42887127 -0.7907481 0.12814018
000250 5f 1b d2 3d cb 96 93 be 57 a3 24 be 60 eb 11 bf
       0.10259127 -0.28825983 -0.16077934 -0.5699978
000260 13 0a fc bf da cb eb 3f 57 83 d8 be ba 3b 08 c0
       -1.9690574 1.8421586 -0.42287704 -2.1286454
000270 30 74 c3 3e da 93 85 be 9b 54 b3 be e2 8a 64 bf
       0.38174582 -0.26089364 -0.35025486 -0.8927442
000280 61 c0 2c bf 81 45 6c bf 44 d7 f3 bf ac b4 0c c0
       -0.67481047 -0.92293555 -1.9050069 -2.1985273
000290 b2 8c e5 bf eb 0b 32 3f bc 2c 59 c0 0c b0 50 c0
       -1.7933562 0.69549435 -3.3933554 -3.260745
0002a0 d6 19 ed bc 65 89 10 bf f2 fa 89 bf 4e 8d 7e bf
       -0.028942984 -0.5645965 -1.0779707 -0.99434364
0002b0 51 e1 d1 be d5 e3 86 bf 68 34 27 bf 65 87 b0 be
       -0.40992215 -1.0538279 -0.6531434 -0.34478298
0002c0 b6 32 84 bf a0 04 5e bf 3a 1d 51 be 8b 92 6e bf
       -1.0327976 -0.8672581 -0.20421305 -0.93192357
0002d0 95 94 d1 be ca b5 16 be c2 6f db 3f 5f 9a 38 3f
       -0.40933672 -0.14717785 1.7143481 0.7211055
0002e0 a9 4a 60 bf f4 d4 3b 3e f5 41 be bf 5f ee 8d be
       -0.8761392 0.18342954 -1.4863878 -0.27720925
0002f0 e0 f6 b3 be 3e 56 bd 3f 1d a0 2e bf 66 06 e2 bf
       -0.35149288 1.4791944 -0.68213063 -1.7658203
000300 c0 92 84 3f c9 e5 83 3f ba 5d bf 3f b9 73 a0 bf
       1.0357285 1.03045 1.4950478 -1.2535316
000310 c4 38 77 bf ba 41 9d 3d 7f 99 7a 3a 99 d5 0d c0
       -0.9657099 0.07678552 0.0009559616 -2.216162
000320 41 c4 be 3e 36 76 6d bf 86 1b 83 3d 96 53 17 bf
       0.37259105 -0.927585 0.06401734 -0.59111917
000330 76 24 19 bf 97 57 b2 bf 45 34 08 3f db 3f e2 3f
       -0.5982126 -1.393298 0.53204757 1.7675737
000340 24 2a 31 bf 14 b9 9c bf f4 b8 ca 3f 8e 63 d3 bf
       -0.69204926 -1.2243981 1.5837693 -1.6514757
000350 76 b3 8c bf 61 a0 47 bf 9f a9 d3 be fa f7 8b be
       -1.0992267 -0.77979094 -0.41340348 -0.2733763
000360 62 38 bb bf 91 9e 35 bf 82 71 ab 3e 4c 0e 20 bf
       -1.4626582 -0.7094508 0.33485037 -0.62521815
000370 cf a4 05 bf da 38 9f 3e 65 c0 b2 be 62 04 92 bf
       -0.522046 0.31098062 -0.3491241 -1.1407588
000380 54 66 22 bf f8 39 b5 3c 11 b9 93 3e c4 1e a5 bf
       -0.6343739 0.022122368 0.28852132 -1.2900014
000390 6a f3 27 3e 9d d3 10 3e 2e b9 fe be b3 a8 1f 3e
       0.16401449 0.14143224 -0.49750656 0.15591697
0003a0 c1 5d 8e 3e e7 bd f2 be ba 17 39 be 3c da c9 bf
       0.27805904 -0.4741051 -0.18075457 -1.5769725
0003b0 73 3a 9f bf a2 e0 a2 3f e5 c5 72 bf fb 4b c0 bf
       -1.2439712 1.2724802 -0.94833213 -1.5023187
0003c0 15 1d f7 be 5d ee 54 3f d4 85 30 bf 43 a9 24 bf
       -0.48264375 0.83176214 -0.68954206 -0.6432077
0003d0 dd b2 63 3f f1 9e 4e bf ef 76 b1 3e 12 71 54 3f
       0.889448 -0.80711275 0.34661052 0.8298503
0003e0 e5 1f 4e be 20 2f f2 be 4e 2b d9 3f e8 b2 78 bf
       -0.20129354 -0.4730158 1.696634 -0.9714799
0003f0 8d 7e 61 be bd 4b 32 c0 d5 bf 0c c0 ff d7 83 3e
       -0.22020932 -2.7858727 -2.1992085 0.2575073

block3.block.0.bias f4 [64]
000000 e0 dc 00 bd 21 0c 7a 3b 52 f6 f3 3b 80 57 22 bd
       -0.031460643 0.0038154202 0.007445135 -0.039634228
000010 ed 16 4e 3c 43 70 84 3c 87 cf 06 3d b2 d3 03 3d
       0.012578708 0.016166812 0.032912757 0.03218431
000020 0e 73 02 b9 14 2b f0 3c 70 81 00 bd fe 99 70 3c
       -0.00012440627 0.029317416 -0.03137344 0.014685152
000030 d1 ae 02 bd e7 f0 bb 3b 4e 14 81 3b 36 74 e6 bc
       -0.031905 0.005735505 0.003939188 -0.028131586
000040 69 9c 13 3d 2e e4 88 3c 98 82 99 3b a4 a7 29 3c
       0.036037836 0.016710367 0.0046847574 0.01035491
000050 dc a4 2f bd c1 94 b8 3c d9 16 57 3c e6 f0 7e 3b
       -0.04288183 0.022531869 0.013128006 0.003890091
000060 eb 96 bb 3b 9a 4a e1 3c 60 4c 9a bc e3 01 66 bc
       0.005724778 0.027501393 -0.018835247 -0.014038536
000070 32 b5 2c bc af a4 e1 3c dd b2 2f bd dd 1b 67 3c
       -0.010541247 0.027544348 -0.042895187 0.014105764
000080 d4 27 00 3b 55 b6 05 3d ef a7 94 3c 36 88 ad 3c
       0.001955499 0.03264459 0.018146483 0.021183114
000090 00 1d 39 bc 4a cc 60 bc e7 e2 fb bc a4 ff af bc
       -0.011298418 -0.013720581 -0.030747844 -0.021484204
0000a0 6d 28 19 bd c3 a5 89 b9 f7 29 41 3d c4 18 a2 3c
       -0.03739207 -0.00026254178 0.04715916 0.0197872
0000b0 8e 12 19 3d 46 68 08 bd 61 2f 87 bc 72 35 96 bb
       0.03737121 -0.033302568 -0.016502084 -0.004584008
0000c0 a5 00 a3 3c 56 aa 94 3c 4d c3 ba 3c 62 13 9f bc
       0.019897768 0.018147629 0.022798205 -0.019418422
0000d0 aa 3e 07 3d 1c 85 29 bc a9 71 cd bc 7c 6c 17 bd
       0.033018745 -0.010346677 -0.025078611 -0.036968693
0000e0 c7 71 63 3b 55 3c 58 3c 52 c7 9a 3c 22 29 0d 3d
       0.0034705268 0.013197978 0.018893871 0.034463055
0000f0 0c 15 0d 3d bb bf 7e 3c 28 83 c7 3c 89 71 c8 bc
       0.0344439 0.015548642 0.024354532 -0.0244682

block3.block.1.weight f4 [64]
000000 f7 f3 b9 3f 63 e9 e2 3f f2 32 f0 3f c8 9f bc 3f
       1.4527577 1.7727474 1.8765547 1.4736261
000010 8f d7 01 40 f1 3b 75 3f b7 8e fb 3f 72 e4 10 40
       2.0287817 0.9579459 1.9652928 2.2639432
000020 0c 58 9c 3f bf 03 94 3f 68 1a 25 3e 97 04 68 3f
       1.221437 1.1563643 0.16123354 0.90632004
000030 05 28 b2 3f 0e 69 99 3f 44 cb f0 3f 4e 81 0d 40
       1.3918463 1.1985185 1.8812032 2.2110171
000040 cb 6c 18 40 15 6e be 3f 4c 05 63 3f a4 39 bc 3f
       2.3816402 1.4877344 0.8867996 1.470509
000050 ac 29 c2 3f 6e 5b 12 40 95 1e d2 3f 0f 1f f5 3f
       1.5168967 2.2868304 1.6415583 1.9150103
000060 3a 40 e7 3f cb d8 03 40 fd 02 bc 3f d0 fb 93 3f
       1.8066475 2.060107 1.4688412 1.1561222
000070 97 2d 55 3f 34 91 c5 3f 1e b0 9a 3f b8 40 c1 3f
       0.8327269 1.5434937 1.2084997 1.5097876
000080 18 f9 c5 3f c5 d8 84 3f 7a b8 0a 40 b4 20 ca 3d
       1.5466642 1.0378653 2.1675096 0.09869519
000090 5f 34 d3 3d 67 cf f8 3f 11 94 86 3f 59 fb c4 3f
       0.10312723 1.9438294 1.0513936 1.5389205
0000a0 c7 2f a7 3f 89 4d b9 3f 67 ec 94 3f 83 a6 05 40
       1.3061455 1.4476787 1.1634644 2.088288
0000b0 c9 68 b3 3f 6c e8 b2 3f 31 0d 0c 40 12 f5 c9 3f
       1.4016353 1.397718 2.1883051 1.5777915
0000c0 16 db e9 3f 22 dc db 3f d9 c8 0d 40 9b 89 bd 3e
       1.8269985 1.7176554 2.2153838 0.37019047
0000d0 a4 4c 9e 3f aa af bc 3f c4 72 a0 3f ec 47 76 3f
       1.2367139 1.4741108 1.2535024 0.96203494
0000e0 b9 6a 0f 40 56 f4 8c 3f 65 02 d7 3f 1c 1b d2 3f
       2.2408888 1.1012065 1.6797606 1.6414523
0000f0 77 b6 11 40 13 a1 96 3f 8d a8 cb 3f f4 66 51 3d
       2.2767618 1.1767906 1.5910813 0.051123574

block3.block.1.bias f4 [64]
000000 e1 e4 95 bf 0e 25 01 bf e5 44 99 bf 13 36 07 c0
       -1.1710473 -0.50447166 -1.197415 -2.1126754
000010 b9 51 39 be d6 8b 2d bf 31 15 35 bf 98 58 c1 bf
       -0.18097581 -0.677915 -0.7073546 -1.5105162
000020 45 7b e0 bf 4d 75 e4 be bd 18 53 bf 1c 58 4f bf
       -1.7537619 -0.44620743 -0.8245962 -0.8099382
000030 f8 23 00 c0 0a 03 86 bf 13 c8 fd bd 3c b1 7c bf
       -2.0021954 -1.0469677 -0.12391677 -0.9870794
000040 78 f3 96 bf 71 86 b9 bf 4d 8f ea be ff 10 68 bf
       -1.1793051 -1.4494153 -0.45812455 -0.90650934
000050 fe af a7 bf f3 74 f9 be be 17 3b bf b7 f5 39 bf
       -1.3100584 -0.48722038 -0.730831 -0.72640556
000060 fd 1b 43 bf c9 ff c2 bf 55 78 52 bf bc 46 b3 bf
       -0.7621458 -1.523431 -0.8221486 -1.4005961
000070 b3 72 72 bf a1 f7 c4 bf f0 1d 0b bf 24 00 5a bf
       -0.9470627 -1.538807 -0.54342556 -0.85156465
000080 c5 9f ba bf 15 8f 54 bf a2 84 a7 bf b1 ad 3f bf
       -1.4580008 -0.83030826 -1.3087351 -0.7487441
000090 70 8c 28 bf 65 8c 3b bf 5a 26 a1 be 71 a6 04 bf
       -0.6583929 -0.732611 -0.31474572 -0.5181647
0000a0 b7 d3 c5 bf 9a 6e c5 bf 40 af b2 be 86 b1 2e bf
       -1.5455235 -1.5424378 -0.3489933 -0.6823963
0000b0 6a 36 cf bf 2a 38 28 bf 81 7d 99 bf 1e 28 4b bf
       -1.6188481 -0.657107 -1.1991426 -0.7935809
0000c0 22 68 b5 bf c0 bb f0 bf 3f 04 3b bf c1 af 0d bf
       -1.4172404 -1.8807297 -0.73053354 -0.55346304
0000d0 d5 75 18 bf 1d 2f 4c bf 08 b1 a3 bf 90 3f 64 bf
       -0.595548 -0.7975939 -1.2788401 -0.8915949
0000e0 7e b2 b6 bf b2 03 a2 bf 5a 77 30 bf cc 27 6d bf
       -1.4273221 -1.2657378 -0.68932116 -0.9263885
0000f0 6c 77 8d bf 10 d4 96 bf 91 69 f0 be 18 c2 77 be
       -1.105207 -1.1783466 -0.4695554 -0.24195135

block3.block.1.running_mean f4 [64]
000000 2a 0b 58 c2 55 f0 82 41 e9 11 9e c1 0a 4d b5 41
       -54.010902 16.36735 -19.758745 22.662617
000010 a4 54 52 c2 1c ee 32 c1 99 05 aa c1 39 db 57 c2
       -52.582657 -11.183132 -21.252733 -53.964085
000020 42 39 a6 41 52 1f 87 41 69 ca cf c1 be 8a 2d 41
       20.777958 16.890293 -25.973833 10.846373
000030 b4 f2 88 41 71 7a 29 c1 ae b5 5f c1 b6 bf 97 c1
       17.118507 -10.592393 -13.981855 -18.968609
000040 3f ec 7c c1 9c 21 b3 40 50 97 1d c1 7b b5 00 41
       -15.807677 5.5978527 -9.849442 8.044307
000050 73 7c 0d c2 5e e7 0c c2 87 5a 2c 42 9d 41 24 c2
       -35.371532 -35.225945 43.088406 -41.064075
000060 83 e3 9c c2 f9 1c 2c c1 ce 60 66 41 24 e6 af c1
       -78.44436 -10.757073 14.398634 -21.987373
000070 05 d5 d0 bf aa 1d 7d c2 c6 5a 2f c1 1e 08 05 bf
       -1.6315008 -63.27897 -10.9596615 -0.5196551
000080 55 00 5e 41 7e 74 a0 41 0d 78 31 c2 c0 2e 04 42
       13.875081 20.05688 -44.367237 33.045654
000090 cf f7 a9 41 f0 e3 5b c2 39 a7 a7 41 33 55 f1 c1
       21.246 -54.972595 20.956652 -30.166601
0000a0 59 91 8b c0 94 4f 0c 42 39 4c f1 c1 8e 93 43 c2
       -4.3614926 35.077713 -30.162218 -48.894096
0000b0 59 bf 13 42 84 6c 99 41 dd 00 c5 41 18 7d 32 3f
       36.936863 19.177986 24.625422 0.6972213
0000c0 9f 7a 40 c2 7c 23 76 41 f9 85 89 c2 3b ab 3b 42
       -48.119747 15.383663 -68.761665 46.917217
0000d0 42 c1 d5 c1 28 02 43 c2 57 ec 1f c2 71 99 23 c1
       -26.719364 -48.752106 -39.9808 -10.224961
0000e0 31 7d 14 c2 d0 0a 40 c1 41 70 22 41 51 6f bc 41
       -37.122257 -12.00264 10.152406 23.554354
0000f0 e8 62 06 c2 5d aa 53 41 06 e9 9f c2 1f 2d 9b 41
       -33.59659 13.229093 -79.955124 19.397032

block3.block.1.running_var f4 [64]
000000 6a 12 fc 44 62 e0 29 45 cf bb 06 45 4b 83 95 44
       2016.5754 2718.024 2155.738 1196.1029
000010 7c b2 75 45 84 b4 b3 44 b4 91 0f 45 4a 59 11 45
       3931.1553 1437.6411 2297.1064 2325.5806
000020 55 a6 da 44 8b ba c7 44 4a 63 f2 44 85 8a fc 44
       1749.1979 1597.8295 1939.1028 2020.3287
000030 21 9c 1a 45 93 09 0d 45 ad c5 dc 44 c2 b1 30 45
       2473.758 2256.5984 1766.1774 2827.1099
000040 49 1f f6 44 44 a9 94 44 f8 85 d9 44 5f 75 1c 45
       1968.9777 1189.2896 1740.1865 2503.3357
000050 7f a1 02 45 53 4f cc 44 07 46 f1 44 39 81 70 45
       2090.0935 1634.4789 1930.1884 3848.0764
000060 db e3 a6 45 26 62 c1 44 26 ed a9 44 59 ad 03 45
       5340.482 1547.0671 1359.4109 2106.8342
000070 99 f2 cc 44 3c 70 e0 44 0d c1 c0 44 8d 38 06 45
       1639.5812 1795.5073 1542.0328 2147.5344
000080 ec 4f 26 45 a2 12 f4 44 88 1c 34 45 fe e4 99 44
       2660.995 1952.5823 2881.7832 1231.156
000090 a0 5d b6 44 24 e6 76 45 4d 83 03 45 7a 0f 40 45
       1458.9258 3950.3838 2104.2063 3072.9673
0000a0 d5 1c 6b 45 45 98 b6 44 b9 bf 12 45 4b 08 14 45
       3761.802 1460.7584 2347.9827 2368.5183
0000b0 77 f0 32 45 05 1b d0 44 37 5e 3c 45 22 02 bb 44
       2863.029 1664.8444 3013.8884 1496.0667
0000c0 5a 34 61 45 73 e3 11 45 40 f4 88 45 23 33 17 45
       3603.272 2334.2156 4382.5312 2419.196
0000d0 1e 4b 9d 44 f8 2b 26 45 f4 b9 47 45 96 16 0f 45
       1258.3474 2658.748 3195.622 2289.4116
0000e0 f3 c0 01 45 36 3e 23 45 5c dc 32 45 98 04 0c 45
       2076.0593 2611.8882 2861.7725 2240.287
0000f0 c9 c6 19 45 9b c0 e7 44 8b 14 93 45 9f 11 a1 44
       2460.424 1854.0189 4706.568 1288.5507
