checkpoints/relational_checkpoint.pth (torch, 920160 bytes, 39 tensors)

block1.0.block.0.weight f4 [64, 1, 3, 3]
0	0xbf414638	-0.7549777
1	0x3f605183	0.87624377
2	0xbabeaaa0	-0.00145467
3	0x3f5a5848	0.85290956
4	0xbecdafae	-0.40173095
5	0xbf61550a	-0.88020384
6	0xbed2585f	-0.41083047
7	0xbf8fe8dd	-1.1242939
8	0x3fa468b5	1.2844454
9	0xbf5e6905	-0.86879
10	0x3eb7a6f0	0.3586955
11	0x3ef63f04	0.48094952
12	0x3f985e8d	1.1903855
13	0xbf11bc55	-0.56927997
14	0xbeb0c32a	-0.34523898
15	0xbf89aa99	-1.0755187
16	0xbd8c3590	-0.06846154
17	0x3bb53daa	0.0055310326
18	0xbf3b4391	-0.73149973
19	0xbf4f85f7	-0.8106379
20	0x3fa9c56c	1.3263373
21	0xbfb9eea7	-1.4525956
22	0xbfc6861c	-1.5509677
23	0xbb9abb5e	-0.004722043
24	0x3eef4236	0.46730202
25	0x3f10dce5	0.5658706
26	0x3f2a9f6e	0.6664952
27	0xbe8501fd	-0.2597808
28	0x3f7cdc34	0.98773503
29	0xbf9128b9	-1.1340553
30	0x3eb459ea	0.3522485
31	0x3f42e75a	0.76134264
32	0xbf7ba088	-0.98291826
33	0x3f4b51de	0.79421794
34	0x3f2c84ff	0.67390436
35	0xbfa8a228	-1.3174486
36	0xbf6c673b	-0.9234502
37	0xbfa3b3bd	-1.2789227
38	0xbf795d89	-0.9740835
39	0x3f1a3c3e	0.6024817
40	0x3f3540e0	0.70802116
41	0xbf4f5206	-0.8098453
42	0x3f3995c5	0.72494155
43	0xbebf59e8	-0.3737328
44	0xbea53fa1	-0.32275108
45	0xbea8fbce	-0.33004612
46	0xbf219b97	-0.63128036
47	0xbe7dde8c	-0.24791926
48	0x3ea54d2f	0.3228545
49	0xbea89adf	-0.32930657
50	0x3eae68bf	0.3406429
51	0xbf520906	-0.8204502
52	0xbfd1a87c	-1.6379542
53	0xbd800cb9	-0.06252427
54	0xbf4ee9b3	-0.80825347
55	0xbebc7a86	-0.36812228
56	0x3f19dd83	0.60103625
57	0xbe7a115d	-0.24420686
58	0x3e89a1b9	0.26881197
59	0xbee042c3	-0.43800935
60	0x3fb323e8	1.3995333
61	0xbf945ea6	-1.1591384
62	0xbd1d2754	-0.038367584
63	0x3ec9489a	0.39313203
64	0x3fa51c7f	1.2899321
65	0xbf96988f	-1.1765307
66	0x3e018062	0.1264663
67	0x3f8bbe35	1.0917422
68	0x3fae0c78	1.3597555
69	0xbf977ab4	-1.1834321
70	0x3f974d64	1.1820493
71	0xbef6b5fc	-0.48185718
72	0x3d1d02c0	0.0383327
73	0x3f02be5c	0.51071715
74	0xbf705cec	-0.9389179
75	0x3f3350ff	0.70045465
76	0xbfd41129	-1.6567737
77	0xbec19572	-0.3780933
78	0xbf5cac58	-0.86200476
79	0xbf8bf8b9	-1.0935279
80	0x3f93790e	1.1521318
81	0xbd731846	-0.05934932
82	0x3eb4baa8	0.35298657
83	0xbef5da11	-0.48017934
84	0x3d0aef02	0.03391934
85	0xbfffd892	-1.9987967
86	0x3fafed5a	1.3744309
87	0x3e852135	0.26001897
88	0xbd651c57	-0.05593523
89	0xbf1dc68d	-0.6163109
90	0xbf50dda6	-0.8158821
91	0xbf46345f	-0.7742366
92	0xbf84eddc	-1.0385089
93	0x3d6e4223	0.05816854
94	0x3fbcce70	1.47505
95	0x3c918960	0.0177657
96	0xbe967089	-0.29382733
97	0xbec23786	-0.37932986
98	0xbf897c49	-1.0741054
99	0x3fea152c	1.8287711
100	0xbe5cd68a	-0.21566215
101	0xbc627694	-0.013822217
102	0xbf6054fc	-0.87629676
103	0xbee91c37	-0.4552934
104	0xbf8fb95a	-1.122844
105	0xbf13884b	-0.5762984
106	0x3f74278a	0.9537283
107	0x3f9fcdb8	1.2484655
108	0x3e4aaf2d	0.19793387
109	0xbf52e60e	-0.82382286
110	0x3e06da50	0.13169217
111	0x3f9b8ecf	1.2152957
112	0xbf51c898	-0.81946707
113	0xbf85df38	-1.0458746
114	0xbfc55cea	-1.541898
115	0x3e40130b	0.18757264
116	0x3ee50c98	0.4473617
117	0xbf0a8d05	-0.5412143
118	0xbf5c5d27	-0.8607964
119	0x3fe64d54	1.7992349
120	0x3ef9a3fa	0.48757917
121	0xbf2e88de	-0.6817759
122	0x3f2c742b	0.6736476
123	0x3f960f5f	1.1723441
124	0xbe53af32	-0.206723
125	0xbf780697	-0.96885055
126	0xbf4429d7	-0.7662634
127	0xbfc8096c	-1.5627875
128	0xbe787c76	-0.24266228
129	0xbf6ad7da	-0.91735613
130	0xbf450a2a	-0.76968634
131	0xbf96816d	-1.1758248
132	0xbdc949f1	-0.09828556
133	0xbf8c4f0e	-1.0961626
134	0xbe93f69a	-0.2889908
135	0x3e9c4338	0.30520034
136	0x3f89a1aa	1.0752461
137	0xc0177ddc	-2.3670568
138	0xbf3dcd85	-0.7414172
139	0xc007cd89	-2.1219199
140	0xbf335b31	-0.7006102
141	0x3c0c76f2	0.008573281
142	0xbe06ed61	-0.1317649
143	0x3f158c88	0.5841756
144	0xbf49b02c	-0.7878444
145	0xbefe6e50	-0.49693537
146	0x3e6ac44d	0.22926445
147	0xbf34310c	-0.7038734
148	0xbfb2dc17	-1.3973416
149	0x3f5de742	0.86680996
150	0x3c342764	0.01099572
151	0x3f504243	0.8135111
152	0xc000690f	-2.0064123
153	0x3e9e9af8	0.30977607
154	0xbf3a9e7e	-0.7289809
155	0xbdd3b8b2	-0.10337962
156	0xbee2bbf2	-0.44284016
157	0xbffdfeb6	-1.9843357
158	0x3f7aabdd	0.9791849
159	0x3f6116ee	0.8792561
160	0xbe2aea78	-0.16691005
161	0xbffb66dd	-1.9640766
162	0xbee8e34a	-0.45485908
163	0x3e40e55d	0.18837495
164	0x3d53a9bd	0.051675547
165	0xbe8761ab	-0.26441702
166	0xbfe4d60e	-1.7877824
167	0x3f807d8f	1.0038317
168	0x3f3bac77	0.73310035
169	0xbd7df4a5	-0.06200089
170	0xbfd5cb51	-1.6702672
171	0xbe869cba	-0.26291448
172	0x3eaf8645	0.34282127
173	0x3ea643cc	0.324736
174	0xbfa816ac	-1.3131919
175	0x3fa40b7c	1.2816005
176	0x3e13fd0d	0.14452
177	0xbf0342c1	-0.51273733
178	0x3fc183ec	1.5118384
179	0xbf70a260	-0.93997765
180	0xbf91a667	-1.1378907
181	0x3f73f5a2	0.9529668
182	0xbd63e441	-0.0556376
183	0x3f383cdc	0.71967864
184	0x3ee1afda	0.44079477
185	0x3fa8f544	1.3199849
186	0xbf19b48b	-0.6004111
187	0xbf7fe278	-0.9995494
188	0xbf63e7da	-0.8902565
189	0x3f2f13d9	0.6838966
190	0xbf99f0b7	-1.2026585
191	0xbdfcad4f	-0.123377435
192	0xbf92ed43	-1.1478657
193	0x3fa5d845	1.2956625
194	0x3c0e8014	0.008697528
195	0xbdc1fd11	-0.09472097
196	0xbec73ce5	-0.38913646
197	0xbe8a8545	-0.27054802
198	0x3fa27361	1.2691461
199	0x3f058866	0.5216125
200	0x3ffb3ec9	1.9628536
201	0xbdb97aae	-0.090566024
202	0xbf6ea2e4	-0.932173
203	0x3f3f523c	0.74734855
204	0xbea3ee0b	-0.3201755
205	0xbfaf501c	-1.3696322
206	0x3f325735	0.6966432
207	0xbfe7e013	-1.8115257
208	0xbf2e4733	-0.6807739
209	0xbf669003	-0.90063494
210	0x3ede52af	0.43422458
211	0x3f3bd224	0.73367524
212	0x3dfa2496	0.122140095
213	0x3e9b94bc	0.30386913
214	0x3fcbf4e7	1.5934113
215	0x3f773453	0.96564215
216	0xbe6c7654	-0.23092014
217	0xbf39e665	-0.7261718
218	0x3f0cd0d3	0.5500614
219	0xbda4ffe5	-0.080566205
220	0xbfd1adc5	-1.6381155
221	0x3f8cfabc	1.1014018
222	0x3f9a9ee1	1.2079736
223	0xbf67e6b3	-0.90586394
224	0xbfc4162b	-1.5319265
225	0x3ee57c04	0.4482118
226	0x3f85f782	1.0466158
227	0xbfbd5d97	-1.4794186
228	0x3eb97478	0.3622167
229	0x3fd3029e	1.6485174
230	0x3f96948f	1.1764086
231	0xbf422150	-0.7583208
232	0x3fdf2423	1.7432903
233	0xbeef2a9e	-0.46712202
234	0x3d920a5f	0.071308844
235	0x40804741	4.008698
236	0xbe2b60f7	-0.16736208
237	0xbe316f2b	-0.17327563
238	0x3efe63bb	0.49685463
239	0xbf007119	-0.50172573
240	0xbe9b1add	-0.30293933
241	0x3efe0193	0.49610576
242	0xbf49f6b2	-0.7889205
243	0xbf84c795	-1.0373408
244	0xbf12a0b1	-0.57276446
245	0xbf774f5d	-0.96605474
246	0x3ee0e46a	0.43924266
247	0x3fb7cbfb	1.4359125
248	0x3f5b740e	0.8572396
249	0xbf00cfe8	-0.5031724
250	0x3e78e9d9	0.24307956
251	0x3e265e3e	0.16246888
252	0xbf9701de	-1.1797445
253	0xbeb85255	-0.36000314
254	0x3e255912	0.16147259
255	0x3fa0b4dd	1.2555195

block1.0.block.0.bias f4 [64]
0	0xbe55a8b7	-0.20865141
1	0x3e0815a4	0.13289505
2	0x3e1dd163	0.15411906
3	0x3e87fd91	0.26560643
4	0x3e9fa940	0.31183815
5	0x3e923fd8	0.28564334
6	0xbf4c9daa	-0.79928076
7	0xbf1205ce	-0.5704011
8	0xbe195409	-0.14973463
9	0xbdc18a95	-0.094502605
10	0xbe5a2fcd	-0.21307297
11	0xbe465fde	-0.19372508
12	0x3fafeb65	1.3743712
13	0xbe2ae6f3	-0.16689663
14	0xbe2a67b5	-0.16641124
15	0xbcd6b7bc	-0.026210658
16	0xbe983543	-0.29728135
17	0x3eadb417	0.3392646
18	0x3f3af29d	0.7302645
19	0xbeb7caf7	-0.35897037
20	0x3e8b842f	0.27249286
21	0xbd8e1056	-0.069367096
22	0x3f19ed12	0.60127366
23	0x3cd7b7e3	0.026332801
24	0xbe357735	-0.17721255
25	0xbf93c80d	-1.1545426
26	0x3ea42599	0.32059935
27	0x3e76651a	0.24062005
28	0xbeb93fd5	-0.36181512
29	0x3e6b3510	0.2296946
30	0xbf25e4e6	-0.64802396
31	0xbe59e853	-0.21280031
32	0xbe0db644	-0.1383906
33	0x3e087371	0.13325287
34	0xbdbe15ae	-0.09281479
35	0x3d734452	0.059391327
36	0xbeadd33f	-0.3395023
37	0xbe2e29f1	-0.17008187
38	0xbecd1900	-0.40058136
39	0xbe9f913a	-0.31165487
40	0xbe323c19	-0.17405738
41	0x3de79779	0.11308188
42	0x3ebd085a	0.36920434
43	0xbe8ddd8f	-0.27708098
44	0xbd9a4e4d	-0.07534466
45	0x3d42fbd0	0.04760343
46	0xbf4e3a6d	-0.805579
47	0xbecdedb6	-0.40220422
48	0x3dd02804	0.101638824
49	0xbe0edc17	-0.13951145
50	0xbf05aead	-0.5221966
51	0xbe0fe5f4	-0.14052564
52	0xbd9b0d58	-0.075709045
53	0xbcd93eeb	-0.02651926
54	0x3dd34798	0.1031639
55	0xbec5c7a2	-0.3862887
56	0x3f435ee7	0.76316684
57	0xbe88eedf	-0.26744744
58	0x3b8eae2e	0.00435426
59	0xbe301d4e	-0.17198679
60	0x3e836ac7	0.25667402
61	0x3bd5cb32	0.006524467
62	0x3e48d8ca	0.19613948
63	0xbf109cda	-0.56489336

block1.0.block.1.weight f4 [64]
0	0x3f928c3f	1.144905
1	0x3f96fba7	1.1795548
2	0x3f6a4a9e	0.91520107
3	0x3f551fda	0.83251727
4	0x3ea3b29a	0.319722
5	0x3bd9622e	0.0066340184
6	0x3fe5afb5	1.7944247
7	0x3f4d3367	0.8015656
8	0x3fc3a494	1.52846
9	0x3fce6ced	1.6126992
10	0x3fa0c7b0	1.256094
11	0x401188ca	2.273974
12	0x3fddab7f	1.7317961
13	0x401cfb0b	2.4528224
14	0x3ebc2ad2	0.3675142
15	0x3f7a31c4	0.97732186
16	0x3ff0f1ed	1.882383
17	0x3fbfa611	1.4972554
18	0x3fbb161e	1.4616125
19	0x401fa171	2.4942286
20	0x3ed6573f	0.41863438
21	0x3fc02c63	1.5013546
22	0x3fa21e15	1.266543
23	0x3f9cedaa	1.2260029
24	0x3fc9ae83	1.5756382
25	0x3f6269f4	0.8844292
26	0x3f7883e1	0.9707623
27	0x3f2816be	0.656597
28	0x3f76c0eb	0.9638812
29	0x3fb5f182	1.4214327
30	0x3fb98044	1.4492269
31	0x3c9a0930	0.018803209
32	0x3f5a3024	0.85229707
33	0x3e21ea0c	0.15811938
34	0x3f9cabf0	1.2239971
35	0x40099617	2.1497858
36	0x3fb9f257	1.4527081
37	0x3f515c84	0.8178179
38	0x3ff3f7b7	1.9059972
39	0x3f45f208	0.77322435
40	0x3f5a24fa	0.8521267
41	0x3f943e87	1.1581582
42	0x3f9fef4e	1.2494905
43	0x3f5fe248	0.8745465
44	0x3de75413	0.11295333
45	0x3f4429b7	0.7662615
46	0x40425a5c	3.036765
47	0x3f3244ed	0.6963642
48	0x3f95e6ce	1.1711061
49	0x3f415534	0.75520635
50	0x3f6caba1	0.92449385
51	0x3fbaade0	1.4584312
52	0x3f2b3788	0.6688161
53	0x3f99ce89	1.2016155
54	0x3ffbf606	1.9684455
55	0x3f24f8df	0.6444225
56	0x3fd7c869	1.6858035
57	0x3f9ef496	1.2418392
58	0x3fbe1bd5	1.4852244
59	0x3f718925	0.9434989
60	0x3fdbc8a2	1.7170603
61	0x3fb3f96f	1.4060496
62	0x3e00d274	0.12580281
63	0x3f78abd8	0.9713721

block1.0.block.1.bias f4 [64]
0	0xbf061cba	-0.52387583
1	0xbf4660de	-0.7749156
2	0xbfa86de1	-1.3158532
3	0xbeea76e1	-0.45793822
4	0xbdb7e126	-0.089784905
5	0xbdf5e63c	-0.12006804
6	0xbf7843fa	-0.96978724
7	0xbfcb39ae	-1.5876977
8	0xbf0d7353	-0.55254096
9	0xbf6a0cf1	-0.91425997
10	0xbe9d7631	-0.30754235
11	0xbfa9e051	-1.3271581
12	0xbf358fd2	-0.7092258
13	0xbf9c25a0	-1.2198982
14	0xbed1284f	-0.40851066
15	0xbc9e4a46	-0.019322526
16	0x3e3ae83d	0.18252654
17	0xbf27b9f1	-0.655181
18	0xbed22a07	-0.4104769
19	0xbf3f5ff0	-0.74755764
20	0x3f52fabc	0.8241384
21	0xbf1769c7	-0.5914578
22	0xc0008cd2	-2.008595
23	0xbfe20356	-1.7657268
24	0xbf414bdf	-0.75506395
25	0xbfc2425e	-1.5176504
26	0xbfbc8ed5	-1.4731089
27	0xbeefd223	-0.4684001
28	0xbf2660e9	-0.64991623
29	0xbf7ca46b	-0.9868838
30	0xbf43b2a4	-0.7644446
31	0xbe31ed70	-0.17375731
32	0xbdf06671	-0.11738289
33	0xbf10ce9a	-0.5656525
34	0xbf99aa35	-1.2005068
35	0xc03370f9	-2.8037703
36	0xbfa3456e	-1.2755563
37	0xbf731b94	-0.94963956
38	0xbed5f266	-0.41786498
39	0xbfc32362	-1.5245173
40	0xc0127fe5	-2.289056
41	0xbf22fc25	-0.6366599
42	0xc0018824	-2.0239344
43	0xbf1a7f72	-0.60350716
44	0xbeed865f	-0.4639158
45	0xbeee0df7	-0.4649503
46	0xc00e51bc	-2.2237387
47	0xbfb0e5d8	-1.3820143
48	0xbfbe4c44	-1.4867024
49	0xbf7b139d	-0.980768
50	0xbe7eb79a	-0.24874726
51	0xbff5f036	-1.9213932
52	0xbf231ea9	-0.6371866
53	0xbf4b0925	-0.7931083
54	0xc02068db	-2.5063999
55	0x3e05208d	0.13000698
56	0xbe86a1ea	-0.26295406
57	0xbfd7038d	-1.6797959
58	0x3e6ecc49	0.23320116
59	0xbff41148	-1.9067774
60	0xbfd90fb7	-1.6957921
61	0xbfebc504	-1.8419499
62	0xbf8d544d	-1.1041352
63	0xbdc965f8	-0.09833902

block1.0.block.1.running_mean f4 [64]
0	0x3e8bb288	0.27284646
1	0x3f598f58	0.8498435
2	0x3fc33f36	1.5253665
3	0x3e944261	0.28956893
4	0x401cc310	2.4494057
5	0x404505b3	3.0784729
6	0xbdf0220d	-0.11725245
7	0xc03618ce	-2.845264
8	0x3ffee909	1.9914867
9	0x3f6e53be	0.9309653
10	0x3fff7b10	1.9959431
11	0xbf3ef884	-0.74597955
12	0x40456bb1	3.084698
13	0xbf5431d0	-0.8288851
14	0x40b2612d	5.5743623
15	0x40599928	3.399973
16	0x4023e777	2.5610025
17	0x4043b95d	3.0581887
18	0x402840ed	2.6289628
19	0xbf6b5fc9	-0.9194303
20	0x3ec61601	0.38688663
21	0x3f6e0c70	0.9298773
22	0xbfaa4a46	-1.3303916
23	0xbf2c5164	-0.6731169
24	0x3fe017a6	1.7507217
25	0xc08bcb92	-4.3686
26	0xc015eebd	-2.3426964
27	0x3d9cd53b	0.07657858
28	0x3f557103	0.8337557
29	0x3e148c9b	0.14506762
30	0x3edfec87	0.43735144
31	0x404db579	3.2142012
32	0x400c5bed	2.1931107
33	0x4081c9a2	4.0558634
34	0xbe9c0817	-0.30474922
35	0xbf9f6f8b	-1.2455915
36	0xbf9671ed	-1.1753517
37	0x3fcbe522	1.5929301
38	0x3fc710e4	1.555203
39	0xc04198ec	-3.0249586
40	0x3dcc96eb	0.09989723
41	0x3f925977	1.1433553
42	0xbf7fa52b	-0.998614
43	0x3eede00d	0.4646
44	0x4007b2b0	2.1202812
45	0x3fb9dda9	1.452077
46	0xbfb5161e	-1.4147375
47	0xc074ef8e	-3.8271213
48	0xc03a10fb	-2.9072864
49	0x3e577148	0.21039307
50	0x402fdb3e	2.7477565
51	0xbf94bfe6	-1.1621063
52	0x3fe40cbf	1.781639
53	0x3fb68568	1.4259462
54	0xbff5c80a	-1.9201672
55	0x3fd8387b	1.6892236
56	0x403395d1	2.806019
57	0xbfd174d5	-1.6363779
58	0x40118497	2.2737176
59	0xbf00084c	-0.5001266
60	0xbf4fa244	-0.8110697
61	0xc0498aa1	-3.1490862
62	0xbf23315b	-0.63747185
63	0x3fccf0b3	1.6010956

block1.0.block.1.running_var f4 [64]
0	0x3d9df7b3	0.077132605
1	0x3e28f484	0.16499525
2	0x3f7e5a99	0.9935699
3	0x3f24042b	0.6406886
4	0x3fa68fce	1.3012636
5	0x3fb48b1a	1.410495
6	0x3dfdbe56	0.12389819
7	0x3f809b38	1.0047369
8	0x3f3cd385	0.73760253
9	0x3e4f3e51	0.20238616
10	0x3f9be1ab	1.2178243
11	0x3ecee070	0.40405607
12	0x3ef42e74	0.4769169
13	0x3e71e63c	0.23622984
14	0x409f4e29	4.978291
15	0x400653a9	2.0988562
16	0x3fa45415	1.283816
17	0x3fa14a7c	1.2600856
18	0x3f193ff8	0.59863234
19	0x3ea7a65d	0.32744113
20	0x3f010d84	0.5041125
21	0x3e4555c1	0.19270994
22	0x3fe037e5	1.7517058
23	0x3fb2a237	1.3955754
24	0x3f3b5377	0.7317423
25	0x3fe6def6	1.8036792
26	0x40083b27	2.1286104
27	0x3f0f91c3	0.5608179
28	0x3e9fec81	0.31235126
29	0x3d05141f	0.032489892
30	0x3e7fef0c	0.24993533
31	0x3ff08d29	1.8793079
32	0x3f9c28f7	1.2200001
33	0x40218da8	2.524271
34	0x3e1d6cfc	0.15373605
35	0x3f7548b1	0.95814043
36	0x3ec05e5f	0.37572
37	0x3f9e9700	1.2389832
38	0x3f1fb7b2	0.6238967
39	0x3fb64ae1	1.4241601
40	0x3ee964a7	0.45584604
41	0x3e5c1fe6	0.21496543
42	0x3f4b8ddd	0.7951334
43	0x3e72c5f8	0.23708332
44	0x3f4ab9c9	0.79189736
45	0x3ee18f34	0.44054568
46	0x3ed806bf	0.42192647
47	0x4004d83b	2.0756977
48	0x404db436	3.2141242
49	0x3f04dd2e	0.51899993
50	0x3fed605b	1.854503
51	0x3f527b0e	0.82219017
52	0x3f0cbbd3	0.54974097
53	0x3ec6ad47	0.38804075
54	0x3fb6ec70	1.4290905
55	0x3fe2f01e	1.7729528
56	0x3f4a736b	0.79082364
57	0x3f99d5eb	1.2018408
58	0x3f501c5e	0.81293285
59	0x3ef414b7	0.47672054
60	0x3f2a9387	0.6663136
61	0x4058010e	3.3750644
62	0x3f363a25	0.7118247
63	0x3f418b5d	0.75603276

block2.0.block.0.weight f4 [64, 64, 3, 3]
0	0x3fe16f43	1.7612079
1	0x3f073377	0.52812904
2	0x3f9d1e0d	1.2274796
3	0x3f05cc78	0.5226512
4	0xbf8ad654	-1.0846658
5	0x3ea0b733	0.3138977
6	0x3ec09df3	0.37620506
7	0x3f03bf56	0.5146383
8	0xbfa2ddc0	-1.2723923
9	0x3f189d0a	0.5961462
10	0x3e929dbf	0.28635976
11	0xbf1f485f	-0.62219805
12	0x3f377aec	0.7167194
13	0xbfa20a61	-1.2659417
14	0xbebf219a	-0.37330323
15	0x3f02102e	0.5080594
16	0xbf80ecee	-1.0072305
17	0xbf8efdd5	-1.1171213
18	0xbf8d6905	-1.1047674
19	0x3f32056c	0.69539523
20	0xbf2fe8a3	-0.6871435
21	0x3d7e118b	0.06202845
22	0x3e8aa317	0.27077553
23	0x3ef11bae	0.4709143
24	0xbf4dea97	-0.8043608
25	0x3e832ce2	0.2562018
26	0x3ea0bfe7	0.3139641
27	0x3f7ec4aa	0.99518836
28	0x3fb18b81	1.3870698
29	0xc001e04e	-2.0293155
30	0xbe883af0	-0.26607466
31	0x3fed915e	1.8559988
32	0xbf9505cb	-1.1642393
33	0xbf0b1696	-0.5433134
34	0x403b221e	2.9239573
35	0x3d250312	0.04028613
36	0xbeebceae	-0.46056122
37	0xbf000681	-0.50009924
38	0xbf70f0d2	-0.9411746
39	0xbf41cb0b	-0.75700444
40	0xbf093ae3	-0.5360548
41	0xbf8e13f7	-1.1099843
42	0x3c4e7f3e	0.012603579
43	0x3f85f57e	1.0465543
44	0xbe548863	-0.20755152
45	0x3e7276a2	0.23678067
46	0x3f1ddd0d	0.6166542
47	0xbefed768	-0.49773717
48	0x3f1097dc	0.5648172
49	0x3f633183	0.88747424
50	0xbd893011	-0.06698621
51	0x3f80eb50	1.0071812
52	0x3e17badc	0.14817375
53	0x3ca9e979	0.020741211
54	0xbddce379	-0.107855745
55	0x3d98ec85	0.074669875
56	0xbf529ab7	-0.82267326
57	0xbf9077a4	-1.1286511
58	0x3eb3513d	0.35022917
59	0xbf00ddfc	-0.5033872
60	0x3f55c4e2	0.83503544
61	0x3f3efcec	0.7460468
62	0xbf058d99	-0.52169186
63	0x3f57145e	0.8401545
64	0xbf8f29dc	-1.118465
65	0x3f0c8c59	0.54901654
66	0xbf2bfbd5	-0.6718114
67	0xbecdbe25	-0.4018413
68	0xbd306d8a	-0.043073215
69	0x3db3298f	0.08748161
70	0x3f54cede	0.83128154
71	0x4008081f	2.1254957
72	0x3f02a737	0.510364
73	0x401e76dc	2.4760046
74	0x3ec7baf4	0.3900982
75	0x3ef1902d	0.4718031
76	0xbf8e715b	-1.1128343
77	0xbfabe8d7	-1.3430432
78	0x4015b38a	2.3390832
79	0xbfbe5b22	-1.4871562
80	0xbee93f52	-0.45556122
81	0x3fd2fd5a	1.6483567
82	0xbecee9ed	-0.40412846
83	0xbe640280	-0.22266579
84	0x3f55de52	0.8354236
85	0x3ebd15d4	0.36930716
86	0xbf470a02	-0.77749646
87	0xbfa90598	-1.3204832
88	0x3eabaa67	0.33528444
89	0xc033c9a3	-2.809182
90	0x3e13fd84	0.14452177
91	0xbf830841	-1.0236894
92	0xc00d70f0	-2.2100182
93	0x3e2b466e	0.16726086
94	0x3fd77b9b	1.6834596
95	0xbf890a73	-1.0706314
96	0xbe03800f	-0.12841819
97	0x3efb2770	0.49053526
98	0xbfa7204d	-1.3056732
99	0xbe863d4e	-0.26218647
100	0xbf97f2c5	-1.1870962
101	0x3ed1a585	0.40946594
102	0x40035fec	2.0527296
103	0x3f206acd	0.62662965
104	0x3edd4471	0.4321628
105	0x3ede09ee	0.4336695
106	0xbf501181	-0.8127671
107	0xbe18cfb5	-0.14922984
108	0x3e273e1b	0.16332285
109	0x3fcd721f	1.6050452
110	0x3f892642	1.07148
111	0xbe414b56	-0.18876395
112	0x3e92e357	0.28689072
113	0xbf96fcb6	-1.1795871
114	0x3f95d164	1.1704526
115	0xc06f10fe	-3.7354121
116	0xbf6b8668	-0.9200196
117	0xbf5bdb29	-0.85881287
118	0x3f667dbb	0.900356
119	0x3e53f340	0.20698261
120	0xbfae4ca5	-1.361714
121	0x3e8c927f	0.27455518
122	0x3f2ecf2a	0.6828486
123	0xc02c58e0	-2.6929245
124	0x3f3f727a	0.7478405
125	0xbfff345f	-1.9937857
126	0x3fbc7960	1.4724541
127	0x3f5e7658	0.8689933
128	0xbfdb552a	-1.7135365
129	0x3f12be26	0.57321393
130	0x3f7bac98	0.9831023
131	0xbf5678e5	-0.8377822
132	0xbe9f4784	-0.3110925
133	0x3ee7a167	0.45240328
134	0xbf1f6443	-0.6226236
135	0x3ebbfa0f	0.36714217
136	0xbfc154d2	-1.510401
137	0xbf06e330	-0.5269041
138	0x3fca6cf7	1.5814503
139	0x3f9bfef4	1.218718
140	0xbfab5ed9	-1.338832
141	0x3fc3fac9	1.5310909
142	0x3e4b4ae3	0.19852786
143	0xbea81e43	-0.32835588
144	0xbe64cea4	-0.22344452
145	0x3f823a71	1.0174085
146	0xc000ab63	-2.0104606
147	0xbcb63fed	-0.022247279
148	0x40058670	2.0863304
149	0xbe1c0f1b	-0.15240137
150	0x4005a2d0	2.0880623
151	0x400dcaa1	2.2154925
152	0xbf487a88	-0.7831197
153	0x3ffdeea4	1.9838452
154	0x3f5da554	0.86580396
155	0xc01c53de	-2.4426188
156	0xbab1c040	-0.0013561323
157	0x3f36b778	0.713737
158	0xbec19f38	-0.37816787
159	0xbfc441e9	-1.5332614
160	0x3f76a01e	0.9633807
161	0xbf5acead	-0.8547161
162	0x3ffcd03b	1.9751047
163	0x3f7c44b3	0.98542327
164	0xc004ba7d	-2.0738823
165	0xbfa1dc5c	-1.2645373
166	0x3eaa34e0	0.33243465
167	0xbf154bb9	-0.5831867
168	0xbfb7102b	-1.4301809
169	0x3fec4a80	1.8460236
170	0xbed49743	-0.41521654
171	0x3f81e029	1.0146533
172	0xc02a553f	-2.661453
173	0x3f8439b6	1.0330112
174	0xbe0e69d7	-0.13907562
175	0xbfcaddc2	-1.5848925
176	0x3f9babad	1.2161766
177	0x3eed9756	0.46404523
178	0xbf399486	-0.72492254
179	0x3e91f820	0.28509617
180	0xbc8a6538	-0.016893968
181	0xbf2d47cc	-0.6768768
182	0xbf79a3d2	-0.97515595
183	0x3f779b5e	0.96721447
184	0x3f43c6a5	0.7647498
185	0x3f28fd42	0.6601144
186	0xbe8d6918	-0.27619243
187	0xbfae33cf	-1.3609561
188	0xbf47a0f7	-0.7797999
189	0x3f1102c8	0.5664487
190	0xc009299d	-2.1431649
191	0xbf21f669	-0.6326662
192	0xbf85d23d	-1.0454785
193	0x40236f65	2.553674
194	0xbf9e2cfe	-1.235748
195	0x3f5253e2	0.82159245
196	0xbf745fa9	-0.95458466
197	0xbf8eb5ac	-1.1149192
198	0x3f8b589e	1.0886419
199	0x3eea6960	0.4578352
200	0x3eb2142f	0.34781024
201	0x3dfe155e	0.12406419
202	0xbf09b692	-0.53794205
203	0x3da7d9c5	0.08195833
204	0x3f6e8ecf	0.9318666
205	0xbe193175	-0.14960273
206	0x3f6ee054	0.9331105
207	0xbf9703a9	-1.1797992
208	0xbfdebe1b	-1.7401766
209	0x3d03a291	0.032137457
210	0xbfa603b9	-1.2969886
211	0xbfe72170	-1.8057079
212	0xbddde565	-0.10834769
213	0x3e6be2a6	0.23035678
214	0xbe3dcdc7	-0.18535529
215	0xbf5d2ab7	-0.863933
216	0x3f9309ab	1.1487325
217	0x3fbe2d98	1.4857664
218	0xc01f2a38	-2.4869518
219	0xbe0d53a1	-0.13801433
220	0xbeaebae3	-0.34126958
221	0x3d92b2ae	0.07162987
222	0xbf84d9c6	-1.0378959
223	0x3f76fbae	0.9647778
224	0xbf86a98c	-1.0520492
225	0x3f34f2e8	0.70683146
226	0xbf90ab3d	-1.1302258
227	0x3e9eb396	0.30996388
228	0xbf7ea2d3	-0.994672
229	0xbf21c89d	-0.63196737
230	0xbe42017b	-0.18945877
231	0x3e2ab032	0.16668776
232	0x3f21e96e	0.6324681
233	0x3fc9dc25	1.5770308
234	0x3f88f0cf	1.0698489
235	0xbf3e4849	-0.7432905
236	0x3f86f67f	1.0543975
237	0xbfaf7765	-1.3708311
238	0xbf48566c	-0.7825687
239	0x3e0eb1d8	0.1393503
240	0xbe556265	-0.20838316
241	0x3fb14a88	1.385087
242	0x3fcdf8a7	1.6091508
243	0xbe438cd3	-0.19096689
244	0xbf9c995a	-1.2234299
245	0xbe68d061	-0.2273574
246	0xbef633a8	-0.48086286
247	0xbf40f99b	-0.7538087
248	0xbf0998f7	-0.5374903
249	0x3eff5637	0.49870464
250	0xbf835436	-1.0260074
251	0xbf9636a5	-1.1735426
252	0x3eb07b39	0.3446901
253	0xbf4a2d2b	-0.7897517
254	0xbefb3f33	-0.49071655
255	0xbeb7c7cc	-0.3589462

block2.0.block.0.bias f4 [64]
0	0xbc23767e	-0.009976981
1	0x3c172d28	0.009227075
2	0x3a930e09	0.0011219393
3	0x3d284af4	0.041087106
4	0xbcf7cfba	-0.030250419
5	0x3c58146c	0.013188463
6	0x3a3328db	0.0006834396
7	0x3c09d1d7	0.008411846
8	0x3cbf93af	0.02338585
9	0xbc92e058	-0.017929241
10	0xbc3cad0f	-0.01151587
11	0xbb218855	-0.002464791
12	0x3d434aa9	0.047678623
13	0x3c4344c4	0.0119182505
14	0x3c493758	0.012281261
15	0xbcf4367f	-0.029811142
16	0xbc25174e	-0.010076357
17	0xbc80b15a	-0.015709568
18	0x3c53e3c6	0.012932723
19	0xbca93006	-0.020652782
20	0x3c229a2d	0.009924454
21	0x3cc26bd3	0.023733055
22	0x3d2a8be0	0.0416373
23	0x3c12525e	0.008930771
24	0xbd2a2920	-0.041543126
25	0x3d2b2e86	0.041792415
26	0xbc9c0ad8	-0.01904814
27	0x3ba7b087	0.0051174792
28	0xbcd98172	-0.026550982
29	0x3cb54013	0.02212528
30	0xbc882cd3	-0.016622936
31	0xbca7b1c3	-0.020470506
32	0x3badc9d8	0.0053036027
33	0xbcd458bf	-0.025921224
34	0xbc9f6622	-0.01945788
35	0x3b9e56dc	0.004832132
36	0xbcf8dc95	-0.03037862
37	0xbb9e4d9d	-0.0048310296
38	0x3cc754cd	0.024332428
39	0xbba24052	-0.0049515152
40	0xbc9ac155	-0.018891016
41	0x3bd31066	0.006441164
42	0x3cf6bc68	0.030119136
43	0xbd42185e	-0.04738652
44	0xbcb16a0c	-0.021657012
45	0xbcbe2bc8	-0.023214236
46	0xbc7de044	-0.015495364
47	0x3cbbafaf	0.02291092
48	0xbcb452aa	-0.022012074
49	0x3cd5fa00	0.026120186
50	0xbceee17c	-0.029160254
51	0x3bd2b6b0	0.0064304695
52	0x3c8faff7	0.017539961
53	0x3cb5dfbf	0.022201417
54	0xbd0937e1	-0.033500556
55	0x3d06303c	0.032760844
56	0xbd060c9d	-0.032726873
57	0xbc89dd44	-0.01682914
58	0x3d458e44	0.04823138
59	0x3d0f477f	0.034980293
60	0x3cb35861	0.021892728
61	0x38282582	4.0089253e-05
62	0xbb658a23	-0.0035024963
63	0xbc99e447	-0.018785609

block2.0.block.1.weight f4 [64]
0	0x3fdff42e	1.7496393
1	0x3fe5c18a	1.7949688
2	0x3fa36cf2	1.2767622
3	0x4014a205	2.322389
4	0x3f8b7b9b	1.0897096
5	0x3fd40309	1.6563426
6	0x40144aab	2.3170574
7	0x3fa93851	1.3220311
8	0x3f9aee5b	1.210399
9	0x3fb9b5f1	1.4508649
10	0x3fe6a98c	1.8020492
11	0x3fd66ab4	1.6751313
12	0x3feda413	1.8565696
13	0x3fdff396	1.7496212
14	0x3dfa657a	0.12226386
15	0x3ff28360	1.8946342
16	0x3ffaf296	1.9605281
17	0x3fa6da88	1.303544
18	0x3f89d798	1.0768919
19	0x3f7f4863	0.9971983
20	0x3efed5eb	0.4977258
21	0x3fe8f33e	1.8199232
22	0x3ff585ee	1.9181497
23	0x3f0f1b7d	0.5590132
24	0x3fb3a529	1.4034778
25	0x402599d0	2.587513
26	0x3fc84dc5	1.5648733
27	0x3f7a06d4	0.9766667
28	0x3fb06f0a	1.3783886
29	0x3f5f6e6c	0.87277865
30	0x3f8d7c4b	1.1053556
31	0x3fa386a6	1.2775466
32	0x3fb4f266	1.4136474
33	0x3facbaa3	1.3494457
34	0x3fac65d3	1.3468574
35	0x3fc8ec9a	1.5697205
36	0x3fe301dc	1.7734942
37	0x3fad56cc	1.3542113
38	0x3fc686e7	1.5509919
39	0x3ff8beea	1.9433262
40	0x3f9c24e4	1.2198758
41	0x3fc34ea2	1.5258372
42	0x3f0816aa	0.5315958
43	0x3fd7543b	1.682258
44	0x3f95c383	1.170029
45	0x3fd7eb46	1.6868675
46	0x4017956c	2.368495
47	0x3fd1cf0f	1.6391314
48	0x3fffc0dd	1.9980732
49	0x3fe04450	1.7520847
50	0x3f899510	1.0748615
51	0x3fed8225	1.8555342
52	0x3f66a541	0.9009591
53	0x3ff062e7	1.8780183
54	0x3fb67c4a	1.425668
55	0x3f1ecd34	0.62031865
56	0x3f93fbc6	1.156121
57	0x3fa5fa85	1.2967077
58	0x3fc93ca0	1.5721626
59	0x3cab8d66	0.020941447
60	0x3fdf6e16	1.745547
61	0x4017e4fc	2.373351
62	0x3fc9ada4	1.5756116
63	0x3fad4ace	1.3538454

block2.0.block.1.bias f4 [64]
0	0xbf2ca740	-0.67442703
1	0xbf224992	-0.6339351
2	0xbf47866f	-0.77939504
3	0xbfe027e9	-1.751218
4	0x3e282058	0.16418588
5	0xbe892fa4	-0.2679416
6	0xbf54770c	-0.8299415
7	0xbef74d2b	-0.48301062
8	0xbf7c20a3	-0.984873
9	0xbf814176	-1.0098102
10	0xbe09a7e5	-0.13442953
11	0xbfb7c310	-1.4356403
12	0xbfb3740f	-1.4019793
13	0xbff1c329	-1.8887683
14	0xbf5bd4c7	-0.8587155
15	0xbf91df4e	-1.1396272
16	0xbe33c38c	-0.17555064
17	0xbf0116ed	-0.50425607
18	0xbfc5ad51	-1.5443517
19	0xbf7b0439	-0.9805332
20	0xbd937900	-0.07200813
21	0xbffb1ec3	-1.9618763
22	0xbfaa87e1	-1.3322717
23	0xbfb50395	-1.4141718
24	0xbfc122a2	-1.5088694
25	0xbfa397b5	-1.2780672
26	0xbfa5dd46	-1.2958152
27	0xbed96581	-0.42460254
28	0xbfe8f5e0	-1.8200035
29	0xbf676e7d	-0.90402967
30	0xbf06ae58	-0.5260978
31	0xbf9f966b	-1.2467779
32	0xbfc8f13b	-1.5698618
33	0xc0003662	-2.0033193
34	0xbde7cc0e	-0.11318217
35	0xbf549606	-0.8304142
36	0xbfd1760e	-1.6364152
37	0xbfa8f33d	-1.319923
38	0xbf59dbe3	-0.85101146
39	0xbf2b86c2	-0.670025
40	0x3d13b4fb	0.03606127
41	0xbf225615	-0.634126
42	0xbf0dd0cb	-0.5539672
43	0xc004141f	-2.063728
44	0xbf70e4d8	-0.9409919
45	0xc005b089	-2.0888999
46	0x3e513154	0.20428973
47	0xbf018fc0	-0.5060997
48	0xbe44368b	-0.19161431
49	0xc0096b26	-2.1471648
50	0xbf97d2dd	-1.1861225
51	0xbfcd0eff	-1.6020201
52	0xbfc9cbfc	-1.5765376
53	0xbf8afb68	-1.0857973
54	0xbfbaebb6	-1.4603183
55	0xbf34e6ca	-0.70664656
56	0x398dc841	0.00027042817
57	0xc003ad05	-2.0574353
58	0xbf05cde2	-0.5226728
59	0xbe8c7848	-0.27435517
60	0xbfbe3177	-1.4858845
61	0xbf4ccd96	-0.800012
62	0xbe9d59b3	-0.30732498
63	0xbf2c6016	-0.67334116

block2.0.block.1.running_mean f4 [64]
0	0x41123b11	9.1394205
1	0xc1c5f18f	-24.742949
2	0x41dbdffa	27.484364
3	0x41449f74	12.288929
4	0x42201584	40.02101
5	0xc20f7e2a	-35.873207
6	0xc1cdce9a	-25.72588
7	0xc21b78c9	-38.867954
8	0xc17c5ac6	-15.7721615
9	0x414bfdd7	12.749473
10	0xc2546c2a	-53.10563
11	0xc1e7a685	-28.956308
12	0x41c19268	24.196487
13	0x4129f613	10.622577
14	0xc13db1de	-11.855925
15	0xc2089cb2	-34.153023
16	0xc283e420	-65.94556
17	0xc204c7fc	-33.195297
18	0x4129d552	10.61458
19	0x4202e416	32.72274
20	0x41e7f928	28.996658
21	0xc05a3af4	-3.4098482
22	0x4103b43d	8.2315035
23	0xbfff8752	-1.9963171
24	0x4043334a	3.0500054
25	0xc2268861	-41.633183
26	0x4220a518	40.161224
27	0xc1de7872	-27.808811
28	0x420b09a7	34.759426
29	0xc12dff8d	-10.87489
30	0x4240969d	48.147083
31	0xc08fa259	-4.488568
32	0x4255eb2b	53.479656
33	0xc11a6cf7	-9.651603
34	0xc1d7b955	-26.965494
35	0xc11dc51f	-9.860625
36	0x41c251d2	24.289951
37	0x416677bd	14.404233
38	0xc18d465d	-17.659357
39	0xc1b49759	-22.5739
40	0x40cc99df	6.393783
41	0xc158dc5c	-13.553799
42	0x412214ef	10.130111
43	0x41af13b2	21.884617
44	0xc029a519	-2.6507018
45	0x41965e72	18.796116
46	0x4175e36c	15.368023
47	0xc26b0280	-58.75244
48	0x417ee0e6	15.929907
49	0x402992b8	2.64958
50	0xc2196054	-38.34407
51	0x419fdb79	19.982164
52	0xc0c5d0f5	-6.1817575
53	0xc245b2ac	-49.424484
54	0x3dfab90b	0.122423254
55	0x4157b17c	13.480831
56	0x41d152ec	26.16549
57	0x4190bc87	18.092054
58	0xc0bea8e8	-5.9581184
59	0xc06e261b	-3.7210758
60	0x4088ac63	4.2710433
61	0xc1714168	-15.078468
62	0xc19380d1	-18.437899
63	0x41248249	10.281808

block2.0.block.1.running_var f4 [64]
0	0x4451f2ac	839.79175
1	0x450026c5	2050.423
2	0x44c6b915	1589.7838
3	0x44fcf847	2023.7587
4	0x449a2be7	1233.372
5	0x44e54602	1834.1877
6	0x448e0edc	1136.4644
7	0x452bdd9d	2749.8508
8	0x44624041	905.00397
9	0x450e86cd	2280.425
10	0x45386da6	2950.853
11	0x4478bf86	994.99255
12	0x45354ea3	2900.9148
13	0x447aea32	1003.6593
14	0x43ea1cec	468.22595
15	0x445f8f0b	894.23505
16	0x45573909	3443.5647
17	0x4529d044	2717.0166
18	0x45424d77	3108.8416
19	0x44a08422	1284.1292
20	0x44cb961f	1628.6913
21	0x44921dad	1168.9274
22	0x4510e1fb	2318.1238
23	0x448b869e	1116.2068
24	0x44ef7635	1915.694
25	0x44b56194	1451.0493
26	0x44c9707a	1611.5149
27	0x453bb826	3003.5093
28	0x4504de0b	2125.8777
29	0x448ace12	1110.4397
30	0x44f60129	1968.0363
31	0x44b02b10	1409.3457
32	0x44be19ca	1520.8059
33	0x44548506	850.0785
34	0x44d6f094	1719.5181
35	0x44d98b6f	1740.3573
36	0x452cf188	2767.0957
37	0x4501923f	2073.1404
38	0x443728c0	732.6367
39	0x44afa02d	1405.0055
40	0x44a7cb5f	1342.3553
41	0x45043ced	2115.8079
42	0x44f8ebe0	1991.3711
43	0x44ed73dc	1899.6206
44	0x45197820	2455.5078
45	0x45164174	2404.0908
46	0x44b7e5d2	1471.1819
47	0x4594351a	4742.6377
48	0x450e834e	2280.2065
49	0x448c81a4	1124.0513
50	0x44fcc5f9	2022.1866
51	0x449d22b8	1257.085
52	0x44b7d484	1470.6411
53	0x44d0f389	1671.6105
54	0x44b2f976	1431.7957
55	0x44b6dfce	1462.9939
56	0x44eb496d	1882.2946
57	0x44a5e700	1327.2188
58	0x4524d633	2637.3875
59	0x44aefc78	1399.8896
60	0x4537cdd8	2940.8652
61	0x44ac277e	1377.2341
62	0x4512e75f	2350.4607
63	0x44b4738c	1443.6108

block3.block.0.weight f4 [64, 64, 3, 3]
0	0xc01976ff	-2.397888
1	0x4009ad79	2.151213
2	0xbfb561a4	-1.4170423
3	0xbd8bd26f	-0.068272464
4	0xbe5d3f79	-0.21606244
5	0x3eed4f71	0.4634967
6	0xbfaeb2e6	-1.3648345
7	0xbf42998f	-0.7601556
8	0x3e34b1dc	0.17645973
9	0xbf3b0335	-0.7305177
10	0xbf59739d	-0.84942037
11	0xbf62d52a	-0.8860651
12	0xbf811428	-1.0084276
13	0xbf269e22	-0.6508504
14	0xbfecf76e	-1.851301
15	0x3f972c82	1.1810458
16	0xbf90cf66	-1.1313293
17	0xbf4ae9d4	-0.79263043
18	0xbead6a96	-0.3387038
19	0xbf1c1f3b	-0.60985154
20	0x3fa343af	1.275503
21	0x3fbe62c3	1.487389
22	0xbef6fcb2	-0.48239666
23	0x3db731a3	0.08945014
24	0xbfb691dd	-1.4263264
25	0xbf5b9b62	-0.8578397
26	0xbf09002a	-0.53515875
27	0xbf82c89a	-1.0217469
28	0xbf704a31	-0.9386321
29	0x3ed5d78b	0.4176601
30	0x3fe3bdfc	1.7792354
31	0xbde45963	-0.11149862
32	0x3f4539b4	0.77041173
33	0x3e47b257	0.19501625
34	0xbf52f680	-0.8240738
35	0xc0018f23	-2.0243614
36	0xbbf1aa77	-0.0073750573
37	0xc00eb9f0	-2.2300987
38	0xbfd00d9b	-1.6254152
39	0x3ed3a2b3	0.41335067
40	0xbf96026e	-1.1719491
41	0xbfbcd848	-1.4753504
42	0xbef7a7c3	-0.4837018
43	0xbee5ead7	-0.4490573
44	0xbf88cf19	-1.0688201
45	0xbc7e79a8	-0.015531935
46	0x3f8083a0	1.0040169
47	0xbf71c5c9	-0.9444242
48	0x40027730	2.0385246
49	0xbf4c0014	-0.7968762
50	0xbefc5eb2	-0.49290997
51	0x3f8b6d70	1.0892773
52	0xbe4eb625	-0.2018667
53	0xbf95c177	-1.1699666
54	0x3f3a3680	0.7273941
55	0x3eaa30ac	0.3324026
56	0xbf9390d2	-1.1528571
57	0xbf8d3159	-1.1030685
58	0xbe73f050	-0.2382214
59	0xc013b71b	-2.3080509
60	0x3f1d6544	0.61482644
61	0xbe43b209	-0.19110884
62	0xbff48eb6	-1.9106052
63	0x3fb8f678	1.4450216
64	0xbed9c103	-0.4253007
65	0xbfb5bc11	-1.4198018
66	0x3f796ef4	0.97434926
67	0x3e4ccf86	0.20001039
68	0xbfc78b24	-1.5589337
69	0x3e503712	0.20333508
70	0x3e5b0b57	0.21391045
71	0x3d025398	0.031818002
72	0xbe861085	-0.26184478
73	0x3dfc012f	0.12304913
74	0x3fb85c8e	1.4403245
75	0x3f1f1de7	0.62155
76	0xbfa434fc	-1.282867
77	0x3f344903	0.7042391
78	0xbe14f8e4	-0.14548069
79	0xbf502c19	-0.8131729
80	0x3f437b80	0.7636032
81	0x3e25abb6	0.16178784
82	0xbfcd75d2	-1.6051581
83	0xbf7d1b67	-0.9886994
84	0x3fc9e652	1.5773413
85	0xbfc214fd	-1.5162655
86	0x3e5cb229	0.21552338
87	0xbefa56a9	-0.4889424
88	0x3e10a15a	0.1412405
89	0xbff74a0f	-1.9319476
90	0x3f68713e	0.90797794
91	0x3ef1cb5e	0.4722547
92	0xbfba408c	-1.4550948
93	0xbf063c07	-0.52435344
94	0x3f47a137	0.7798037
95	0xbfa1e4e9	-1.2647983
96	0x3fb1621f	1.3858069
97	0x3c7a4b1b	0.015276696
98	0xbfb554be	-1.4166486
99	0x3fe91245	1.82087
100	0xbd36b313	-0.044604372
101	0x3f32ac2f	0.6979398
102	0x3eec76bc	0.46184337
103	0x3feac160	1.8340263
104	0x3f8c4c21	1.0960733
105	0x3e83c8ca	0.25739127
106	0x3ea946e9	0.33061913
107	0x3ed85314	0.42250884
108	0x3f3d15b0	0.7386122
109	0xbfc3587f	-1.5261382
110	0x3fa6cc23	1.3031048
111	0xbfb62dc4	-1.4232717
112	0xbf33dfa4	-0.70263124
113	0xbf846cf3	-1.0345749
114	0xbe7ad596	-0.24495539
115	0xbe8ba111	-0.2727132
116	0xbfa2180a	-1.2663586
117	0x40017610	2.022831
118	0x3e9a692d	0.30158368
119	0x3f06d2a5	0.5266517
120	0x3f42897e	0.75991046
121	0x3e95dbb9	0.29269198
122	0xbe048148	-0.12939942
123	0xbfa43fc5	-1.2831961
124	0x3d65acb8	0.05607292
125	0xbfad1335	-1.3521487
126	0xbd8fd847	-0.070236735
127	0xbea2e15a	-0.31812555
128	0xbded5a25	-0.11589459
129	0xbd3a0367	-0.0454134
130	0xbeaeeb04	-0.34163678
131	0xbd54d709	-0.051962886
132	0xbe1a7ea2	-0.15087369
133	0x3df9ff2b	0.122068726
134	0xbe1526f8	-0.14565647
135	0x3f527c02	0.8222047
136	0x3eb97899	0.3622482
137	0xbf2cd943	-0.67519015
138	0x3fef3222	1.8687174
139	0x3ef50c16	0.47860783
140	0x3f998638	1.1994085
141	0xbf1c2cf2	-0.6100608
142	0xbea1ddcc	-0.3161453
143	0xbe7fac6b	-0.24968116
144	0xbfdfbffa	-1.7480462
145	0xbd5497b8	-0.051902503
146	0xbedad4d5	-0.42740503
147	0xbd2830d3	-0.041062187
148	0x3e8d5316	0.27602452
149	0xbde88373	-0.11353197
150	0xbf1be7c0	-0.609005
151	0xbf553f2d	-0.83299524
152	0xc00e5904	-2.224183
153	0x3ff45ff0	1.9091778
154	0xbed8cf4b	-0.42345652
155	0xbffa6e80	-1.9564972
156	0x3e6ad65c	0.22933334
157	0xbe689eb6	-0.22716793
158	0xbe2a17d2	-0.16610649
159	0xbf852928	-1.0403185
160	0xbf40028a	-0.75003874
161	0xbf93d9eb	-1.1550878
162	0xbfdc17ee	-1.7194803
163	0xc008c2a1	-2.1368792
164	0xbff12675	-1.8839861
165	0x3f24a64a	0.64316237
166	0xc0367777	-2.8510416
167	0xc02c759e	-2.6946788
168	0xbed62582	-0.4182549
169	0xbf2e7bc4	-0.681576
170	0xbf838b90	-1.0276966
171	0xbfa60995	-1.2971674
172	0xbf355426	-0.70831525
173	0xbf95afe0	-1.1694298
174	0xbeb60cae	-0.3555655
175	0xbedcc97d	-0.43122473
176	0xbf9509cf	-1.1643618
177	0xbfab5f08	-1.3388376
178	0xbf1eed31	-0.62080675
179	0xbfc9e157	-1.5771893
180	0xbe7ed2c3	-0.24885087
181	0xbe7f19d0	-0.2491219
182	0x3fed1eef	1.8525065
183	0x3f80bfc5	1.0058523
184	0xbf7153e1	-0.94268614
185	0x3e6a6cf8	0.22893131
186	0xbfdc48fb	-1.7209772
187	0xbe924be6	-0.2857353
188	0xbec3290f	-0.38117263
189	0x3fb3a04d	1.4033295
190	0xbf2e5e2d	-0.6811245
191	0xbf9c27dd	-1.2199665
192	0x3f37e6c8	0.7183652
193	0x3f5fe3ab	0.8745677
194	0x3fad111d	1.3520848
195	0xbf64314f	-0.8913774
196	0xbf3794bd	-0.7171133
197	0xbe75a4d7	-0.23988663
198	0xbe052f23	-0.13006262
199	0xbff52831	-1.915289
200	0x3f11c25c	0.56937194
201	0xbf6ae875	-0.9176095
202	0x3e831c27	0.25607416
203	0xbef3c5ac	-0.4761175
204	0xbf62a256	-0.88528955
205	0xbf9c8650	-1.2228489
206	0xbb0fd40a	-0.0021946453
207	0x3fc54ba2	1.5413706
208	0xbf0857f3	-0.532592
209	0xbf685d24	-0.9076712
210	0x3fde27ed	1.7355934
211	0xbfd1b0a1	-1.6382028
212	0xbe9bb47e	-0.30411142
213	0xbea85c01	-0.32882693
214	0xbe249b83	-0.16074948
215	0xbea7fc59	-0.32809713
216	0xbfd539a2	-1.6658213
217	0xbee382d1	-0.44435742
218	0x3eeeaf26	0.46618003
219	0xbf4dc201	-0.8037415
220	0xbed22221	-0.41041663
221	0x3e0a7389	0.13520636
222	0xbe93d440	-0.2887287
223	0xbf941263	-1.1568111
224	0xbfa8b61e	-1.3180578
225	0x3dce2642	0.10065891
226	0x3e851b2e	0.259973
227	0xbf74232c	-0.9536617
228	0x3ea8121e	0.32826322
229	0xbd901186	-0.07034592
230	0xbdebd3bf	-0.11514997
231	0xbe49a2fa	-0.19691077
232	0xbead92e6	-0.33901137
233	0xbf17c500	-0.59284973
234	0xbe9b2501	-0.3030167
235	0xbfd3214a	-1.6494534
236	0xbf25e727	-0.64805835
237	0x3fbc3583	1.470383
238	0xbf730dc4	-0.9494288
239	0xbfb84368	-1.4395571
240	0xbef054e2	-0.4693976
241	0x3f52af31	0.8229857
242	0xbf8f526d	-1.1197029
243	0xbf710977	-0.9415507
244	0x3eb8f080	0.36120987
245	0xbe7aa5f4	-0.24477369
246	0x3e81e9ce	0.2537369
247	0x3f2c30d1	0.6726199
248	0x3ec60f75	0.38683668
249	0xbf13aa5f	-0.5768184
250	0x3f7aba5c	0.9794061
251	0xbf93fb8b	-1.156114
252	0xbf005c37	-0.5014071
253	0xc0212295	-2.5177357
254	0xbfe6e6fb	-1.803924
255	0x3e6ca745	0.23110683

block3.block.0.bias f4 [64]
0	0xbd02cff4	-0.0319366
1	0x3b701573	0.0036633878
2	0x3c160e6c	0.009158712
3	0xbd259fd6	-0.040435635
4	0x3c803eb9	0.015654908
5	0x3c829581	0.01594043
6	0x3d0c0dc0	0.0341928
7	0x3cf7b7f3	0.030239081
8	0x39006cb3	0.00012247525
9	0x3cf15535	0.029459575
10	0xbd008170	-0.03137344
11	0x3c77ed95	0.015132328
12	0xbd02a75d	-0.03189789
13	0x3bc52d69	0.006017376
14	0x3bc3314d	0.005956805
15	0xbcd5fc96	-0.026121419
16	0x3d177a8b	0.0369821
17	0x3c839f94	0.016067304
18	0x3b91f5d4	0.004454354
19	0x3c1f2c8e	0.0097152125
20	0xbd2f1e3c	-0.042753443
21	0x3cad24a8	0.021135643
22	0x3c49dea1	0.012321145
23	0x3ba4ee95	0.005033324
24	0x3b9bf6d2	0.004759648
25	0x3cdab266	0.026696395
26	0xbcb3558f	-0.021891383
27	0xbc657997	-0.01400604
28	0xbc28a447	-0.010293073
29	0x3cde8102	0.027161125
30	0xbd2f47e1	-0.04279316
31	0x3c76af16	0.015056392
32	0x3b052d1f	0.0020321084
33	0x3d05f99a	0.03270874
34	0x3c9b494a	0.018955845
35	0x3cad8836	0.021183114
36	0xbc391d00	-0.011298418
37	0xbc5d0e37	-0.013492159
38	0xbcf508a6	-0.02991135
39	0xbcb0345b	-0.02150934
40	0xbd15a1de	-0.03653132
41	0xba3ccd7b	-0.000720225
42	0x3d3be681	0.045874123
43	0x3ca41a9d	0.020032221
44	0x3d18fe5e	0.03735196
45	0xbd0c71b6	-0.03428813
46	0xbc85d67b	-0.016337624
47	0xbb82bf46	-0.0039900867
48	0x3ca34f49	0.019935267
49	0x3c8a441a	0.016878176
50	0x3cc2dfc3	0.023788339
51	0xbca17705	-0.019710073
52	0x3d07249d	0.0329939
53	0xbc265406	-0.010151869
54	0xbcca92e8	-0.024728253
55	0xbd155fe1	-0.03646839
56	0x3afcfc13	0.0019301198
57	0x3c57ef7c	0.013179656
58	0x3c9e1f5e	0.019302066
59	0x3d02bb1b	0.03191672
60	0x3d10cad6	0.03534969
61	0x3c7ad7c1	0.015310229
62	0x3cc41655	0.02393643
63	0xbcc87189	-0.0244682

block3.block.1.weight f4 [64]
0	0x3fb9abb0	1.450552
1	0x3fbdf28e	1.4839647
2	0x3fe5d28b	1.7954878
3	0x3fbeef83	1.4916843
4	0x40069619	2.1029112
5	0x3f4a5820	0.7904072
6	0x3ff09644	1.8795857
7	0x40142b16	2.3151298
8	0x3f8d4e21	1.1039468
9	0x3fa456ce	1.2838991
10	0x3e251a68	0.16123354
11	0x3f797acf	0.97453016
12	0x3fb1ada1	1.3881112
13	0x3f906e27	1.1283616
14	0x3feace5b	1.8344225
15	0x40068921	2.1021197
16	0x40167efc	2.3515005
17	0x3fab783b	1.3396066
18	0x3f24ba10	0.6434641
19	0x3fcc31c5	1.5952688
20	0x3fb57ad5	1.417811
21	0x400abd83	2.1678169
22	0x3fd51a4a	1.6648648
23	0x3fe966d9	1.8234512
24	0x3ff0035e	1.8751028
25	0x400215ce	2.0325809
26	0x3fbdcf73	1.4828933
27	0x3f935ed9	1.151332
28	0x3f15f276	0.5857309
29	0x3fcd73b5	1.6050936
30	0x3f9f747f	1.2457427
31	0x3fc8f385	1.5699316
32	0x3fbb6f9d	1.4643437
33	0x3f90650c	1.1280837
34	0x400e7bdc	2.2263098
35	0x3dca20b4	0.09869519
36	0x3dd3345f	0.10312723
37	0x400a2892	2.1587262
38	0x3f81d3af	1.0142726
39	0x3fe27cfc	1.7694392
40	0x3fb1cb52	1.3890173
41	0x3fb60f1e	1.4223363
42	0x3fa594ab	1.2935995
43	0x3ff3a05b	1.9033312
44	0x3fb319b5	1.399222
45	0x3fbac8b0	1.4592495
46	0x400e4d8a	2.2234826
47	0x3fd47eea	1.6601231
48	0x3ff7913e	1.9341199
49	0x3fd95431	1.6978818
50	0x3ff308e0	1.8987083
51	0x3f1210ea	0.5705706
52	0x3f821b6b	1.0164617
53	0x3fb15447	1.3853844
54	0x3fa1bcae	1.2635705
55	0x3f5cdd38	0.86275053
56	0x40032c48	2.0495777
57	0x3f9b8128	1.214879
58	0x3fed7beb	1.8553442
59	0x3fd4d5e6	1.6627777
60	0x4003b941	2.058182
61	0x3f9d7172	1.2300246
62	0x3fc6bfa2	1.5527232
63	0x3d5166f4	0.051123574

block3.block.1.bias f4 [64]
0	0xbf84c661	-1.037304
1	0xbefcbb88	-0.49361825
2	0xbf8d7390	-1.1050892
3	0xbfed757d	-1.855148
4	0xbe94d3c6	-0.2906782
5	0xbf4bab07	-0.7955784
6	0xbf35a6ab	-0.7095744
7	0xbf9b4c44	-1.213265
8	0xbfe03606	-1.7516487
9	0xbecd6415	-0.4011542
10	0xbf5318bd	-0.8245962
11	0xbf2b8b9e	-0.67009914
12	0xc002a841	-2.0415194
13	0xbf7185bd	-0.94344693
14	0xbe1e0b55	-0.1543401
15	0xbf517499	-0.8181854
16	0xbf9bc0bc	-1.2168193
17	0xbf9d20e0	-1.2275658
18	0xbf10419b	-0.56350106
19	0xbf6610d0	-0.89869404
20	0xbf986fb5	-1.190909
21	0xbe76d120	-0.24103212
22	0xbf4fabc0	-0.81121445
23	0xbf17fd24	-0.59370637
24	0xbf369de1	-0.71334654
25	0xbf9b9897	-1.2155942
26	0xbf52a86e	-0.82288253
27	0xbfae7a60	-1.3631096
28	0xbf494b1e	-0.78630245
29	0xbfb101ee	-1.3828714
30	0xbf03eb16	-0.5153059
31	0xbf464556	-0.7744955
32	0xbfaca82e	-1.3488824
33	0xbf243657	-0.64145416
34	0xbf8e161d	-1.1100498
35	0xbf3fadb1	-0.7487441
36	0xbf288c70	-0.6583929
37	0xbf27cf2d	-0.655505
38	0xbebd910f	-0.37024733
39	0xbee9e39c	-0.45681465
40	0xbfb6a109	-1.4267894
41	0xbfa94af5	-1.3226
42	0xbee5ea68	-0.449054
43	0xbf4d8a43	-0.80289096
44	0xbfcf5dd5	-1.620051
45	0xbf02d817	-0.51110977
46	0xbfab614a	-1.3389065
47	0xbf2b7a66	-0.6698364
48	0xbfb43d94	-1.4081292
49	0xbfff6069	-1.9951297
50	0xbf7a1d72	-0.9770118
51	0xbf09e86b	-0.53870267
52	0xbf239c83	-0.6391069
53	0xbf821c28	-1.0164843
54	0xbfa46596	-1.2843502
55	0xbf30598e	-0.6888665
56	0xbfc3471c	-1.5256076
57	0xbf8f15e1	-1.1178552
58	0xbf1f3d39	-0.62202793
59	0xbf759823	-0.9593527
60	0xbfae82c1	-1.3633653
61	0xbf7c40b2	-0.9853622
62	0xbed2c5ad	-0.4116644
63	0xbe77c218	-0.24195135

block3.block.1.running_mean f4 [64]
0	0xc27cf6db	-63.24107
1	0x412232e4	10.137424
2	0xc2112998	-36.29062
3	0x41f029c6	30.020397
4	0xc2857051	-66.71937
5	0xc12a0088	-10.62513
6	0xc1112bb4	-9.07317
7	0xc2755d68	-61.341217
8	0x413efc9d	11.936673
9	0x41a333a3	20.400213
10	0xc20b5c54	-34.840164
11	0x4112dca6	9.178869
12	0x414e3e55	12.890218
13	0xc1b70e20	-22.881897
14	0xc1fe4d35	-31.787699
15	0xc2000c02	-32.011726
16	0xc0ea558c	-7.3229427
17	0xc0e34a3f	-7.1028132
18	0xc1229062	-10.16025
19	0x41a0df70	20.1091
20	0xc1fa8dd2	-31.319248
21	0xc237a557	-45.911465
22	0x41d6c34c	26.84536
23	0xc232bc31	-44.68378
24	0xc297c953	-75.89321
25	0x40ba33d9	5.818829
26	0x4196a084	18.828377
27	0xc1934c91	-18.412386
28	0x40cacad8	6.337261
29	0xc28b9d7a	-69.80757
30	0xc1a17480	-20.181885
31	0x402fcc75	2.746854
32	0x409ad170	4.838066
33	0x41b6824c	22.813622
34	0xc28a0325	-69.00614
35	0x4208919a	34.14219
36	0x41c61c81	24.763918
37	0xc280958d	-64.29209
38	0x418d50d2	17.664463
39	0xc22795f2	-41.89643
40	0xc05ab070	-3.417019
41	0x41b2df40	22.359009
42	0xc214360e	-37.052788
43	0xc27bba58	-62.931976
44	0x414edc0d	12.928723
45	0x415021a5	13.008214
46	0x412e1292	10.879534
47	0xbfccca6e	-1.5999277
48	0xc23c7811	-47.117252
49	0x41944e8d	18.538355
50	0xc287e8a1	-67.95435
51	0x42111be8	36.277252
52	0xc20ca527	-35.16128
53	0xc2469250	-49.642883
54	0xc22e364c	-43.553024
55	0xc1a68744	-20.816048
56	0xc205dbc0	-33.4646
57	0xc0d3c1c2	-6.617402
58	0x41017420	8.090851
59	0x41927444	18.30677
60	0xc22436c4	-41.053482
61	0x40eca141	7.3946843
62	0xc2cf8930	-103.767944
63	0x418dfc03	17.748053

block3.block.1.running_var f4 [64]
0	0x4510bcff	2315.8123
1	0x45398959	2968.5842
2	0x4507d6da	2173.4282
3	0x44d3a137	1693.038
4	0x4582529a	4170.325
5	0x44c636fb	1585.7181
6	0x44f89f69	1988.9816
7	0x45399adb	2969.6785
8	0x450074e9	2055.307
9	0x44e5c310	1838.0957
10	0x452dc6fc	2780.4365
11	0x4527c1ed	2684.1204
12	0x4513ef41	2366.9534
13	0x451436a8	2371.416
14	0x44fac261	2006.0743
15	0x455693b0	3433.2305
16	0x44d874e5	1731.653
17	0x4491f4ed	1167.6539
18	0x44a1f0dd	1295.527
19	0x453f62b5	3062.1692
20	0x44ed2ac5	1897.3365
21	0x44cc7ee7	1635.9657
22	0x44dc5631	1762.6935
23	0x454f0b97	3312.7244
24	0x458dc3ac	4536.459
25	0x44bfda28	1534.8174
26	0x44e56221	1835.0665
27	0x44dd9d68	1772.919
28	0x450c8fcc	2248.9873
29	0x4503d68b	2109.409
30	0x446c28d0	944.6377
31	0x44d50a25	1704.317
32	0x45023236	2083.1382
33	0x4507946d	2169.2766
34	0x4559462b	3476.3855
35	0x4493695e	1179.2927
36	0x44e65296	1842.5808
37	0x454babe5	3258.7434
38	0x44e178fe	1803.781
39	0x453fcc41	3068.7659
40	0x4567a701	3706.4377
41	0x44f9f913	1999.7836
42	0x4518ed7e	2446.8433
43	0x452592b6	2649.1694
44	0x4519de57	2461.8962
45	0x44e28083	1812.016
46	0x45351592	2897.3481
47	0x44ae4735	1394.2252
48	0x4526dbfe	2669.7495
49	0x44f9c4f9	1998.1554
50	0x4550f555	3343.3333
51	0x44db1271	1752.5763
52	0x44a4aba7	1317.3641
53	0x45146c70	2374.7773
54	0x453f6665	3062.3997
55	0x4528a121	2698.0706
56	0x44df76d9	1787.714
57	0x44e4c107	1830.0321
58	0x4528de95	2701.9114
59	0x45513dcc	3347.8623
60	0x4561fef8	3615.9355
61	0x44e9bebf	1869.9608
62	0x45c2cce5	6233.612
63	0x44e4d826	1830.7546

block4.block.0.weight f4 [64, 64, 3, 3]
0	0xbf8c891d	-1.0979344
1	0x3f4b9126	0.79518354
2	0xc00cf243	-2.2022865
3	0xbf7f9d33	-0.9984924
4	0x4025a7c9	2.5883658
5	0x3facd6f1	1.3503095
6	0x3f7393a3	0.9514715
7	0xbee97a5b	-0.45601162
8	0xbe7cc049	-0.24682726
9	0xbf825e0a	-1.0184948
10	0xbde68986	-0.11256699
11	0xbdfa395f	-0.12217974
12	0xbf1e89c3	-0.6192896
13	0x3fc9532c	1.5728507
14	0xbf2ead6e	-0.6823338
15	0xbfbc5843	-1.4714435
16	0x3df0b3ed	0.11753068
17	0xbed7dcca	-0.42160636
18	0x3f4e25e3	0.8052656
19	0xbff08fd8	-1.8793898
20	0xbf5fe049	-0.87451607
21	0x3e5af372	0.2138193
22	0xbe985ed5	-0.2975985
23	0x3e13ae1b	0.14421885
24	0x3fc3ff18	1.5312223
25	0xbeec9d54	-0.46213782
26	0xbf3277b6	-0.69713914
27	0x3fa8bb4a	1.3182156
28	0xbe5f5062	-0.21808007
29	0xbf8734a5	-1.0562941
30	0xbf0cf8bc	-0.5506704
31	0x3ee018db	0.43768963
32	0x40241740	2.563919
33	0xbf270d75	-0.6525491
34	0xbfd3683e	-1.6516187
35	0xbfa94569	-1.3224307
36	0x3f137b44	0.57609963
37	0xbac875fc	-0.0015293951
38	0xbf91beae	-1.1386316
39	0xc04a05b1	-3.1565974
40	0xbd7add6b	-0.061246317
41	0x3f6365f9	0.8882747
42	0x3ff1fd69	1.890546
43	0x3e41bcba	0.1891965
44	0xbf031e55	-0.5121816
45	0x3fd498f0	1.6609173
46	0x3e994fe7	0.29943773
47	0xbfb5be7c	-1.4198756
48	0xbfc308dd	-1.523708
49	0x3f8ebdea	1.1151707
50	0x3dac4e07	0.0841332
51	0x3fa3c763	1.2795223
52	0x3f778f96	0.9670347
53	0xbec57f65	-0.38573757
54	0x3f922ce8	1.1419954
55	0x3fa2a300	1.2705994
56	0x3fad2864	1.3527951
57	0x3fa8ec69	1.3197147
58	0xbebc7d82	-0.36814505
59	0xbf8dd8c7	-1.108178
60	0x3ecb3a40	0.3969288
61	0x3f2af6da	0.66782916
62	0x3f066f77	0.5251383
63	0x3f25cb15	0.64763004
64	0x3dd9f979	0.10643286
65	0xbe7f27b4	-0.2491749
66	0x3ff68bdf	1.9261435
67	0xbe09d9e6	-0.13462028
68	0xbdf39965	-0.11894492
69	0xbfb43ed2	-1.4081671
70	0xbefecb1c	-0.49764335
71	0xbf5e4b7e	-0.8683394
72	0xc03bc733	-2.9340332
73	0xc00f5f61	-2.2401965
74	0xc000636b	-2.006068
75	0x3ed0a615	0.4075171
76	0x3ff1e5a2	1.8898203
77	0x3fb80241	1.4375688
78	0xc00713ac	-2.1105757
79	0xbf82d5cb	-1.0221494
80	0x3e56387a	0.20919982
81	0x3f59ef7c	0.8513105
82	0x3e094201	0.13404085
83	0xc00ab339	-2.167189
84	0x3e0018aa	0.12509409
85	0x3e19c637	0.15017019
86	0xbd834767	-0.06410103
87	0x3f2971d8	0.66189337
88	0x3f37c4a4	0.71784425
89	0xc0403d26	-3.0037322
90	0xbf49869d	-0.7872103
91	0xbe82d061	-0.25549605
92	0xbf9332ec	-1.1499915
93	0xbe0ba820	-0.13638353
94	0x3e8a39bc	0.26997173
95	0xbfaaecdd	-1.3353535
96	0xbf93f866	-1.156018
97	0xbeeb34f4	-0.45938838
98	0xbf903719	-1.1266814
99	0x3e9b68ad	0.303533
100	0xbf29ae20	-0.6628132
101	0xbf422176	-0.7583231
102	0xbf075019	-0.52856594
103	0xbf8204e1	-1.0157739
104	0xbe89fbce	-0.26949924
105	0xbfab723f	-1.339424
106	0x3ee9e3b7	0.45681545
107	0x40018d0c	2.0242338
108	0x3f42b3a9	0.7605539
109	0xbf092ff9	-0.53588825
110	0xbf42c469	-0.7608095
111	0xbf70af2d	-0.940173
112	0xc0058643	-2.0863197
113	0xbeebaf41	-0.46032146
114	0xbe9b496c	-0.30329454
115	0x3e79ca07	0.24393474
116	0x3f7d8696	0.99033487
117	0x3f7df0b7	0.99195427
118	0x3f6ccc2e	0.92499053
119	0x3f3e4ed6	0.74339044
120	0xc01d24d2	-2.4553723
121	0xbfe4a1ae	-1.7861841
122	0xc00ad019	-2.1689513
123	0xbecc861b	-0.39946064
124	0x3ea25e72	0.3171268
125	0xbd37f618	-0.044912428
126	0x3f1b6f6a	0.6071688
127	0xbf0f128c	-0.55887675
128	0xbed60dd0	-0.41807413
129	0xc01c25c4	-2.439805
130	0x3d233e10	0.03985411
131	0xbd9b04ef	-0.075693004
132	0x3fe5e1a9	1.7959491
133	0xbf0b50c4	-0.54420114
134	0xbf6941e1	-0.9111615
135	0x3ec09b06	0.37618273
136	0xbfc34dc4	-1.5258107
137	0xbef46b01	-0.47737888
138	0xbfa34511	-1.2755452
139	0xbf08f327	-0.5349602
140	0xbf29d93c	-0.663471
141	0xbec8c880	-0.3921547
142	0xc0220b1d	-2.5319283
143	0x3f2b9d5f	0.67037004
144	0x3fbe8e45	1.4887167
145	0x3f37f8ed	0.71864206
146	0x3eca3a81	0.3949776
147	0x3effe237	0.49977276
148	0xc045d962	-3.091393
149	0xbf07f444	-0.53107095
150	0xbf6e61fd	-0.9311827
151	0x3f04a7f3	0.5181877
152	0xbf661a3e	-0.8988379
153	0xbeea2c09	-0.4573672
154	0xbe3aca1c	-0.18241161
155	0x3fbd25a4	1.4777112
156	0xbe9699f5	-0.29414335
157	0xbf27f726	-0.65611494
158	0xbf78e287	-0.97220653
159	0x3f5512ef	0.83232015
160	0x3ea953e3	0.33071813
161	0xbf666897	-0.9000334
162	0x400b9f6a	2.1816049
163	0x3eb54f2c	0.35411966
164	0xbfc08a01	-1.5042115
165	0xbfe28175	-1.7695757
166	0xbd8c0e8a	-0.068387106
167	0x3f65e961	0.8980923
168	0xbfe1af36	-1.7631595
169	0xbeb9e8ad	-0.3631033
170	0xbf962975	-1.1731402
171	0xbe7ff8c2	-0.24997237
172	0x3ea74ae1	0.32674316
173	0x3f488f02	0.7834321
174	0x3ea62683	0.32451257
175	0xbee53f11	-0.44774678
176	0xbf2f736f	-0.6853551
177	0xc01d79c3	-2.4605567
178	0xc01318da	-2.2983918
179	0xbef55802	-0.47918707
180	0x3fa04b04	1.2522893
181	0x3f12405d	0.5712946
182	0x3f8c7070	1.0971813
183	0xbf631d6f	-0.8871679
184	0xbf7eada0	-0.9948368
185	0xbfd823e9	-1.6885959
186	0xbf53737e	-0.825981
187	0xbfaea7d1	-1.3644964
188	0x3f40c8c0	0.7530632
189	0x3f401577	0.7503275
190	0x3f9a527e	1.2056425
191	0xbecfd50e	-0.40592235
192	0xbee4470d	-0.44585457
193	0xbfcf4afe	-1.6194761
194	0xbfe729de	-1.8059652
195	0xbf02eb7b	-0.51140565
196	0x3fcf57b4	1.619864
197	0x3f944738	1.1584234
198	0x3e9c58f7	0.30536625
199	0xbf7a8899	-0.9786468
200	0x3eb677ca	0.35638267
201	0xbf9c259d	-1.2198979
202	0x3f6d8718	0.9278426
203	0x3f374bfc	0.7160032
204	0x3f7bfbbe	0.98431003
205	0x3f7521a8	0.9575448
206	0xbf498de2	-0.7873212
207	0x3eb823ca	0.35964805
208	0x3f2684f1	0.650466
209	0x3e8ee5dc	0.27909744
210	0xbe50fae2	-0.20408204
211	0xbf114896	-0.5675138
212	0x3eccf06b	0.40027174
213	0xbf395646	-0.7239727
214	0xbea7c3f3	-0.32766685
215	0x3ea7ecfc	0.32797992
216	0x3f35dce8	0.710402
217	0xbeeb58dd	-0.45966235
218	0xbfaad69e	-1.3346746
219	0xbf349812	-0.7054454
220	0x3f85b503	1.0445865
221	0xbe011ab5	-0.12607844
222	0x3f047b3c	0.5175054
223	0xbfb400e0	-1.4062767
224	0x3f95221e	1.1651037
225	0xbf0c230d	-0.54740983
226	0xbf8d6960	-1.1047783
227	0xc01271de	-2.2882
228	0x3e76a23c	0.24085325
229	0x3e123055	0.1427625
230	0xbf069e26	-0.52585065
231	0xbed6175d	-0.418147
232	0xbf9d8ac4	-1.2307973
233	0x3eef984c	0.4679588
234	0x3f6b9f22	0.9203969
235	0xc00709a9	-2.1099646
236	0xbfe29b0c	-1.7703567
237	0x3e30099a	0.17191163
238	0x401a760c	2.413455
239	0x3ee9c957	0.45661423
240	0xbdd44e0c	-0.10366449
241	0xbecae881	-0.3963051
242	0xc06075e6	-3.507196
243	0xbf8c77ba	-1.0974038
244	0xbe748c09	-0.23881544
245	0xbf7b8057	-0.98242706
246	0xbff5740b	-1.9176039
247	0xbf5b2e9d	-0.85618
248	0x3e83276f	0.25616023
249	0xbf029ab6	-0.5101732
250	0xbe86b5a7	-0.26310465
251	0x3db88e06	0.09011464
252	0x3f4f7a30	0.8104582
253	0xbfbbd3bb	-1.467399
254	0xbf18c691	-0.5967799
255	0xbf02ad82	-0.51046
